PFG-GAME/config/results/train04/DifAgent/DifAgent-442541.onnx (onnx, 74428 bytes, 6 tensors)

network_body._body_endoder.seq_layers.0.weight f4 [128, 1]
0.22581492 -1.1427094 1.1799661 0.7180017 -0.08579119 -0.66280645 0.769302 -1.83501
0.8104585 0.23578964 -0.2229017 -0.23150466 3.0484402 -0.8780501 0.21776994 0.7069048
0.50222397 1.048442 0.07412825 -0.46408603 -0.7228738 -1.0352348 -1.083473 0.2501642
-0.39999595 0.9924817 -0.93052334 0.46848944 0.25415802 -0.99004954 -0.3437477 -0.059354432
-0.94038254 -0.51824874 -0.7558168 0.029775674 0.52491266 0.84252703 0.6483328 1.2872539
0.41232616 -0.70694524 -1.3878876 -0.8997382 1.587502 -0.31813487 0.124630556 -0.80384076
-0.1724813 1.2207158 -0.8205886 -0.47864816 -0.6300753 -0.53917116 -0.41466695 -0.8387921
-1.2373182 1.7204244 -0.8730534 -1.2012594 -0.83765435 -0.43182692 -0.543569 0.1472972
0.73094124 0.108411804 -0.96388125 -0.7360225 1.3308666 0.8379679 0.81420934 -1.3742245
0.38269404 -0.74367243 2.5036235 -2.4909925 1.1380814 1.2495451 -0.8293809 -2.862188
-0.6880749 -0.27716082 -3.5597746 0.13295801 -0.84186155 -1.5336196 1.4203857 -0.6673814
-0.34934148 -0.8039496 -0.64487195 0.78877485 0.43981758 1.4208412 -1.5910193 0.5622107
0.05183761 -0.4868615 -0.28775632 -1.0229126 0.033789847 -0.52511907 -1.0683239 -0.70052356
-0.6270817 0.21469095 0.28319386 -1.3018543 -0.895851 1.8859314 -0.94017565 -0.48154098
-1.062101 -0.2432897 0.8298331 0.7313689 0.73948145 0.476437 0.007319613 -0.7781384
0.7446194 -0.4031333 1.0265522 -0.70483977 -0.79289484 0.34556702 0.3475365 -1.1409581
00000000: 073c 673e 4d44 92bf 2109 973f f6ce 373f
00000010: 4bb3 afbd afad 29bf faf0 443f 9ce1 eabf
00000020: 357a 4f3f d772 713e 5840 64be 8f0f 6dbe
00000030: a519 4340 e4c7 60bf 15ff 5e3e b7f7 343f
00000040: c091 003f 5933 863f 8dd0 973d af9c edbe
00000050: 420e 39bf 9382 84bf 3eaf 8abf 8615 803e
00000060: 45cc ccbe 4813 7e3f c736 6ebf d9dd ef3e
00000070: 0021 823e e373 7dbf b3ff afbe a21d 73bd
00000080: e9bc 70bf f3ab 04bf 367d 41bf 1dec f33c
00000090: ad60 063f daaf 573f 23f9 253f bcc4 a43f
000000a0: 6a1c d33e 5dfa 34bf 4da6 b1bf 3e55 66bf
000000b0: 4433 cb3f 93e2 a2be 4e3e ff3d 82c8 4dbf
000000c0: f09e 30be 6a40 9c3f 1812 52bf 5f11 f5be
000000d0: 9d4c 21bf 1f07 0abf 3a4f d4be 14bb 56bf
000000e0: 7160 9ebf de36 dc3f 6d80 5fbf dec2 99bf
000000f0: 8470 56bf 6b18 ddbe 5727 0bbf 14d5 163e
00000100: f71e 3b3f 0207 de3d ecc0 76bf f86b 3cbf
00000110: d659 aa3f 1085 563f 0670 503f 97e6 afbf
00000120: 79f0 c33e 5161 3ebf 5e3b 2040 6c6c 1fc0
00000130: a7ac 913f 18f1 9f3f 4f52 54bf 172e 37c0
00000140: ad25 30bf 06e8 8dbe 59d3 63c0 2526 083e
00000150: 3d84 57bf a64d c4bf 33cf b53f 82d9 2abf
00000160: e3dc b2be a4cf 4dbf 5416 25bf 26ed 493f
00000170: c52f e13e 20de b53f 85a6 cbbf 0aed 0f3f
00000180: ac53 543d e945 f9be cc54 93be cdee 82bf
00000190: 3967 0a3d 346e 06bf d6be 88bf 8355 33bf
000001a0: 6d88 20bf f2d7 5b3e c9fe 903e 29a3 a6bf
000001b0: 7e56 65bf 3366 f13f 5aaf 70bf 8a8c f6be
000001c0: edf2 87bf ef20 79be f16f 543f fe3a 3b3f
000001d0: a84e 3d3f 8def f33e 5dd9 ef3b 1434 47bf
000001e0: 619f 3e3f 7d67 cebe 1066 833f 6170 34bf
000001f0: 28fb 4abf 29ee b03e 4ef0 b13e ea0a 92bf

network_body._body_endoder.seq_layers.0.bias f4 [128]
0.14793836 0.06458779 -0.12653778 -0.15911224 0.17399889 -0.22074366 -0.13749959 0.0996329
-0.13650858 0.16283402 -0.177627 -0.1757846 0.25110602 -0.12939158 -0.0046665664 -0.07529863
-0.1398624 -0.10003046 -0.124492325 -0.23774496 -0.028619522 -0.07406996 0.034443747 -0.15992568
-0.18314788 -0.15481015 -0.15092477 -0.13306826 0.14609161 -0.13075262 0.09499335 0.20481297
-0.12625237 -0.21641022 -0.17138006 0.16553955 0.078427926 -0.02369132 -0.08139865 0.20814149
0.18217166 -0.18811032 0.10840323 -0.14478138 0.060080957 -0.19941236 -0.17538472 -0.18552537
0.14338909 -0.12612368 -0.12688875 -0.23239937 -0.00083290186 -0.20751089 -0.24744655 -0.16756167
-0.08060311 -0.120366246 -0.16515656 0.06193651 -0.16646202 -0.012463503 -0.20213702 0.07019265
-0.15296568 -0.15452632 -0.13597113 -0.16716672 0.016810928 -0.06918926 -0.15212068 0.062059578
-0.13470483 -0.20730776 0.2850226 0.099128164 0.096149534 -0.10273473 -0.14733143 0.09365013
-0.18136458 -0.18574114 0.08961442 -0.10683302 -0.19379802 0.109939 -0.15618144 -0.2036457
-0.21817237 -0.1568621 -0.18465938 -0.1351273 -0.12409134 -0.0928515 0.093366764 0.05097702
0.1682478 -0.20132455 -0.201212 0.025674704 0.15654232 -0.24914114 -0.11862367 -0.10954316
-0.23375642 -0.1533026 0.06031574 -0.05069921 -0.04904652 0.2929311 -0.12548351 -0.18512635
-0.11721675 -0.17228639 -0.13517638 0.1273489 -0.098463245 0.1644605 0.1759897 -0.20406848
-0.14100584 -0.19994278 -0.14740664 -0.19442087 -0.18926308 -0.16293088 -0.09560401 0.012113013
00000000: 277d 173e 9a46 843d 1f93 01be 52ee 22be
00000010: c42c 323e a00a 62be b1cc 0cbe 550c cc3d
00000020: e8c8 0bbe f6bd 263e dae3 35be e100 34be
00000030: f890 803e 3a7f 04be ffe9 98bb 2b36 9abd
00000040: 1738 0fbe c5dc ccbd d5f5 febd 6a73 73be
00000050: 7d73 eabc feb1 97bd e314 0d3d 8fc3 23be
00000060: 1e8b 3bbe 8d86 1ebe 068c 1abe 0c43 08be
00000070: 0a99 153e 04e4 05be e08b c23d 7eba 513e
00000080: 4d48 01be a49a 5dbe 417e 2fbe 3383 293e
00000090: d29e a03d 4d14 c2bc 56b4 a6bd 0b23 553e
000000a0: 358b 3a3e fe9f 40be 8302 de3d 9241 14be
000000b0: 7317 763d c132 4cbe 0d98 33be 5dfa 3dbe
000000c0: 97d4 123e 9126 01be 20ef 01be 1afa 6dbe
000000d0: 1957 5aba bc7d 54be a162 7dbe 4995 2bbe
000000e0: 3e13 a5bd 9482 f6bd cd1e 29be 23b1 7d3d
000000f0: 0575 2abe b833 4cbc 02fd 4ebe 2ac1 8f3d
00000100: 09a3 1cbe 263c 1ebe 043c 0bbe c12d 2bbe
00000110: 12b7 893c 19b3 8dbd 86c5 1bbe 2f32 7e3d
00000120: 10f0 09be 7c48 54be 7bee 913e b503 cb3d
00000130: 0cea c43d 9666 d2bd 0dde 16be a4cb bf3d
00000140: a3b7 39be ed32 3ebe c487 b73d 45cb dabd
00000150: fd72 46be b327 e13d 07ee 1fbe 8088 50be
00000160: 9468 5fbe 75a0 20be 5917 3dbe d05e 0abe
00000170: 9a23 febd ed28 bebd 1337 bf3d 48cd 503d
00000180: 2749 2c3e 0628 4ebe 850a 4ebe c253 d23c
00000190: a14c 203e db1e 7fbe f7f0 f2bd 2a58 e0bd
000001a0: d85d 6fbe 5bfb 1cbe a30d 773d faa9 4fbd
000001b0: 01e5 48bd 11fb 953e c07e 00be c391 3dbe
000001c0: 560f f0bd d86b 30be ad6b 0abe c067 023e
000001d0: 19a7 c9bd 5568 283e a536 343e 54f7 50be
000001e0: d663 10be cdbd 4cbe c4f1 16be 4416 47be
000001f0: 2ece 41be 5ad7 26be 09cc c3bd a975 463c

network_body._body_endoder.seq_layers.2.weight f4 [128, 128]
-0.00059814635 0.21709433 0.22776695 0.057037257 0.054195024 0.16959567 -0.07893156 -0.08484274
0.15451607 -0.19600318 0.05568186 0.15876482 -0.06360117 0.010598984 0.06675302 0.014696626
0.03501877 0.111723065 0.18527484 0.10463473 -0.06190699 0.12961516 0.0066290493 0.08763507
-0.16670156 0.22857611 -0.07684434 0.036080312 0.044439193 0.24413265 0.07593146 -0.14508599
0.19373676 0.0032338367 0.021804947 -0.21816985 0.13690346 -0.10554196 0.1249372 -0.018827977
0.10932559 0.09503432 0.10567481 0.13744478 0.05106089 0.12363527 0.048588037 0.018902455
0.0282205 0.098458536 -0.001278415 0.048581097 0.019347126 -0.076466106 -0.00047037005 0.11920894
0.10362909 0.063429676 0.07602283 -0.03459682 0.13752617 -0.043562923 -0.01436698 0.20225409
0.008786037 0.2387658 0.05038116 0.15293898 -0.081897184 0.05654355 -0.00021074888 -0.0063957274
0.09945775 0.08198579 0.08416508 0.089335464 -0.019565243 -0.021839127 0.1896926 -0.011018305
0.098477446 0.0909146 -0.17896137 0.058741655 0.18657346 0.097087875 -0.0012430705 -0.10477925
-0.12335768 -0.06818718 -0.0630968 0.120602034 0.09447782 0.021547126 0.0039463257 0.08278771
-0.0043234364 -0.09800827 0.1803027 -0.09331333 -0.0064647705 0.120787375 0.08946939 -0.03615906
0.06862816 -0.022159198 0.16681352 0.01954084 0.07336183 0.015100162 0.123499565 -0.088777386
-0.18222566 0.071898825 0.1335322 -0.008474192 -0.09767423 -0.03300664 -0.07116699 0.09281603
-0.053746566 0.03581714 0.25940216 0.09964587 0.050821424 0.118803784 -0.03921416 0.14422096
-0.044512626 -0.030429382 0.025962703 0.057470724 -0.03399552 0.2648027 0.042071134 -0.041385528
-0.0077769626 0.085022405 0.15356658 -0.03493322 0.020420475 -0.13998996 -0.018941952 0.07301811
0.01752895 0.10750567 0.10334769 -0.1358713 0.013661085 0.10171685 -0.0003551317 0.012673814
0.12675004 0.028157376 0.027603282 0.010712864 0.035917263 0.007591171 -0.11164871 -0.30717063
-0.04155916 0.01184835 0.17112203 -0.079000816 -0.078473054 0.16416733 -0.059666328 0.077881105
0.09432603 0.107312396 -0.03019079 0.03868574 -0.0144832255 0.18597351 0.057132326 0.021611985
-0.0059647323 0.028753461 0.15589514 0.041262526 -0.079599604 0.06382293 0.084363036 0.022160487
0.06036891 0.042201906 0.016813817 0.0826924 -0.011521499 -0.04119382 0.093828596 -0.0879856
-0.0070876377 0.12169852 -0.08968359 0.04184202 0.17146134 -0.05292618 0.007220706 -0.065657265
-0.1323614 0.082540944 -0.06819901 0.054691587 0.042380095 0.054629385 0.15957668 -0.08880258
-0.008787057 0.11225936 -0.073497124 0.051828425 0.0006043777 0.0051392135 0.05775806 0.062600836
0.042603504 0.05191462 0.14523587 -0.062969804 -0.026871156 -0.20403688 -0.111700214 -0.037168212
-0.048570953 -0.036130924 0.1240037 0.029410416 -0.066336244 0.15097658 -0.0022885196 -0.06911278
0.076101445 0.12287321 0.027100598 0.045130312 0.021337852 0.048409253 0.047781836 0.16414122
-0.08815446 -0.031021584 0.12351955 0.123456724 0.08818378 0.10576082 -0.12246638 -0.05360704
-0.047754213 -0.052719068 0.072269 0.09860514 0.17833078 -0.09975258 -0.03940335 -0.04547014
00000000: eccc 1cba fa4d 5e3e bd3b 693e e69f 693d
00000010: 9afb 5d3d 7daa 2d3e dfa6 a1bd 08c2 adbd
00000020: 7639 1e3e 0fb5 48be a912 643d 3f93 223e
00000030: 5541 82bd 5ca7 2d3c cfb5 883d 1eca 703c
00000040: d76f 0f3d 10cf e43d b0b8 3d3e bc4a d63d
00000050: 2f92 7dbd d6b9 043e 7f38 d93b 047a b33d
00000060: d0b3 2abe db0f 6a3e 9160 9dbd f3c8 133d
00000070: df05 363d e9fd 793e f481 9b3d 6c91 14be
00000080: ee62 463e c7ee 533b 4aa0 b23c eb67 5fbe
00000090: 6c30 0c3e 6226 d8bd 13df ff3d 213d 9abc
000000a0: 18e6 df3d 5ba1 c23d 096c d83d 53be 0c3e
000000b0: 3925 513d 7d34 fd3d 4004 473d 52d9 9a3c
000000c0: ae2e e73c a1a4 c93d 7d90 a7ba f9fc 463d
000000d0: dd7d 9e3c 439a 9cbd 009c f6b9 d123 f43d
000000e0: 7d3b d43d 6be7 813d dcb1 9b3d 65b5 0dbd
000000f0: a9d3 0c3e 096f 32bd 7b63 6bbc b21b 4f3e
00000100: 4ff3 0f3c 067f 743e 7a5c 4e3d 099c 1c3e
00000110: b6b9 a7bd 369a 673d 79fc 5cb9 4093 d1bb
00000120: 81b0 cb3d 2ae8 a73d be5e ac3d 83f5 b63d
00000130: 4a47 a0bc f8e7 b2bc c73e 423e 1f86 34bc
00000140: 8bae c93d 6f31 ba3d a641 37be 179b 703d
00000150: 1d0d 3f3e 02d6 c63d 86ee a2ba 8196 d6bd
00000160: f4a2 fcbd b8a5 8bbd e538 81bd 33fe f63d
00000170: 967d c13d 9983 b03c 2e50 813b 9a8c a93d
00000180: 9dab 8dbb 8fb8 c8bd 45a1 383e 0f1b bfbd
00000190: 6dd6 d3bb 5f5f f73d ba3b b73d 861b 14bd
000001a0: ec8c 8c3d 3587 b5bc 2ad1 2a3e 1d14 a03c
000001b0: ba3e 963d ab66 773c 57ed fc3d ebd0 b5bd
000001c0: 5d99 3abe b13f 933d aabc 083e 56d7 0abc
000001d0: 6d09 c8bd f831 07bd 00c0 91bd 5516 be3d
000001e0: 5c25 5cbd feb4 123d 5cd0 843e 2213 cc3d
000001f0: 202a 503d 664f f33d 079f 20bd a9ae 133e
00000200: df52 36bd 0a47 f9bc bcaf d43c 6c66 6b3d
00000210: e33e 0bbd 3894 873e c852 2c3d df83 29bd
00000220: e4d5 febb 3a20 ae3d 8f40 1d3e 2316 0fbd
00000230: d748 a73c 8759 0fbe 272c 9bbc 858a 953d
00000240: df98 8f3c ef2b dc3d f4a7 d33d d921 0bbe
00000250: bed2 5f3c ed50 d03d f830 bab9 d4a5 4f3c
00000260: c3ca 013e 4caa e63c 4720 e23c 0285 2f3c
00000270: fb1d 133d 5cbf f83b 14a8 e4bd 7845 9dbe
00000280: f039 2abd 951f 423c 9d3a 2f3e 2ecb a1bd
00000290: 7bb6 a0bd 7b1b 283e ae64 74bd 2180 9f3d
000002a0: 012e c13d 9ac6 db3d ad52 f7bc f074 1e3d
000002b0: 0d4b 6dbc d76f 3e3e 9603 6a3d 9e0b b13c
000002c0: cd73 c3bb 618c eb3c faa2 1f3e e502 293d
000002d0: 1e05 a3bd 99b5 823d 87c6 ac3d e989 b53c
000002e0: 6445 773d e8db 2c3d 21bd 893c a25a a93d
000002f0: abc4 3cbc daba 28bd 3529 c03d cb31 b4bd
00000300: 6a3f e8bb 133d f93d 08ac b7bd 8a62 2b3d
00000310: 9093 2f3e 1fc9 58bd ac9b ec3b 5177 86bd
00000320: bf89 07be 3a0b a93d ecab 8bbd 4904 603d
00000330: c096 2d3d 10c3 5f3d 1268 233e 21de b5bd
00000340: 97f7 0fbc 3ce8 e53d a985 96bd 0b4a 543d
00000350: 1a6f 1e3a d966 a83b b793 6c3d de34 803d
00000360: 0381 2e3d 6da4 543d b6b8 143e 50f6 80bd
00000370: e620 dcbc 0bef 50be 15c3 e4bd b23d 18bd
00000380: 56f2 46bd 05fe 13bd a7f5 fd3d 1dee f03c
00000390: 4cdb 87bd 9b99 1a3e fdfa 15bb 008b 8dbd
000003a0: 13db 9b3d f3a4 fb3d 1302 de3c 90da 383d
000003b0: b8cc ae3c c848 463d e3b6 433d a314 283e
000003c0: 538a b4bd fa20 febc d1f7 fc3d e1d6 fc3d
000003d0: b399 b43d 2199 d83d a7cf fabd 0e93 5bbd
000003e0: ec99 43bd f3ef 57bd c501 943d 7ef1 c93d
000003f0: 589c 363e 154b ccbd 6865 21bd e63e 3abd

network_body._body_endoder.seq_layers.2.bias f4 [128]
-0.15657246 -0.13498089 0.17518534 0.22098804 0.16054793 0.16100958 0.12010027 -0.16161096
0.13413844 -0.10973524 0.092472166 0.17386587 -0.122555666 0.18267958 -0.14338122 -0.11904133
-0.12296614 -0.15097077 -0.10064417 0.13088024 0.1329358 -0.15146871 0.09958422 -0.15149008
0.16693792 -0.11935805 -0.03155664 0.18927027 -0.15002052 0.15305565 -0.10509563 -0.14621988
-0.14770588 -0.09729113 -0.15315677 0.16672485 0.1269051 0.07083866 -0.104615234 -0.14942701
0.17466627 -0.14699809 0.14560993 -0.110027626 -0.13575232 -0.09701113 -0.12052192 -0.115904026
-0.13983525 -0.1302276 -0.15649013 0.14708836 -0.13527858 -0.15655397 -0.12241877 -0.09887009
-0.12843199 0.10910872 -0.1496815 0.16460916 -0.12881331 0.033938356 -0.1225424 -0.14397413
-0.10106831 -0.11538052 0.1184228 0.08616474 0.057454698 -0.11593355 0.16182289 -0.15827309
0.13179159 -0.12603953 -0.11019365 0.18586451 -0.1210443 -0.031913757 0.18796209 -0.11520021
-0.14959785 -0.1017112 -0.14400254 -0.13937563 -0.13661653 -0.14837673 0.109565 -0.14486672
0.16633263 -0.14566869 -0.15614553 0.19172128 -0.12426295 -0.14082602 0.15051734 0.13381876
-0.11562065 -0.15286939 -0.120720804 -0.15000127 0.15630345 0.07895342 -0.108462974 0.17508015
-0.12029313 -0.11098782 -0.12514271 -0.09886283 -0.116384685 -0.107606634 -0.114461415 -0.15189868
-0.12852985 -0.1169854 0.15024598 -0.095348105 0.19418362 -0.121717416 0.15818557 0.09408349
0.19731763 -0.10051073 -0.13641441 -0.14116848 -0.11419947 -0.14031878 -0.09594529 -0.13439862
00000000: 8854 20be 6e38 0abe c963 333e b04a 623e
00000010: ad66 243e b2df 243e 21f7 f53d 587d 25be
00000020: 965b 093e dfbc e0bd 0c62 bd3d e509 323e
00000030: 77fe fabd 5b10 3b3e 87d2 12be f1cb f3bd
00000040: acd5 fbbd 1598 1abe 881e cebd 7805 063e
00000050: 5320 083e 9d1a 1bbe d0f2 cb3d 3720 1bbe
00000060: c6f1 2a3e fe71 f4bd 8941 01bd 11d0 413e
00000070: fb9e 19be 9fba 1c3e 613c d7bd aaba 15be
00000080: 3640 17be 9240 c7bd 21d5 1cbe ebb9 2a3e
00000090: 69f3 013e dc13 913d 8340 d6bd 6503 19be
000000a0: b7db 323e ab86 16be c51a 153e 2a56 e1bd
000000b0: a802 0bbe c5ad c6bd 32d4 f6bd 175f edbd
000000c0: f930 0fbe 625a 05be f33e 20be 559e 163e
000000d0: 7886 0abe af4f 20be b1b6 fabd 677c cabd
000000e0: ad83 03be 6574 df3d 1b46 19be 4e8f 283e
000000f0: a3e7 03be f202 0b3d 83f7 fabd f46d 13be
00000100: e7fc cebd 9f4c ecbd a787 f23d 2477 b03d
00000110: 9e55 6b3d 926e edbd e6b4 253e 5712 22be
00000120: 60f4 063e 8210 01be 35ad e1bd 4453 3e3e
00000130: 13e6 f7bd 00b8 02bd 2279 403e 16ee ebbd
00000140: 2e30 19be f64d d0bd 6775 13be 7cb8 0ebe
00000150: 34e5 0bbe 12f0 17be 9d63 e03d f157 14be
00000160: 1a53 2a3e 2c2a 15be 9de4 1fbe 9552 443e
00000170: 937d febd b234 10be 3821 1a3e c907 093e
00000180: 85ca ecbd cb89 1cbe 783c f7bd ef99 19be
00000190: 030e 203e 55b2 a13d d621 debd 3648 333e
000001a0: 3f5c f6bd 954d e3bd 6925 00be 9878 cabd
000001b0: 185b eebd de60 dcbd bf6a eabd 548b 1bbe
000001c0: 549d 03be 0b96 efbd 15da 193e de45 c3bd
000001d0: 12d8 463e fb46 f9bd 66fb 213e d8ae c03d
000001e0: a20d 4a3e 92d8 cdbd 38b0 0bbe 788e 10be
000001f0: 69e1 e9bd baaf 0fbe f77e c4bd cb9f 09be

action_model._discrete_distribution.branches.0.weight f4 [3, 128]
-0.05696024 -0.049442887 0.08526888 0.111373834 0.11240157 0.09911975 0.07978905 -0.07245229
0.06959999 -0.22037704 0.04727605 0.11823367 -0.18775031 0.061199453 -0.077417016 -0.18621178
-0.19919246 -0.061793093 -0.049783785 0.075867236 0.061421152 -0.116832554 0.06483666 -0.1470484
0.07790704 -0.21053031 -0.024401607 0.1398102 -0.17370364 0.09266195 -0.2185927 -0.12386846
-0.16316503 -0.19697098 -0.10117965 0.11266229 0.07324036 0.026676167 -0.19105002 -0.17857087
0.104529634 -0.11703699 0.08062327 -0.20182708 -0.051872294 -0.19509456 -0.2280622 -0.22482589
-0.09630777 -0.22495343 -0.11811252 0.066020675 -0.1942686 -0.0884146 -0.036839467 -0.21894139
-0.1746188 0.06216983 -0.13533467 0.054660868 -0.20010118 0.032590304 -0.20670475 -0.08332186
-0.087639704 -0.23298813 0.07227172 0.08724799 0.059808776 -0.2030512 0.106264316 -0.11702137
0.08435636 -0.033102266 -0.19676417 0.13567002 -0.19080566 -0.013838871 0.097743504 -0.22855407
-0.08691109 -0.21635617 -0.11202217 -0.08857398 -0.15713371 -0.08501892 0.06339152 -0.081567846
0.12927973 -0.064431205 -0.12310327 0.08506008 -0.041898105 -0.16121979 0.08971883 0.083549276
-0.20559388 -0.0784522 -0.18578415 -0.07863669 0.080084234 0.032322727 -0.21449094 0.056386422
-0.20560378 -0.13694422 -0.10741169 -0.036183987 -0.22368951 -0.21707663 -0.21019079 -0.113773935
-0.21593727 -0.021274917 0.097005576 -0.111265756 0.07200514 -0.09465639 0.07600462 0.014076537
0.12840672 -0.07913065 -0.06123714 -0.07565107 -0.040820993 -0.064966306 -0.16022778 -0.07578928
0.010373879 0.043809954 -0.09926374 -0.1210569 -0.12219447 -0.13591121 -0.055236563 0.01481229
-0.06477285 0.14891985 -0.07014182 -0.13459349 0.122074544 -0.056022093 0.021117283 0.10054947
0.094791904 0.0034183653 0.01763643 -0.05512949 -0.07085025 0.015571164 -0.047033828 0.05627357
-0.10607853 0.1439587 0.0017444785 -0.09366741 0.049979445 -0.12431846 0.12539239 0.027713167
0.043936398 0.14431424 0.022367287 -0.109311424 -0.05839879 -0.022693394 0.14096043 0.04887341
-0.07913443 0.022911614 -0.084315054 0.1483623 0.0020230126 0.14199695 0.15213008 0.11832311
0.060788862 0.11419192 0.034540396 -0.09383808 0.11845424 0.02422616 0.03100398 0.12222816
0.11215382 -0.04686382 0.033952627 -0.051383313 0.12301181 -0.04666896 0.13914561 0.026784025
0.064269066 0.1383925 -0.048073657 -0.06522348 -0.041900136 0.11415764 -0.12511876 0.028081018
-0.114316136 -0.015088896 0.1369022 -0.11304022 0.14121284 -0.0031912627 -0.0854388 0.13437125
0.025526691 0.12796754 0.03340183 0.026640227 0.11259552 0.021415053 -0.054507233 0.016237961
-0.14145306 0.02067385 0.04041862 -0.070865564 0.0002282041 0.054989234 -0.08874779 -0.05950191
0.11293623 0.008399077 0.12718023 0.026668387 -0.0785466 -0.049968164 0.13471921 -0.044482645
0.10140733 0.09989456 0.037643503 0.0024226524 0.1323639 0.12828815 0.12398464 0.038181946
0.12997732 0.0026923984 -0.08708738 0.09671302 -0.06872805 0.09479381 -0.07434555 0.009792288
-0.09725923 0.014168161 0.00080948434 0.021797365 -0.0047879135 0.026984444 0.12329232 0.009723259
00000000: 244f 69bd a084 4abd 73a1 ae3d f717 e43d
00000010: cb32 e63d 4cff ca3d 7168 a33d de61 94bd
00000020: 718a 8e3d 85aa 61be 88a4 413d 7f24 f23d
00000030: 9e41 40be 47ac 7a3d d08c 9ebd 4dae 3ebe
00000040: 1cf9 4bbe c11a 7dbd 15ea 4bbd 4860 9b3d
00000050: bf94 7b3d e845 efbd 15c9 843d db93 16be
00000060: ba8d 9f3d 4295 57be e1e5 c7bc 682a 0f3e
00000070: 5edf 31be 8cc5 bd3d c4d6 5fbe bfae fdbd
00000080: bc14 27be c3b2 49be 4737 cfbd 7dbb e63d
00000090: 0bff 953d fa87 da3c 9ea2 43be 48db 36be
000000a0: a213 d63d 17b1 efbd d01d a53d c2ab 4ebe
000000b0: 0b78 54bd dec6 47be 2389 69be c238 66be
000000c0: 023d c5bd 315a 66be fae4 f1bd d935 873d
000000d0: 59ee 46be b712 b5bd fbe4 16bd 2c32 60be
000000e0: 45cf 32be cba5 7e3d 2c95 0abe 13e4 5f3d
000000f0: 53e7 4cbe 697d 053d 69aa 53be a7a4 aabd
00000100: 727c b3bd 7194 6ebe 3203 943d 13af b23d
00000110: 0cfa 743d a7ec 4fbe 1ba1 d93d e6a8 efbd
00000120: 07c3 ac3d 3e96 07bd 8c7c 49be 15ed 0a3e
00000130: 8f62 43be 6fbc 62bc bf2d c83d 140a 6abe
00000140: 71fe b1bd 798c 5dbe e16b e5bd 4666 b5bd
00000150: a9e7 20be 661e aebd 6ad3 813d 0b0d a7bd
00000160: e861 043e 82f4 83bd 911d fcbd fb33 ae3d
00000170: 599d 2bbd cd16 25be 82be b73d e21b ab3d
00000180: 3487 52be 8cab a0bd 333e 3ebe 460c a1bd
00000190: 3403 a43d d664 043d 83a3 5bbe 73f5 663d
000001a0: cc89 52be 1b3b 0cbe a9fa dbbd a935 14bd
000001b0: dd0e 65be 5649 5ebe 413c 57be 4f02 e9bd
000001c0: a91e 5dbe bc48 aebc dcaa c63d 4ddf e3bd
000001d0: 6e77 933d 36db c1bd 4fa8 9b3d 47a1 663c
000001e0: 0d7d 033e 400f a2bd ccd3 7abd f3ee 9abd
000001f0: ea33 27bd 0e0d 85bd c012 24be 6937 9bbd
00000200: 34f7 293c 1172 333d ca4a cbbd aeec f7bd
00000210: 1841 fabd 4f2c 0bbe bc3f 62bd 3faf 723c
00000220: a1a7 84bd 727e 183e 84a6 8fbd e0d2 09be
00000230: 3802 fa3d 6c77 65bd 27fe ac3c e1ec cd3d
00000240: 4222 c23d a706 603b 467a 903c 76cf 61bd
00000250: f019 91bd 321e 7f3c 8ba6 40bd 1d7f 663d
00000260: b33f d9bd e969 133e fca6 e43a b3d4 bfbd
00000270: 3fb7 4c3d ad9a febd dd66 003e b906 e33c
00000280: a7f6 333d 1dc7 133e 9a3b b73c abde dfbd
00000290: 9233 6fbd 7fe7 b9bc ee57 103e 7c2f 483d
000002a0: 3b11 a2bd 23b1 bb3c 5fad acbd 49ec 173e
000002b0: 8594 043b a667 113e fdc7 1b3e 6353 f23d
000002c0: befd 783d 74dd e93d 3b7a 0d3d 2e2e c0bd
000002d0: 2398 f23d f175 c63c 0ffc fd3c c252 fa3d
000002e0: e7b0 e53d 47f4 3fbd e911 0b3d 4f77 52bd
000002f0: 9eed fb3d f427 3fbd 307c 0e3e 2c6a db3c
00000300: 809f 833d c3b6 0d3e e2e8 44bd e393 85bd
00000310: 7a9f 2bbd 7bcb e93d 221f 00be 2a0a e63c
00000320: 941e eabd 6b37 77bc 1730 0c3e a281 e7bd
00000330: 199a 103e 8124 51bb 8afa aebd 9e98 093e
00000340: 5a1d d13c ec09 033e 5bd0 083d 9b3c da3c
00000350: 7b98 e63d 9f6e af3c fa42 5fbd 7905 853c
00000360: 12d9 10be 355c a93c ff8d 253d f721 91bd
00000370: 124a 6f39 643c 613d 67c1 b5bd 46b8 73bd
00000380: 1c4b e73d 489c 093c 893b 023e a977 da3c
00000390: 0add a0bd 6bab 4cbd d5f3 093e 6f33 36bd
000003a0: a5ae cf3d 8595 cc3d 1330 1a3d 5dc5 1e3b
000003b0: 678a 073e f85d 033e a9eb fd3d ac64 1c3d
000003c0: c618 053e f372 303b de5a b2bd 7a11 c63d
000003d0: 4bc1 8cbd 4223 c23d 7b42 98bd d56f 203c
000003e0: d92f c7bd 9321 683c 9333 543a 6390 b23c
000003f0: eee3 9cbb 7b0e dd3c af80 fc3d 4e4e 1f3c

action_model._discrete_distribution.branches.0.bias f4 [3]
0.14756161 -0.12045945 -0.09693229
00000000: 641a 173e 72b3 f6bd 7084 c6bd
