PFG-GAME/config/results/train04/DifAgent/DifAgent-442541.pt (torch, 430438 bytes, 33 tensors)

network_body._body_endoder.seq_layers.0.weight f4 [128, 1]
000000 07 3c 67 3e 4d 44 92 bf 21 09 97 3f f6 ce 37 3f
       0.22581492 -1.1427094 1.1799661 0.7180017
000010 4b b3 af bd af ad 29 bf fa f0 44 3f 9c e1 ea bf
       -0.08579119 -0.66280645 0.769302 -1.83501
000020 35 7a 4f 3f d7 72 71 3e 58 40 64 be 8f 0f 6d be
       0.8104585 0.23578964 -0.2229017 -0.23150466
000030 a5 19 43 40 e4 c7 60 bf 15 ff 5e 3e b7 f7 34 3f
       3.0484402 -0.8780501 0.21776994 0.7069048
000040 c0 91 00 3f 59 33 86 3f 8d d0 97 3d af 9c ed be
       0.50222397 1.048442 0.07412825 -0.46408603
000050 42 0e 39 bf 93 82 84 bf 3e af 8a bf 86 15 80 3e
       -0.7228738 -1.0352348 -1.083473 0.2501642
000060 45 cc cc be 48 13 7e 3f c7 36 6e bf d9 dd ef 3e
       -0.39999595 0.9924817 -0.93052334 0.46848944
000070 00 21 82 3e e3 73 7d bf b3 ff af be a2 1d 73 bd
       0.25415802 -0.99004954 -0.3437477 -0.059354432
000080 e9 bc 70 bf f3 ab 04 bf 36 7d 41 bf 1d ec f3 3c
       -0.94038254 -0.51824874 -0.7558168 0.029775674
000090 ad 60 06 3f da af 57 3f 23 f9 25 3f bc c4 a4 3f
       0.52491266 0.84252703 0.6483328 1.2872539
0000a0 6a 1c d3 3e 5d fa 34 bf 4d a6 b1 bf 3e 55 66 bf
       0.41232616 -0.70694524 -1.3878876 -0.8997382
0000b0 44 33 cb 3f 93 e2 a2 be 4e 3e ff 3d 82 c8 4d bf
       1.587502 -0.31813487 0.124630556 -0.80384076
0000c0 f0 9e 30 be 6a 40 9c 3f 18 12 52 bf 5f 11 f5 be
       -0.1724813 1.2207158 -0.8205886 -0.47864816
0000d0 9d 4c 21 bf 1f 07 0a bf 3a 4f d4 be 14 bb 56 bf
       -0.6300753 -0.53917116 -0.41466695 -0.8387921
0000e0 71 60 9e bf de 36 dc 3f 6d 80 5f bf de c2 99 bf
       -1.2373182 1.7204244 -0.8730534 -1.2012594
0000f0 84 70 56 bf 6b 18 dd be 57 27 0b bf 14 d5 16 3e
       -0.83765435 -0.43182692 -0.543569 0.1472972
000100 f7 1e 3b 3f 02 07 de 3d ec c0 76 bf f8 6b 3c bf
       0.73094124 0.108411804 -0.96388125 -0.7360225
000110 d6 59 aa 3f 10 85 56 3f 06 70 50 3f 97 e6 af bf
       1.3308666 0.8379679 0.81420934 -1.3742245
000120 79 f0 c3 3e 51 61 3e bf 5e 3b 20 40 6c 6c 1f c0
       0.38269404 -0.74367243 2.5036235 -2.4909925
000130 a7 ac 91 3f 18 f1 9f 3f 4f 52 54 bf 17 2e 37 c0
       1.1380814 1.2495451 -0.8293809 -2.862188
000140 ad 25 30 bf 06 e8 8d be 59 d3 63 c0 25 26 08 3e
       -0.6880749 -0.27716082 -3.5597746 0.13295801
000150 3d 84 57 bf a6 4d c4 bf 33 cf b5 3f 82 d9 2a bf
       -0.84186155 -1.5336196 1.4203857 -0.6673814
000160 e3 dc b2 be a4 cf 4d bf 54 16 25 bf 26 ed 49 3f
       -0.34934148 -0.8039496 -0.64487195 0.78877485
000170 c5 2f e1 3e 20 de b5 3f 85 a6 cb bf 0a ed 0f 3f
       0.43981758 1.4208412 -1.5910193 0.5622107
000180 ac 53 54 3d e9 45 f9 be cc 54 93 be cd ee 82 bf
       0.05183761 -0.4868615 -0.28775632 -1.0229126
000190 39 67 0a 3d 34 6e 06 bf d6 be 88 bf 83 55 33 bf
       0.033789847 -0.52511907 -1.0683239 -0.70052356
0001a0 6d 88 20 bf f2 d7 5b 3e c9 fe 90 3e 29 a3 a6 bf
       -0.6270817 0.21469095 0.28319386 -1.3018543
0001b0 7e 56 65 bf 33 66 f1 3f 5a af 70 bf 8a 8c f6 be
       -0.895851 1.8859314 -0.94017565 -0.48154098
0001c0 ed f2 87 bf ef 20 79 be f1 6f 54 3f fe 3a 3b 3f
       -1.062101 -0.2432897 0.8298331 0.7313689
0001d0 a8 4e 3d 3f 8d ef f3 3e 5d d9 ef 3b 14 34 47 bf
       0.73948145 0.476437 0.007319613 -0.7781384
0001e0 61 9f 3e 3f 7d 67 ce be 10 66 83 3f 61 70 34 bf
       0.7446194 -0.4031333 1.0265522 -0.70483977
0001f0 28 fb 4a bf 29 ee b0 3e 4e f0 b1 3e ea 0a 92 bf
       -0.79289484 0.34556702 0.3475365 -1.1409581

network_body._body_endoder.seq_layers.0.bias f4 [128]
000000 27 7d 17 3e 9a 46 84 3d 1f 93 01 be 52 ee 22 be
       0.14793836 0.06458779 -0.12653778 -0.15911224
000010 c4 2c 32 3e a0 0a 62 be b1 cc 0c be 55 0c cc 3d
       0.17399889 -0.22074366 -0.13749959 0.0996329
000020 e8 c8 0b be f6 bd 26 3e da e3 35 be e1 00 34 be
       -0.13650858 0.16283402 -0.177627 -0.1757846
000030 f8 90 80 3e 3a 7f 04 be ff e9 98 bb 2b 36 9a bd
       0.25110602 -0.12939158 -0.0046665664 -0.07529863
000040 17 38 0f be c5 dc cc bd d5 f5 fe bd 6a 73 73 be
       -0.1398624 -0.10003046 -0.124492325 -0.23774496
000050 7d 73 ea bc fe b1 97 bd e3 14 0d 3d 8f c3 23 be
       -0.028619522 -0.07406996 0.034443747 -0.15992568
000060 1e 8b 3b be 8d 86 1e be 06 8c 1a be 0c 43 08 be
       -0.18314788 -0.15481015 -0.15092477 -0.13306826
000070 0a 99 15 3e 04 e4 05 be e0 8b c2 3d 7e ba 51 3e
       0.14609161 -0.13075262 0.09499335 0.20481297
000080 4d 48 01 be a4 9a 5d be 41 7e 2f be 33 83 29 3e
       -0.12625237 -0.21641022 -0.17138006 0.16553955
000090 d2 9e a0 3d 4d 14 c2 bc 56 b4 a6 bd 0b 23 55 3e
       0.078427926 -0.02369132 -0.08139865 0.20814149
0000a0 35 8b 3a 3e fe 9f 40 be 83 02 de 3d 92 41 14 be
       0.18217166 -0.18811032 0.10840323 -0.14478138
0000b0 73 17 76 3d c1 32 4c be 0d 98 33 be 5d fa 3d be
       0.060080957 -0.19941236 -0.17538472 -0.18552537
0000c0 97 d4 12 3e 91 26 01 be 20 ef 01 be 1a fa 6d be
       0.14338909 -0.12612368 -0.12688875 -0.23239937
0000d0 19 57 5a ba bc 7d 54 be a1 62 7d be 49 95 2b be
       -0.00083290186 -0.20751089 -0.24744655 -0.16756167
0000e0 3e 13 a5 bd 94 82 f6 bd cd 1e 29 be 23 b1 7d 3d
       -0.08060311 -0.120366246 -0.16515656 0.06193651
0000f0 05 75 2a be b8 33 4c bc 02 fd 4e be 2a c1 8f 3d
       -0.16646202 -0.012463503 -0.20213702 0.07019265
000100 09 a3 1c be 26 3c 1e be 04 3c 0b be c1 2d 2b be
       -0.15296568 -0.15452632 -0.13597113 -0.16716672
000110 12 b7 89 3c 19 b3 8d bd 86 c5 1b be 2f 32 7e 3d
       0.016810928 -0.06918926 -0.15212068 0.062059578
000120 10 f0 09 be 7c 48 54 be 7b ee 91 3e b5 03 cb 3d
       -0.13470483 -0.20730776 0.2850226 0.099128164
000130 0c ea c4 3d 96 66 d2 bd 0d de 16 be a4 cb bf 3d
       0.096149534 -0.10273473 -0.14733143 0.09365013
000140 a3 b7 39 be ed 32 3e be c4 87 b7 3d 45 cb da bd
       -0.18136458 -0.18574114 0.08961442 -0.10683302
000150 fd 72 46 be b3 27 e1 3d 07 ee 1f be 80 88 50 be
       -0.19379802 0.109939 -0.15618144 -0.2036457
000160 94 68 5f be 75 a0 20 be 59 17 3d be d0 5e 0a be
       -0.21817237 -0.1568621 -0.18465938 -0.1351273
000170 9a 23 fe bd ed 28 be bd 13 37 bf 3d 48 cd 50 3d
       -0.12409134 -0.0928515 0.093366764 0.05097702
000180 27 49 2c 3e 06 28 4e be 85 0a 4e be c2 53 d2 3c
       0.1682478 -0.20132455 -0.201212 0.025674704
000190 a1 4c 20 3e db 1e 7f be f7 f0 f2 bd 2a 58 e0 bd
       0.15654232 -0.24914114 -0.11862367 -0.10954316
0001a0 d8 5d 6f be 5b fb 1c be a3 0d 77 3d fa a9 4f bd
       -0.23375642 -0.1533026 0.06031574 -0.05069921
0001b0 01 e5 48 bd 11 fb 95 3e c0 7e 00 be c3 91 3d be
       -0.04904652 0.2929311 -0.12548351 -0.18512635
0001c0 56 0f f0 bd d8 6b 30 be ad 6b 0a be c0 67 02 3e
       -0.11721675 -0.17228639 -0.13517638 0.1273489
0001d0 19 a7 c9 bd 55 68 28 3e a5 36 34 3e 54 f7 50 be
       -0.098463245 0.1644605 0.1759897 -0.20406848
0001e0 d6 63 10 be cd bd 4c be c4 f1 16 be 44 16 47 be
       -0.14100584 -0.19994278 -0.14740664 -0.19442087
0001f0 2e ce 41 be 5a d7 26 be 09 cc c3 bd a9 75 46 3c
       -0.18926308 -0.16293088 -0.09560401 0.012113013

network_body._body_endoder.seq_layers.2.weight f4 [128, 128]
000000 ec cc 1c ba fa 4d 5e 3e bd 3b 69 3e e6 9f 69 3d
       -0.00059814635 0.21709433 0.22776695 0.057037257
000010 9a fb 5d 3d 7d aa 2d 3e df a6 a1 bd 08 c2 ad bd
       0.054195024 0.16959567 -0.07893156 -0.08484274
000020 76 39 1e 3e 0f b5 48 be a9 12 64 3d 3f 93 22 3e
       0.15451607 -0.19600318 0.05568186 0.15876482
000030 55 41 82 bd 5c a7 2d 3c cf b5 88 3d 1e ca 70 3c
       -0.06360117 0.010598984 0.06675302 0.014696626
000040 d7 6f 0f 3d 10 cf e4 3d b0 b8 3d 3e bc 4a d6 3d
       0.03501877 0.111723065 0.18527484 0.10463473
000050 2f 92 7d bd d6 b9 04 3e 7f 38 d9 3b 04 7a b3 3d
       -0.06190699 0.12961516 0.0066290493 0.08763507
000060 d0 b3 2a be db 0f 6a 3e 91 60 9d bd f3 c8 13 3d
       -0.16670156 0.22857611 -0.07684434 0.036080312
000070 df 05 36 3d e9 fd 79 3e f4 81 9b 3d 6c 91 14 be
       0.044439193 0.24413265 0.07593146 -0.14508599
000080 ee 62 46 3e c7 ee 53 3b 4a a0 b2 3c eb 67 5f be
       0.19373676 0.0032338367 0.021804947 -0.21816985
000090 6c 30 0c 3e 62 26 d8 bd 13 df ff 3d 21 3d 9a bc
       0.13690346 -0.10554196 0.1249372 -0.018827977
0000a0 18 e6 df 3d 5b a1 c2 3d 09 6c d8 3d 53 be 0c 3e
       0.10932559 0.09503432 0.10567481 0.13744478
0000b0 39 25 51 3d 7d 34 fd 3d 40 04 47 3d 52 d9 9a 3c
       0.05106089 0.12363527 0.048588037 0.018902455
0000c0 ae 2e e7 3c a1 a4 c9 3d 7d 90 a7 ba f9 fc 46 3d
       0.0282205 0.098458536 -0.001278415 0.048581097
0000d0 dd 7d 9e 3c 43 9a 9c bd 00 9c f6 b9 d1 23 f4 3d
       0.019347126 -0.076466106 -0.00047037005 0.11920894
0000e0 7d 3b d4 3d 6b e7 81 3d dc b1 9b 3d 65 b5 0d bd
       0.10362909 0.063429676 0.07602283 -0.03459682
0000f0 a9 d3 0c 3e 09 6f 32 bd 7b 63 6b bc b2 1b 4f 3e
       0.13752617 -0.043562923 -0.01436698 0.20225409
000100 4f f3 0f 3c 06 7f 74 3e 7a 5c 4e 3d 09 9c 1c 3e
       0.008786037 0.2387658 0.05038116 0.15293898
000110 b6 b9 a7 bd 36 9a 67 3d 79 fc 5c b9 40 93 d1 bb
       -0.081897184 0.05654355 -0.00021074888 -0.0063957274
000120 81 b0 cb 3d 2a e8 a7 3d be 5e ac 3d 83 f5 b6 3d
       0.09945775 0.08198579 0.08416508 0.089335464
000130 4a 47 a0 bc f8 e7 b2 bc c7 3e 42 3e 1f 86 34 bc
       -0.019565243 -0.021839127 0.1896926 -0.011018305
000140 8b ae c9 3d 6f 31 ba 3d a6 41 37 be 17 9b 70 3d
       0.098477446 0.0909146 -0.17896137 0.058741655
000150 1d 0d 3f 3e 02 d6 c6 3d 86 ee a2 ba 81 96 d6 bd
       0.18657346 0.097087875 -0.0012430705 -0.10477925
000160 f4 a2 fc bd b8 a5 8b bd e5 38 81 bd 33 fe f6 3d
       -0.12335768 -0.06818718 -0.0630968 0.120602034
000170 96 7d c1 3d 99 83 b0 3c 2e 50 81 3b 9a 8c a9 3d
       0.09447782 0.021547126 0.0039463257 0.08278771
000180 9d ab 8d bb 8f b8 c8 bd 45 a1 38 3e 0f 1b bf bd
       -0.0043234364 -0.09800827 0.1803027 -0.09331333
000190 6d d6 d3 bb 5f 5f f7 3d ba 3b b7 3d 86 1b 14 bd
       -0.0064647705 0.120787375 0.08946939 -0.03615906
0001a0 ec 8c 8c 3d 35 87 b5 bc 2a d1 2a 3e 1d 14 a0 3c
       0.06862816 -0.022159198 0.16681352 0.01954084
0001b0 ba 3e 96 3d ab 66 77 3c 57 ed fc 3d eb d0 b5 bd
       0.07336183 0.015100162 0.123499565 -0.088777386
0001c0 5d 99 3a be b1 3f 93 3d aa bc 08 3e 56 d7 0a bc
       -0.18222566 0.071898825 0.1335322 -0.008474192
0001d0 6d 09 c8 bd f8 31 07 bd 00 c0 91 bd 55 16 be 3d
       -0.09767423 -0.03300664 -0.07116699 0.09281603
0001e0 5c 25 5c bd fe b4 12 3d 5c d0 84 3e 22 13 cc 3d
       -0.053746566 0.03581714 0.25940216 0.09964587
0001f0 20 2a 50 3d 66 4f f3 3d 07 9f 20 bd a9 ae 13 3e
       0.050821424 0.118803784 -0.03921416 0.14422096
000200 df 52 36 bd 0a 47 f9 bc bc af d4 3c 6c 66 6b 3d
       -0.044512626 -0.030429382 0.025962703 0.057470724
000210 e3 3e 0b bd 38 94 87 3e c8 52 2c 3d df 83 29 bd
       -0.03399552 0.2648027 0.042071134 -0.041385528
000220 e4 d5 fe bb 3a 20 ae 3d 8f 40 1d 3e 23 16 0f bd
       -0.0077769626 0.085022405 0.15356658 -0.03493322
000230 d7 48 a7 3c 87 59 0f be 27 2c 9b bc 85 8a 95 3d
       0.020420475 -0.13998996 -0.018941952 0.07301811
000240 df 98 8f 3c ef 2b dc 3d f4 a7 d3 3d d9 21 0b be
       0.01752895 0.10750567 0.10334769 -0.1358713
000250 be d2 5f 3c ed 50 d0 3d f8 30 ba b9 d4 a5 4f 3c
       0.013661085 0.10171685 -0.0003551317 0.012673814
000260 c3 ca 01 3e 4c aa e6 3c 47 20 e2 3c 02 85 2f 3c
       0.12675004 0.028157376 0.027603282 0.010712864
000270 fb 1d 13 3d 5c bf f8 3b 14 a8 e4 bd 78 45 9d be
       0.035917263 0.007591171 -0.11164871 -0.30717063
000280 f0 39 2a bd 95 1f 42 3c 9d 3a 2f 3e 2e cb a1 bd
       -0.04155916 0.01184835 0.17112203 -0.079000816
000290 7b b6 a0 bd 7b 1b 28 3e ae 64 74 bd 21 80 9f 3d
       -0.078473054 0.16416733 -0.059666328 0.077881105
0002a0 01 2e c1 3d 9a c6 db 3d ad 52 f7 bc f0 74 1e 3d
       0.09432603 0.107312396 -0.03019079 0.03868574
0002b0 0d 4b 6d bc d7 6f 3e 3e 96 03 6a 3d 9e 0b b1 3c
       -0.0144832255 0.18597351 0.057132326 0.021611985
0002c0 cd 73 c3 bb 61 8c eb 3c fa a2 1f 3e e5 02 29 3d
       -0.0059647323 0.028753461 0.15589514 0.041262526
0002d0 1e 05 a3 bd 99 b5 82 3d 87 c6 ac 3d e9 89 b5 3c
       -0.079599604 0.06382293 0.084363036 0.022160487
0002e0 64 45 77 3d e8 db 2c 3d 21 bd 89 3c a2 5a a9 3d
       0.06036891 0.042201906 0.016813817 0.0826924
0002f0 ab c4 3c bc da ba 28 bd 35 29 c0 3d cb 31 b4 bd
       -0.011521499 -0.04119382 0.093828596 -0.0879856
000300 6a 3f e8 bb 13 3d f9 3d 08 ac b7 bd 8a 62 2b 3d
       -0.0070876377 0.12169852 -0.08968359 0.04184202
000310 90 93 2f 3e 1f c9 58 bd ac 9b ec 3b 51 77 86 bd
       0.17146134 -0.05292618 0.007220706 -0.065657265
000320 bf 89 07 be 3a 0b a9 3d ec ab 8b bd 49 04 60 3d
       -0.1323614 0.082540944 -0.06819901 0.054691587
000330 c0 96 2d 3d 10 c3 5f 3d 12 68 23 3e 21 de b5 bd
       0.042380095 0.054629385 0.15957668 -0.08880258
000340 97 f7 0f bc 3c e8 e5 3d a9 85 96 bd 0b 4a 54 3d
       -0.008787057 0.11225936 -0.073497124 0.051828425
000350 1a 6f 1e 3a d9 66 a8 3b b7 93 6c 3d de 34 80 3d
       0.0006043777 0.0051392135 0.05775806 0.062600836
000360 03 81 2e 3d 6d a4 54 3d b6 b8 14 3e 50 f6 80 bd
       0.042603504 0.05191462 0.14523587 -0.062969804
000370 e6 20 dc bc 0b ef 50 be 15 c3 e4 bd b2 3d 18 bd
       -0.026871156 -0.20403688 -0.111700214 -0.037168212
000380 56 f2 46 bd 05 fe 13 bd a7 f5 fd 3d 1d ee f0 3c
       -0.048570953 -0.036130924 0.1240037 0.029410416
000390 4c db 87 bd 9b 99 1a 3e fd fa 15 bb 00 8b 8d bd
       -0.066336244 0.15097658 -0.0022885196 -0.06911278
0003a0 13 db 9b 3d f3 a4 fb 3d 13 02 de 3c 90 da 38 3d
       0.076101445 0.12287321 0.027100598 0.045130312
0003b0 b8 cc ae 3c c8 48 46 3d e3 b6 43 3d a3 14 28 3e
       0.021337852 0.048409253 0.047781836 0.16414122
0003c0 53 8a b4 bd fa 20 fe bc d1 f7 fc 3d e1 d6 fc 3d
       -0.08815446 -0.031021584 0.12351955 0.123456724
0003d0 b3 99 b4 3d 21 99 d8 3d a7 cf fa bd 0e 93 5b bd
       0.08818378 0.10576082 -0.12246638 -0.05360704
0003e0 ec 99 43 bd f3 ef 57 bd c5 01 94 3d 7e f1 c9 3d
       -0.047754213 -0.052719068 0.072269 0.09860514
0003f0 58 9c 36 3e 15 4b cc bd 68 65 21 bd e6 3e 3a bd
       0.17833078 -0.09975258 -0.03940335 -0.04547014

network_body._body_endoder.seq_layers.2.bias f4 [128]
000000 88 54 20 be 6e 38 0a be c9 63 33 3e b0 4a 62 3e
       -0.15657246 -0.13498089 0.17518534 0.22098804
000010 ad 66 24 3e b2 df 24 3e 21 f7 f5 3d 58 7d 25 be
       0.16054793 0.16100958 0.12010027 -0.16161096
000020 96 5b 09 3e df bc e0 bd 0c 62 bd 3d e5 09 32 3e
       0.13413844 -0.10973524 0.092472166 0.17386587
000030 77 fe fa bd 5b 10 3b 3e 87 d2 12 be f1 cb f3 bd
       -0.122555666 0.18267958 -0.14338122 -0.11904133
000040 ac d5 fb bd 15 98 1a be 88 1e ce bd 78 05 06 3e
       -0.12296614 -0.15097077 -0.10064417 0.13088024
000050 53 20 08 3e 9d 1a 1b be d0 f2 cb 3d 37 20 1b be
       0.1329358 -0.15146871 0.09958422 -0.15149008
000060 c6 f1 2a 3e fe 71 f4 bd 89 41 01 bd 11 d0 41 3e
       0.16693792 -0.11935805 -0.03155664 0.18927027
000070 fb 9e 19 be 9f ba 1c 3e 61 3c d7 bd aa ba 15 be
       -0.15002052 0.15305565 -0.10509563 -0.14621988
000080 36 40 17 be 92 40 c7 bd 21 d5 1c be eb b9 2a 3e
       -0.14770588 -0.09729113 -0.15315677 0.16672485
000090 69 f3 01 3e dc 13 91 3d 83 40 d6 bd 65 03 19 be
       0.1269051 0.07083866 -0.104615234 -0.14942701
0000a0 b7 db 32 3e ab 86 16 be c5 1a 15 3e 2a 56 e1 bd
       0.17466627 -0.14699809 0.14560993 -0.110027626
0000b0 a8 02 0b be c5 ad c6 bd 32 d4 f6 bd 17 5f ed bd
       -0.13575232 -0.09701113 -0.12052192 -0.115904026
0000c0 f9 30 0f be 62 5a 05 be f3 3e 20 be 55 9e 16 3e
       -0.13983525 -0.1302276 -0.15649013 0.14708836
0000d0 78 86 0a be af 4f 20 be b1 b6 fa bd 67 7c ca bd
       -0.13527858 -0.15655397 -0.12241877 -0.09887009
0000e0 ad 83 03 be 65 74 df 3d 1b 46 19 be 4e 8f 28 3e
       -0.12843199 0.10910872 -0.1496815 0.16460916
0000f0 a3 e7 03 be f2 02 0b 3d 83 f7 fa bd f4 6d 13 be
       -0.12881331 0.033938356 -0.1225424 -0.14397413
000100 e7 fc ce bd 9f 4c ec bd a7 87 f2 3d 24 77 b0 3d
       -0.10106831 -0.11538052 0.1184228 0.08616474
000110 9e 55 6b 3d 92 6e ed bd e6 b4 25 3e 57 12 22 be
       0.057454698 -0.11593355 0.16182289 -0.15827309
000120 60 f4 06 3e 82 10 01 be 35 ad e1 bd 44 53 3e 3e
       0.13179159 -0.12603953 -0.11019365 0.18586451
000130 13 e6 f7 bd 00 b8 02 bd 22 79 40 3e 16 ee eb bd
       -0.1210443 -0.031913757 0.18796209 -0.11520021
000140 2e 30 19 be f6 4d d0 bd 67 75 13 be 7c b8 0e be
       -0.14959785 -0.1017112 -0.14400254 -0.13937563
000150 34 e5 0b be 12 f0 17 be 9d 63 e0 3d f1 57 14 be
       -0.13661653 -0.14837673 0.109565 -0.14486672
000160 1a 53 2a 3e 2c 2a 15 be 9d e4 1f be 95 52 44 3e
       0.16633263 -0.14566869 -0.15614553 0.19172128
000170 93 7d fe bd b2 34 10 be 38 21 1a 3e c9 07 09 3e
       -0.12426295 -0.14082602 0.15051734 0.13381876
000180 85 ca ec bd cb 89 1c be 78 3c f7 bd ef 99 19 be
       -0.11562065 -0.15286939 -0.120720804 -0.15000127
000190 03 0e 20 3e 55 b2 a1 3d d6 21 de bd 36 48 33 3e
       0.15630345 0.07895342 -0.108462974 0.17508015
0001a0 3f 5c f6 bd 95 4d e3 bd 69 25 00 be 98 78 ca bd
       -0.12029313 -0.11098782 -0.12514271 -0.09886283
0001b0 18 5b ee bd de 60 dc bd bf 6a ea bd 54 8b 1b be
       -0.116384685 -0.107606634 -0.114461415 -0.15189868
0001c0 54 9d 03 be 0b 96 ef bd 15 da 19 3e de 45 c3 bd
       -0.12852985 -0.1169854 0.15024598 -0.095348105
0001d0 12 d8 46 3e fb 46 f9 bd 66 fb 21 3e d8 ae c0 3d
       0.19418362 -0.121717416 0.15818557 0.09408349
0001e0 a2 0d 4a 3e 92 d8 cd bd 38 b0 0b be 78 8e 10 be
       0.19731763 -0.10051073 -0.13641441 -0.14116848
0001f0 69 e1 e9 bd ba af 0f be f7 7e c4 bd cb 9f 09 be
       -0.11419947 -0.14031878 -0.09594529 -0.13439862

action_model._discrete_distribution.branches.0.weight f4 [3, 128]
000000 24 4f 69 bd a0 84 4a bd 73 a1 ae 3d f7 17 e4 3d
       -0.05696024 -0.049442887 0.08526888 0.111373834
000010 cb 32 e6 3d 4c ff ca 3d 71 68 a3 3d de 61 94 bd
       0.11240157 0.09911975 0.07978905 -0.07245229
000020 71 8a 8e 3d 85 aa 61 be 88 a4 41 3d 7f 24 f2 3d
       0.06959999 -0.22037704 0.04727605 0.11823367
000030 9e 41 40 be 47 ac 7a 3d d0 8c 9e bd 4d ae 3e be
       -0.18775031 0.061199453 -0.077417016 -0.18621178
000040 1c f9 4b be c1 1a 7d bd 15 ea 4b bd 48 60 9b 3d
       -0.19919246 -0.061793093 -0.049783785 0.075867236
000050 bf 94 7b 3d e8 45 ef bd 15 c9 84 3d db 93 16 be
       0.061421152 -0.116832554 0.06483666 -0.1470484
000060 ba 8d 9f 3d 42 95 57 be e1 e5 c7 bc 68 2a 0f 3e
       0.07790704 -0.21053031 -0.024401607 0.1398102
000070 5e df 31 be 8c c5 bd 3d c4 d6 5f be bf ae fd bd
       -0.17370364 0.09266195 -0.2185927 -0.12386846
000080 bc 14 27 be c3 b2 49 be 47 37 cf bd 7d bb e6 3d
       -0.16316503 -0.19697098 -0.10117965 0.11266229
000090 0b ff 95 3d fa 87 da 3c 9e a2 43 be 48 db 36 be
       0.07324036 0.026676167 -0.19105002 -0.17857087
0000a0 a2 13 d6 3d 17 b1 ef bd d0 1d a5 3d c2 ab 4e be
       0.104529634 -0.11703699 0.08062327 -0.20182708
0000b0 0b 78 54 bd de c6 47 be 23 89 69 be c2 38 66 be
       -0.051872294 -0.19509456 -0.2280622 -0.22482589
0000c0 02 3d c5 bd 31 5a 66 be fa e4 f1 bd d9 35 87 3d
       -0.09630777 -0.22495343 -0.11811252 0.066020675
0000d0 59 ee 46 be b7 12 b5 bd fb e4 16 bd 2c 32 60 be
       -0.1942686 -0.0884146 -0.036839467 -0.21894139
0000e0 45 cf 32 be cb a5 7e 3d 2c 95 0a be 13 e4 5f 3d
       -0.1746188 0.06216983 -0.13533467 0.054660868
0000f0 53 e7 4c be 69 7d 05 3d 69 aa 53 be a7 a4 aa bd
       -0.20010118 0.032590304 -0.20670475 -0.08332186
000100 72 7c b3 bd 71 94 6e be 32 03 94 3d 13 af b2 3d
       -0.087639704 -0.23298813 0.07227172 0.08724799
000110 0c fa 74 3d a7 ec 4f be 1b a1 d9 3d e6 a8 ef bd
       0.059808776 -0.2030512 0.106264316 -0.11702137
000120 07 c3 ac 3d 3e 96 07 bd 8c 7c 49 be 15 ed 0a 3e
       0.08435636 -0.033102266 -0.19676417 0.13567002
000130 8f 62 43 be 6f bc 62 bc bf 2d c8 3d 14 0a 6a be
       -0.19080566 -0.013838871 0.097743504 -0.22855407
000140 71 fe b1 bd 79 8c 5d be e1 6b e5 bd 46 66 b5 bd
       -0.08691109 -0.21635617 -0.11202217 -0.08857398
000150 a9 e7 20 be 66 1e ae bd 6a d3 81 3d 0b 0d a7 bd
       -0.15713371 -0.08501892 0.06339152 -0.081567846
000160 e8 61 04 3e 82 f4 83 bd 91 1d fc bd fb 33 ae 3d
       0.12927973 -0.064431205 -0.12310327 0.08506008
000170 59 9d 2b bd cd 16 25 be 82 be b7 3d e2 1b ab 3d
       -0.041898105 -0.16121979 0.08971883 0.083549276
000180 34 87 52 be 8c ab a0 bd 33 3e 3e be 46 0c a1 bd
       -0.20559388 -0.0784522 -0.18578415 -0.07863669
000190 34 03 a4 3d d6 64 04 3d 83 a3 5b be 73 f5 66 3d
       0.080084234 0.032322727 -0.21449094 0.056386422
0001a0 cc 89 52 be 1b 3b 0c be a9 fa db bd a9 35 14 bd
       -0.20560378 -0.13694422 -0.10741169 -0.036183987
0001b0 dd 0e 65 be 56 49 5e be 41 3c 57 be 4f 02 e9 bd
       -0.22368951 -0.21707663 -0.21019079 -0.113773935
0001c0 a9 1e 5d be bc 48 ae bc dc aa c6 3d 4d df e3 bd
       -0.21593727 -0.021274917 0.097005576 -0.111265756
0001d0 6e 77 93 3d 36 db c1 bd 4f a8 9b 3d 47 a1 66 3c
       0.07200514 -0.09465639 0.07600462 0.014076537
0001e0 0d 7d 03 3e 40 0f a2 bd cc d3 7a bd f3 ee 9a bd
       0.12840672 -0.07913065 -0.06123714 -0.07565107
0001f0 ea 33 27 bd 0e 0d 85 bd c0 12 24 be 69 37 9b bd
       -0.040820993 -0.064966306 -0.16022778 -0.07578928
000200 34 f7 29 3c 11 72 33 3d ca 4a cb bd ae ec f7 bd
       0.010373879 0.043809954 -0.09926374 -0.1210569
000210 18 41 fa bd 4f 2c 0b be bc 3f 62 bd 3f af 72 3c
       -0.12219447 -0.13591121 -0.055236563 0.01481229
000220 a1 a7 84 bd 72 7e 18 3e 84 a6 8f bd e0 d2 09 be
       -0.06477285 0.14891985 -0.07014182 -0.13459349
000230 38 02 fa 3d 6c 77 65 bd 27 fe ac 3c e1 ec cd 3d
       0.122074544 -0.056022093 0.021117283 0.10054947
000240 42 22 c2 3d a7 06 60 3b 46 7a 90 3c 76 cf 61 bd
       0.094791904 0.0034183653 0.01763643 -0.05512949
000250 f0 19 91 bd 32 1e 7f 3c 8b a6 40 bd 1d 7f 66 3d
       -0.07085025 0.015571164 -0.047033828 0.05627357
000260 b3 3f d9 bd e9 69 13 3e fc a6 e4 3a b3 d4 bf bd
       -0.10607853 0.1439587 0.0017444785 -0.09366741
000270 3f b7 4c 3d ad 9a fe bd dd 66 00 3e b9 06 e3 3c
       0.049979445 -0.12431846 0.12539239 0.027713167
000280 a7 f6 33 3d 1d c7 13 3e 9a 3b b7 3c ab de df bd
       0.043936398 0.14431424 0.022367287 -0.109311424
000290 92 33 6f bd 7f e7 b9 bc ee 57 10 3e 7c 2f 48 3d
       -0.05839879 -0.022693394 0.14096043 0.04887341
0002a0 3b 11 a2 bd 23 b1 bb 3c 5f ad ac bd 49 ec 17 3e
       -0.07913443 0.022911614 -0.084315054 0.1483623
0002b0 85 94 04 3b a6 67 11 3e fd c7 1b 3e 63 53 f2 3d
       0.0020230126 0.14199695 0.15213008 0.11832311
0002c0 be fd 78 3d 74 dd e9 3d 3b 7a 0d 3d 2e 2e c0 bd
       0.060788862 0.11419192 0.034540396 -0.09383808
0002d0 23 98 f2 3d f1 75 c6 3c 0f fc fd 3c c2 52 fa 3d
       0.11845424 0.02422616 0.03100398 0.12222816
0002e0 e7 b0 e5 3d 47 f4 3f bd e9 11 0b 3d 4f 77 52 bd
       0.11215382 -0.04686382 0.033952627 -0.051383313
0002f0 9e ed fb 3d f4 27 3f bd 30 7c 0e 3e 2c 6a db 3c
       0.12301181 -0.04666896 0.13914561 0.026784025
000300 80 9f 83 3d c3 b6 0d 3e e2 e8 44 bd e3 93 85 bd
       0.064269066 0.1383925 -0.048073657 -0.06522348
000310 7a 9f 2b bd 7b cb e9 3d 22 1f 00 be 2a 0a e6 3c
       -0.041900136 0.11415764 -0.12511876 0.028081018
000320 94 1e ea bd 6b 37 77 bc 17 30 0c 3e a2 81 e7 bd
       -0.114316136 -0.015088896 0.1369022 -0.11304022
000330 19 9a 10 3e 81 24 51 bb 8a fa ae bd 9e 98 09 3e
       0.14121284 -0.0031912627 -0.0854388 0.13437125
000340 5a 1d d1 3c ec 09 03 3e 5b d0 08 3d 9b 3c da 3c
       0.025526691 0.12796754 0.03340183 0.026640227
000350 7b 98 e6 3d 9f 6e af 3c fa 42 5f bd 79 05 85 3c
       0.11259552 0.021415053 -0.054507233 0.016237961
000360 12 d9 10 be 35 5c a9 3c ff 8d 25 3d f7 21 91 bd
       -0.14145306 0.02067385 0.04041862 -0.070865564
000370 12 4a 6f 39 64 3c 61 3d 67 c1 b5 bd 46 b8 73 bd
       0.0002282041 0.054989234 -0.08874779 -0.05950191
000380 1c 4b e7 3d 48 9c 09 3c 89 3b 02 3e a9 77 da 3c
       0.11293623 0.008399077 0.12718023 0.026668387
000390 0a dd a0 bd 6b ab 4c bd d5 f3 09 3e 6f 33 36 bd
       -0.0785466 -0.049968164 0.13471921 -0.044482645
0003a0 a5 ae cf 3d 85 95 cc 3d 13 30 1a 3d 5d c5 1e 3b
       0.10140733 0.09989456 0.037643503 0.0024226524
0003b0 67 8a 07 3e f8 5d 03 3e a9 eb fd 3d ac 64 1c 3d
       0.1323639 0.12828815 0.12398464 0.038181946
0003c0 c6 18 05 3e f3 72 30 3b de 5a b2 bd 7a 11 c6 3d
       0.12997732 0.0026923984 -0.08708738 0.09671302
0003d0 4b c1 8c bd 42 23 c2 3d 7b 42 98 bd d5 6f 20 3c
       -0.06872805 0.09479381 -0.07434555 0.009792288
0003e0 d9 2f c7 bd 93 21 68 3c 93 33 54 3a 63 90 b2 3c
       -0.09725923 0.014168161 0.00080948434 0.021797365
0003f0 ee e3 9c bb 7b 0e dd 3c af 80 fc 3d 4e 4e 1f 3c
       -0.0047879135 0.026984444 0.12329232 0.009723259

action_model._discrete_distribution.branches.0.bias f4 [3]
000000 64 1a 17 3e 72 b3 f6 bd 70 84 c6 bd
       0.14756161 -0.12045945 -0.09693229

exp_avg f4 [128, 1]
000000 32 53 1b b4 ff c2 2d 35 18 7e 91 b6 db 53 9b b6
       -1.4465766e-07 6.473128e-07 -4.336016e-06 -4.629122e-06
000010 9b 97 e4 36 ff eb 0a b5 71 33 61 b6 13 a2 9b 35
       6.8125787e-06 -5.1752426e-07 -3.3557556e-06 1.159557e-06
000020 55 e6 a2 b6 a4 9e a4 35 38 a9 ce b5 98 e9 f5 b5
       -4.8547904e-06 1.2265123e-06 -1.5397445e-06 -1.8321907e-06
000030 79 ff b2 35 fb 64 f0 b4 d0 c5 7a b5 29 43 63 b6
       1.3336386e-06 -4.4776957e-07 -9.342011e-07 -3.3864728e-06
000040 1a 17 91 b6 5e 69 71 b6 65 fb 7c b6 9e 43 56 b5
       -4.324026e-06 -3.597313e-06 -3.7697257e-06 -7.981961e-07
000050 28 a6 d2 34 7c 17 df 34 9e 49 b4 34 3f ac 89 b6
       3.9236443e-07 4.1554074e-07 3.3581176e-07 -4.1029703e-06
000060 57 b8 2e b5 cf fe 94 b6 95 20 62 b4 9a d2 53 b6
       -6.50883e-07 -4.4404073e-06 -2.1059743e-07 -3.1564036e-06
000070 c9 e5 55 34 36 96 7f b4 7d 77 e3 34 48 67 06 37
       1.9920766e-07 -2.3803372e-07 4.2368984e-07 8.011069e-06
000080 a0 5c dd 31 86 38 3b b5 45 3f 07 b5 db 1e ab 36
       6.4424768e-09 -6.974518e-07 -5.038349e-07 5.099789e-06
000090 ad 8f 4d b5 ff 08 2a b6 b1 b9 6f b6 f9 7c c2 b4
       -7.6577527e-07 -2.533721e-06 -3.5721862e-06 -3.6226245e-07
0000a0 b3 99 59 35 5b af 98 b4 4e 41 3c 35 f7 bb 2c b3
       8.106246e-07 -2.8439794e-07 7.013049e-07 -4.0217824e-08
0000b0 05 21 84 b5 54 0e b8 b5 26 54 be b6 b4 a6 64 b4
       -9.844376e-07 -1.3713238e-06 -5.6722374e-06 -2.1294801e-07
0000c0 4d 4e 0f 36 dd 05 81 b6 b5 30 14 35 20 82 70 b5
       2.1354238e-06 -3.845182e-06 5.5205174e-07 -8.9596324e-07
0000d0 e5 8f 52 34 9d 58 c4 b4 6c 33 1b b5 a3 7c 11 b5
       1.9610123e-07 -3.657232e-07 -5.781683e-07 -5.419808e-07
0000e0 14 50 4d 34 c8 dc c6 b5 2f e8 43 b4 70 61 22 35
       1.9121245e-07 -1.4816405e-06 -1.8245258e-07 6.0491493e-07
0000f0 9b f8 28 33 ff 22 05 34 85 69 00 b5 51 33 92 b4
       3.9341653e-08 1.2399322e-07 -4.7837267e-07 -2.7231957e-07
000100 9f 89 36 b6 3e f0 c0 b6 41 f3 4a b4 23 ff 06 b4
       -2.720022e-06 -5.7500138e-06 -1.8901211e-07 -1.257254e-07
000110 31 9a 71 b5 c2 e9 3f b6 c3 3f 8a b6 84 b4 6e 35
       -9.0003874e-07 -2.8597283e-06 -4.1201433e-06 8.8924594e-07
000120 5d 00 42 b6 b1 2e 37 b4 e6 98 ae 35 cd 36 45 36
       -2.8908464e-06 -1.706019e-07 1.300851e-06 2.9387186e-06
000130 6d b3 c9 b5 56 ea 2c b6 76 b9 40 b4 3c 1e 6c 36
       -1.5027887e-06 -2.5766399e-06 -1.7948864e-07 3.518434e-06
000140 ac 69 34 b5 93 3c b6 b5 1d f3 82 36 ca d7 39 b6
       -6.7209e-07 -1.3577686e-06 3.902604e-06 -2.7692754e-06
000150 cd fa 69 b4 fe 9c b6 35 82 aa 20 b6 0b 94 16 b5
       -2.1791057e-07 1.3605747e-06 -2.3941107e-06 -5.6094785e-07
000160 5d d3 3d b5 f4 03 0f b5 58 e3 6d b4 15 a4 53 b6
       -7.071556e-07 -5.3277404e-07 -2.2155052e-07 -3.1536958e-06
000170 8b 93 db b5 e8 49 08 b6 9f 9a e8 35 66 45 04 b6
       -1.6359712e-06 -2.0308598e-06 1.7330348e-06 -1.9709928e-06
000180 14 9b 9d 36 4e 65 70 b5 2d e5 c9 b5 c0 22 0d 35
       4.697018e-06 -8.9554385e-07 -1.5042366e-06 5.257716e-07
000190 78 36 97 36 aa 8a 4b b5 6c c2 aa 34 83 d3 0d 34
       4.5064917e-06 -7.5825176e-07 3.1806428e-07 1.3208596e-07
0001a0 23 64 e0 b4 58 93 7f b6 f3 e9 67 b5 8e 54 fd 34
       -4.179611e-07 -3.8083726e-06 -8.6394647e-07 4.7186444e-07
0001b0 88 7e ab 34 ea 8e a7 34 9e 8a cf b4 d6 86 43 b4
       3.1943296e-07 3.1210158e-07 -3.8657612e-07 -1.8209843e-07
0001c0 b6 fb 97 b4 85 06 99 b5 89 d1 8a b6 14 d1 0f b5
       -2.8309086e-07 -1.1401286e-06 -4.1371136e-06 -5.35759e-07
0001d0 54 05 22 b6 7d 2a 96 34 7c 7e 05 37 eb 30 5d b4
       -2.4142983e-06 2.7970592e-07 7.956867e-06 -2.0600025e-07
0001e0 11 a7 8a b6 b9 68 fe b4 fd 72 89 b6 05 af bf b4
       -4.1321696e-06 -4.7387383e-07 -4.0963046e-06 -3.5703866e-07
0001f0 35 79 fe b3 b3 ac 95 b6 0f 67 2a b6 28 ad 57 35
       -1.1849844e-07 -4.460651e-06 -2.5391962e-06 8.0345717e-07

exp_avg_sq f4 [128, 1]
000000 f1 c4 c7 32 a8 f8 34 33 6d 5d 17 37 bf 56 0f 37
       2.3256208e-08 4.2135667e-08 9.022054e-06 8.543661e-06
000010 af 3d 3b 37 e4 b6 85 34 d6 74 a3 36 ec 09 0d 34
       1.116043e-05 2.490625e-07 4.87138e-06 1.3135258e-07
000020 15 df 21 37 93 c4 f8 34 5a ca d1 34 a3 f2 15 35
       9.648288e-06 4.6336626e-07 3.9076514e-07 5.585991e-07
000030 57 3d bb 35 a6 87 73 34 d4 42 2c 34 75 7a 9a 36
       1.3950438e-06 2.2680487e-07 1.604306e-07 4.6038135e-06
000040 1f d4 e4 36 4d 1a bc 36 f5 8f 6f 36 92 aa 33 34
       6.8196236e-06 5.6058984e-06 3.569757e-06 1.6732727e-07
000050 12 be c6 32 35 4e 83 33 c4 38 1c 33 79 ac c2 36
       2.3136668e-08 6.1143886e-08 3.637321e-08 5.801729e-06
000060 d9 35 c2 33 34 7c 16 37 3c ab 83 34 36 a4 74 36
       9.043624e-08 8.969615e-06 2.452524e-07 3.6454417e-06
000070 20 5f a5 32 2f 2e 7c 34 05 2f db 32 20 e0 96 37
       1.9251786e-08 2.348613e-07 2.5516337e-08 1.798576e-05
000080 5c ff 12 34 41 03 11 34 48 d3 59 34 4c 81 cf 36
       1.3690209e-07 1.3505361e-07 2.0286564e-07 6.184133e-06
000090 38 a9 4b 34 ff b5 26 36 40 77 ae 36 c6 47 ae 32
       1.896741e-07 2.4841863e-06 5.1994866e-06 2.0288905e-08
0000a0 24 0b 10 35 e2 67 21 34 0a 0d 46 33 8f 67 0b 34
       5.366039e-07 1.5032086e-07 4.6112326e-08 1.2983058e-07
0000b0 79 59 0c 35 9d d9 93 34 3e 6d 28 37 dc 04 81 34
       5.2284264e-07 2.7539218e-07 1.0039015e-05 2.4031658e-07
0000c0 46 29 1e 35 e0 c6 e4 36 5f 72 d9 33 8f 87 57 34
       5.891965e-07 6.8180816e-06 1.0125654e-07 2.0072751e-07
0000d0 cd cf f0 31 d6 4c 97 33 7a a9 73 33 69 e7 b2 34
       7.0085435e-09 7.045462e-08 5.6731984e-08 3.3323457e-07
0000e0 73 b4 a1 33 4a 12 82 35 70 3f 45 34 2c 49 42 33
       7.52997e-08 9.691078e-07 1.8370133e-07 4.5235694e-08
0000f0 af a0 cd 33 6f 16 f8 32 10 0a c1 33 63 0d e8 32
       9.5752846e-08 2.8881201e-08 8.989093e-08 2.7014442e-08
000100 bf 87 4d 36 9c a5 1e 37 b6 36 23 34 56 01 12 34
       3.0626395e-06 9.456093e-06 1.5200462e-07 1.3597796e-07
000110 e4 f2 a5 34 6d 2e 67 36 d2 87 ea 36 82 0b 9f 33
       3.091037e-07 3.4448706e-06 6.989555e-06 7.406108e-08
000120 ef 43 4a 36 16 4c 78 34 74 a1 9e 35 62 41 77 35
       3.0139888e-06 2.312448e-07 1.1818906e-06 9.2109815e-07
000130 2d c8 76 35 a4 2a 6a 36 10 4d 12 34 51 3c b1 35
       9.1933435e-07 3.4893537e-06 1.3625345e-07 1.3205082e-06
000140 8c a8 8f 34 3d 29 96 34 fe e2 d9 35 7c 1c 13 36
       2.675846e-07 2.7969682e-07 1.6233823e-06 2.1921287e-06
000150 e2 e9 8c 34 bd c3 30 34 fc 19 4a 36 f4 d2 60 34
       2.6247204e-07 1.6462486e-07 3.011547e-06 2.093837e-07
000160 0d 25 c1 33 72 a2 57 34 4a f6 8d 33 cf 5f 8a 36
       8.994002e-08 2.0082533e-07 6.610624e-08 4.123874e-06
000170 12 79 53 35 b5 f0 00 36 18 f5 97 34 db 42 c7 35
       7.8779806e-07 1.9213596e-06 2.830427e-07 1.4846113e-06
000180 2f f9 ba 36 c9 43 3c 34 29 be bc 34 df ab 72 33
       5.5722408e-06 1.7533524e-07 3.5156089e-07 5.650133e-08
000190 65 18 ba 36 cb ee 3f 34 5f df d0 33 50 1b 7a 33
       5.546072e-06 1.7875134e-07 9.726386e-08 5.82325e-08
0001a0 f1 86 51 34 f0 90 9e 36 25 c1 39 34 a4 d4 6e 33
       1.9513733e-07 4.72564e-06 1.7299733e-07 5.560709e-08
0001b0 9b 8f 8b 33 f7 6e 72 34 79 ec 6f 34 2a d7 9c 32
       6.4988136e-08 2.2578375e-07 2.2344638e-07 1.8258635e-08
0001c0 32 94 35 34 c8 bc 86 34 07 72 f4 36 62 3b e3 33
       1.6910852e-07 2.5096801e-07 7.285041e-06 1.0581313e-07
0001d0 94 71 12 36 bb 82 6a 33 9b ce 89 37 6e 42 0d 34
       2.1821807e-06 5.460127e-08 1.642788e-05 1.3155815e-07
0001e0 7b b0 f5 36 ef b5 4e 33 81 0c 05 37 2d 95 62 34
       7.322114e-06 4.812858e-08 7.930329e-06 2.110216e-07
0001f0 03 13 2f 34 74 7d e8 36 3c 88 0b 36 b9 1c 88 33
       1.6305061e-07 6.9287435e-06 2.0791913e-06 6.338218e-08

exp_avg f4 [128]
000000 82 0b c3 b4 2a 81 4c b5 1b 65 98 b5 94 3c 6e b5
       -3.6329953e-07 -7.618388e-07 -1.1354308e-06 -8.875006e-07
000010 c5 c6 3d b6 da 45 0b 36 06 90 34 b5 05 4b 0f b6
       -2.8278894e-06 2.0753273e-06 -6.7264807e-07 -2.1352328e-06
000020 7f e5 8e b5 e6 86 e7 b4 12 fd c5 35 22 0a fe 35
       -1.0646617e-06 -4.3125254e-07 1.4751297e-06 1.8927424e-06
000030 76 a8 50 35 2f 5d fe 35 ca 3e 7e 34 13 83 0f b5
       7.773118e-07 1.8951595e-06 2.3678436e-07 -5.346239e-07
000040 3d 2e 5b b4 92 1d 8f b5 3f c2 78 35 19 2e f3 35
       -2.0412786e-07 -1.0662936e-06 9.2669865e-07 1.8118327e-06
000050 27 a6 90 b4 ad a7 07 b3 d7 d5 40 b3 77 1d ea b3
       -2.6942982e-07 -3.1584637e-08 -4.489797e-08 -1.0901834e-07
000060 15 a2 8b 35 e8 12 96 b5 4e 52 de 35 53 9a d6 b4
       1.0403479e-06 -1.1181373e-06 1.6564243e-06 -3.9972892e-07
000070 85 a4 e8 b4 b1 4c d8 35 52 ad 64 b5 60 ed 24 b6
       -4.333307e-07 1.6115574e-06 -8.5188833e-07 -2.4576075e-06
000080 52 60 85 35 9f 1f e8 35 ad 9a ff 35 81 ac 0b b6
       9.937305e-07 1.729455e-06 1.9043997e-06 -2.0813025e-06
000090 73 a0 0e b5 c3 bc a8 b4 31 4f 64 b5 f2 73 a5 32
       -5.3132607e-07 -3.142978e-07 -8.505186e-07 1.9261254e-08
0000a0 2a 0e c3 34 78 1f c7 35 e5 d8 7d b5 68 41 8c 35
       3.6331886e-07 1.4835814e-06 -9.456547e-07 1.0449849e-06
0000b0 5f 96 9c b4 9b 4f f7 35 d8 ed 10 35 29 c0 de 35
       -2.9166674e-07 1.8426102e-06 5.399029e-07 1.6596215e-06
0000c0 f1 06 fe b5 09 b5 a1 b5 29 f6 9c 32 b7 61 0b 36
       -1.8926495e-06 -1.2048123e-06 1.827273e-08 2.0769492e-06
0000d0 e9 bf 40 b4 34 89 97 35 b9 38 8f 35 40 f7 1b 36
       -1.795121e-07 1.1290308e-06 1.0670839e-06 2.3240718e-06
0000e0 33 40 b8 34 1a 19 f3 b4 a8 8a bd 35 40 56 21 b5
       3.4319382e-07 -4.528054e-07 1.4121952e-06 -6.0102684e-07
0000f0 49 93 59 35 7c 39 bd b4 60 ed b0 35 2e fb ee b3
       8.105313e-07 -3.524582e-07 1.3182107e-06 -1.1128428e-07
000100 c8 56 f9 b4 52 c1 84 35 e0 70 b2 35 14 0e a4 35
       -4.6443006e-07 9.89103e-07 1.3294884e-06 1.222305e-06
000110 7a bf 19 b2 e4 d3 21 b5 ea 44 8d b5 f4 fb a5 b5
       -8.949309e-09 -6.0285515e-07 -1.0525375e-06 -1.2366786e-06
000120 37 a3 06 b5 fe bf d8 35 ad ca 1f 35 d7 43 b9 b6
       -5.01564e-07 1.6149131e-06 5.952705e-07 -5.5213272e-06
000130 58 73 0c b5 18 f5 51 b5 3a 98 aa 35 cb 91 dd b6
       -5.232191e-07 -7.8215226e-07 1.2710291e-06 -6.603286e-06
000140 90 65 1a 36 4a ce d5 35 30 7d f5 b6 97 88 67 34
       2.3006905e-06 1.5929775e-06 -7.3161427e-06 2.1563243e-07
000150 a4 6e e7 35 26 54 1c b6 95 6d 35 b5 5f ff 06 36
       1.7243042e-06 -2.3294792e-06 -6.758722e-07 2.0116202e-06
000160 49 37 86 35 9f 10 01 36 4f f8 80 35 ee ad 53 b5
       9.999868e-07 1.9232173e-06 9.60901e-07 -7.8856726e-07
000170 b0 01 22 34 9c e9 1d b5 de f1 51 b6 8f 74 49 b4
       1.508804e-07 -5.8827004e-07 -3.1284212e-06 -1.8761988e-07
000180 f9 15 01 b6 6d 02 04 36 3f 22 f3 35 60 a1 86 b4
       -1.9235288e-06 1.9670945e-06 1.8114878e-06 -2.507686e-07
000190 9e 5f bc b5 c6 1f 07 36 f8 54 99 34 0e 72 05 35
       -1.403492e-06 2.0135062e-06 2.8560294e-07 4.971233e-07
0001a0 c9 2e f1 35 a5 ee 5c 34 8e 16 25 33 8e 62 a5 b4
       1.7969516e-06 2.0575915e-07 3.843757e-08 -3.0805353e-07
0001b0 32 4a 7f 34 6a 33 18 32 38 b2 f1 35 8d 56 f1 34
       2.3775718e-07 8.859255e-09 1.8007768e-06 4.4952722e-07
0001c0 e9 97 c1 35 fa 9a 86 35 63 58 37 b5 c1 17 d4 b4
       1.4423832e-06 1.0028882e-06 -6.830143e-07 -3.950536e-07
0001d0 dd 91 72 b4 b6 1e 83 b4 7c bc 47 b6 d3 4a ab 35
       -2.2591071e-07 -2.4422997e-07 -2.9763023e-06 1.276227e-06
0001e0 79 34 4e b5 61 d4 4b 35 4d 12 83 b5 43 ca ef 35
       -7.681734e-07 7.5932445e-07 -9.765587e-07 1.7865754e-06
0001f0 a8 71 ae 35 c3 d9 cd b3 36 e5 48 33 b5 e7 6f b5
       1.2997089e-06 -9.585667e-08 4.6774595e-08 -8.9371616e-07

exp_avg_sq f4 [128]
000000 ab 9d c1 32 60 df 90 33 c3 86 09 36 0c 24 f7 35
       2.2539856e-08 6.746154e-08 2.0493032e-06 1.8413425e-06
000010 2b 7d 9f 36 45 c3 ed 34 8c 0b 90 35 ed d8 f3 34
       4.7531407e-06 4.4286767e-07 1.0732197e-06 4.542011e-07
000020 f2 2f 0d 36 92 0d 2e 34 15 13 e4 34 ce 6f 2d 35
       2.1038545e-06 1.620995e-07 4.2482193e-07 6.461022e-07
000030 80 2c c4 34 1e ee c9 34 89 b5 73 33 58 71 8a 35
       3.6540223e-07 3.761242e-07 5.674295e-08 1.0314789e-06
000040 db 51 d3 35 40 aa a4 35 6c 65 9e 35 9e 3f d0 34
       1.5744548e-06 1.2268501e-06 1.1801435e-06 3.8789307e-07
000050 66 c1 55 32 e2 d4 83 32 62 e9 10 32 51 11 b8 35
       1.24422055e-08 1.5347215e-08 8.434968e-09 1.3714108e-06
000060 a6 94 2c 34 75 b3 06 36 5b ac 9e 34 c1 e9 56 35
       1.6072826e-07 2.0072014e-06 2.9555198e-07 8.006137e-07
000070 93 78 11 33 de 42 9d 34 c0 63 9c 33 ec 3f d7 36
       3.3870105e-08 2.929218e-07 7.2824605e-08 6.414941e-06
000080 f7 45 fc 33 bc 60 b2 34 02 77 ca 34 fb f5 31 36
       1.1747391e-07 3.3225467e-07 3.7712022e-07 2.6518235e-06
000090 64 d7 4c 33 47 ea 19 35 af 2c 95 35 41 06 81 32
       4.7693348e-08 5.733786e-07 1.111437e-06 1.502042e-08
0000a0 04 5b 00 34 7d 84 75 34 36 36 d4 33 5d e0 fc 33
       1.195404e-07 2.2865602e-07 9.88188e-08 1.1775476e-07
0000b0 d1 08 0f 34 37 15 03 35 c4 09 34 36 2b ef 98 34
       1.332112e-07 4.8832175e-07 2.6827774e-06 2.8486224e-07
0000c0 6b 43 2f 35 b5 50 ce 35 4c dd bd 32 e3 dc 02 35
       6.5290686e-07 1.5371685e-06 2.210313e-08 4.8750206e-07
0000d0 78 71 a1 31 b8 52 18 34 97 41 10 34 8a ad 14 35
       4.6986166e-09 1.4186196e-07 1.3434907e-07 5.538683e-07
0000e0 14 9c 1c 33 4d 1b 7a 34 16 dd 64 34 e3 3d 47 33
       3.6463533e-08 2.3292996e-07 2.1314585e-07 4.6389584e-08
0000f0 e1 b0 9f 33 b7 22 ad 32 c5 e0 53 34 5a 7b 25 32
       7.4361886e-08 2.0155637e-08 1.9732677e-07 9.632311e-09
000100 a9 71 36 35 4d 5e 3b 36 2b 1c 52 34 d4 96 2b 34
       6.796568e-07 2.7920062e-06 1.9568022e-07 1.5980487e-07
000110 36 f1 af 33 89 e0 4f 35 8d 38 ca 35 db d1 2b 34
       8.1929485e-08 7.744025e-07 1.5066631e-06 1.6001961e-07
000120 db 41 2f 35 c9 90 92 34 e3 8d 9c 34 57 11 55 36
       6.528841e-07 2.7299964e-07 2.91605e-07 3.1749566e-06
000130 8b ad 62 34 f8 14 57 35 e9 52 38 34 47 d3 98 36
       2.1111025e-07 8.0124255e-07 1.7166498e-07 4.554549e-06
000140 4e 14 15 35 c9 2c d8 34 0e 5e bc 36 02 9e 1e 35
       5.553637e-07 4.026572e-07 5.613786e-06 5.908952e-07
000150 7f 85 a6 34 c2 c5 12 35 22 2f 40 35 1b e4 dd 34
       3.101704e-07 5.4677014e-07 7.159416e-07 4.1330426e-07
000160 cb f6 1c 34 3c 94 ce 34 01 b2 dc 33 70 b7 72 35
       1.4618415e-07 3.8478345e-07 1.0276927e-07 9.041896e-07
000170 e3 d1 66 34 e1 46 f3 34 79 de 82 35 f0 90 b6 34
       2.1496776e-07 4.5313848e-07 9.750503e-07 3.4005598e-07
000180 72 2c 1a 36 15 5e ed 34 19 1d 0b 35 2f 8b a6 32
       2.2973659e-06 4.4213144e-07 5.182388e-07 1.9388237e-08
000190 42 04 05 36 59 71 e8 34 72 47 02 33 c3 e8 f3 32
       1.9821023e-06 4.329584e-07 3.0332963e-08 2.8394771e-08
0001a0 b3 7e b1 34 98 5e a0 35 0c b1 42 33 20 65 d6 32
       3.3061005e-07 1.1948459e-06 4.5330168e-08 2.4958865e-08
0001b0 aa 8d 8d 32 71 44 ac 33 82 95 b5 34 64 4f f8 32
       1.6478982e-08 8.0218236e-08 3.3822658e-07 2.8907102e-08
0001c0 d8 b3 7e 34 d6 7c 78 34 05 c5 da 35 5e f9 03 33
       2.372102e-07 2.3142215e-07 1.6299606e-06 3.0727612e-08
0001d0 7f 24 08 35 a9 7d e3 32 3e 22 d7 36 f1 d6 31 34
       5.0717057e-07 2.6483422e-08 6.4114856e-06 1.6562605e-07
0001e0 1e 66 d8 35 9f d6 b7 33 14 45 f0 35 53 0d b4 34
       1.6122974e-06 8.560641e-08 1.7901498e-06 3.3537307e-07
0001f0 7e d0 40 34 8f c1 db 35 6e c6 07 35 08 3a c9 33
       1.7957242e-07 1.6373104e-06 5.058017e-07 9.370348e-08

exp_avg f4 [128, 128]
000000 78 22 12 b4 5f f9 4a 34 f5 1f 68 b5 a5 7a fd b4
       -1.3609849e-07 1.8903437e-07 -8.647324e-07 -4.7214158e-07
000010 62 11 45 33 f4 6e c6 33 8d 76 0b b5 7f f8 94 34
       4.5883446e-08 9.240276e-08 -5.195405e-07 2.7747953e-07
000020 c5 be 14 b5 1f e8 1a b4 64 a0 7e 33 73 4b 83 33
       -5.54119e-07 -1.4426813e-07 5.9284858e-08 6.113887e-08
000030 a0 87 20 b6 56 45 02 34 46 31 00 b4 08 31 01 b5
       -2.3920802e-06 1.2132418e-07 -1.1938855e-07 -4.8127595e-07
000040 71 f5 a2 b4 1e ab 4c b5 7b a7 12 b3 f4 89 ab 33
       -3.0353434e-07 -7.624493e-07 -3.4145597e-08 7.9879015e-08
000050 8f 51 14 34 1c 18 1a 34 11 0f 3d 34 2e 98 07 b4
       1.3813245e-07 1.4351139e-07 1.7607478e-07 -1.2628217e-07
000060 f2 f2 b3 33 d9 70 3c b5 03 7e fe 33 9e d6 95 b4
       8.3795285e-08 -7.019967e-07 1.1850718e-07 -2.7909567e-07
000070 ff a9 27 b4 c6 c4 07 34 93 f4 01 34 18 a6 16 33
       -1.5614931e-07 1.264444e-07 1.2103037e-07 3.5075658e-08
000080 36 40 06 34 73 a6 ba 33 c9 a0 e4 33 03 b2 5a b2
       1.2503082e-07 8.691577e-08 1.0646324e-07 -1.2729745e-08
000090 78 c6 c0 b4 11 ec 22 b5 c2 9d e7 b4 8d aa 8a b5
       -3.5907192e-07 -6.0693225e-07 -4.3141887e-07 -1.0331438e-06
0000a0 87 56 97 b4 8a b9 d8 33 59 df 70 34 cc a6 fe 33
       -2.81889e-07 1.0092033e-07 2.2432995e-07 1.1858137e-07
0000b0 09 8b a6 b5 cc a0 9a 33 d1 a0 73 b3 88 aa e1 33
       -1.2408428e-06 7.2004326e-08 -5.6724108e-08 1.05083984e-07
0000c0 c2 42 a9 33 fa 20 71 b5 a8 30 00 34 ea 7f af 33
       7.881819e-08 -8.9827483e-07 1.193863e-07 8.17234e-08
0000d0 ad 03 15 34 09 a9 c0 33 2f 95 a0 33 b2 75 ed 33
       1.3878044e-07 8.971444e-08 7.477717e-08 1.1057581e-07
0000e0 a8 76 27 34 be 09 ae b5 2b b2 f1 33 85 3b 4f 34
       1.5596254e-07 -1.2966846e-06 1.12548456e-07 1.930003e-07
0000f0 6c e9 ed 33 ca 61 fb 33 8c 5a c3 33 05 3b ab b3
       1.1078632e-07 1.1705886e-07 9.0968655e-08 -7.9735436e-08
000100 c5 f9 01 b5 6f 24 55 b3 83 ec 04 34 f2 00 e5 33
       -4.841971e-07 -4.9626063e-08 1.23795e-07 1.06638154e-07
000110 4e 7f 89 b5 23 21 1f b5 02 9a 14 b5 09 72 60 34
       -1.0244346e-06 -5.9280336e-07 -5.535841e-07 2.0903111e-07
000120 14 29 68 b4 ba 9b d2 33 45 31 06 b6 9e 55 cd 34
       -2.1621628e-07 9.8072135e-08 -1.9996235e-06 3.824652e-07
000130 27 53 6d b5 55 16 79 b5 57 ce f6 33 d3 c7 ef 34
       -8.841038e-07 -9.2792226e-07 1.1492801e-07 4.466261e-07
000140 bd 4b da 33 3e c9 91 33 59 5b 1a 35 23 02 89 b3
       1.0165193e-07 6.7886944e-08 5.75024e-07 -6.379948e-08
000150 7e b0 e0 33 5c 6e 81 34 c9 24 8d b5 a1 6d ce 33
       1.04629166e-07 2.410842e-07 -1.0516025e-06 9.612564e-08
000160 16 0a 9d 33 f1 ca ef 33 1d 0a d5 33 e3 f7 0f b5
       7.312717e-08 1.11662196e-07 9.920425e-08 -5.3632374e-07
000170 63 22 8b b4 5c 78 8f b5 1b 6c 82 34 79 db ce b4
       -2.5915787e-07 -1.068936e-06 2.4293044e-07 -3.8530177e-07
000180 67 53 d8 b2 54 74 bc 33 40 0c 91 33 bd 01 36 34
       -2.5183637e-08 8.775592e-08 6.754317e-08 1.6950703e-07
000190 81 12 81 b2 30 8f ae 33 5b d8 0f 34 b3 8a fd 33
       -1.5025991e-08 8.128552e-08 1.3396622e-07 1.180646e-07
0001a0 97 fc bd 33 85 90 e3 b3 6e b4 35 b4 2f 2e 36 34
       8.846944e-08 -1.0596799e-07 -1.6922579e-07 1.6966872e-07
0001b0 63 ac 18 34 cb 91 cd b5 ba 71 06 34 55 f0 c1 33
       1.4218817e-07 -1.5316122e-06 1.2521096e-07 9.030979e-08
0001c0 06 d4 0f 34 1e dc 88 33 46 2e 19 b5 f4 c3 11 b5
       1.3395046e-07 6.3730326e-08 -5.706428e-07 -5.430186e-07
0001d0 84 24 07 b5 0e 55 b2 b4 13 c7 a4 af 0d b8 d6 33
       -5.0344556e-07 -3.321697e-07 -2.9972877e-10 9.99863e-08
0001e0 a1 bd 05 b5 1e c8 ae 33 83 92 44 b5 26 a1 d5 33
       -4.982231e-07 8.1389075e-08 -7.322889e-07 9.947898e-08
0001f0 9b f9 de 33 95 8e 48 b4 2b 61 53 b4 f2 db 3a 34
       1.03830835e-07 -1.8678323e-07 -1.9686256e-07 1.7402616e-07
000200 bb 38 d4 b3 29 75 0e 34 7c 1c 27 b5 5b 0e b6 b4
       -9.8823385e-08 1.3267403e-07 -6.22538e-07 -3.3910587e-07
000210 fe 1c 08 33 42 1c 8f 33 0b 76 c8 b4 67 77 4f 34
       3.1691336e-08 6.6640965e-08 -3.733879e-07 1.9321816e-07
000220 b4 da d5 b4 b5 12 e1 b3 3c a8 3a 33 b0 49 40 33
       -3.983347e-07 -1.0480782e-07 4.3459508e-08 4.4770502e-08
000230 c2 f8 e7 b5 5a 4b b9 33 fb 32 b8 b3 4c cd b9 b4
       -1.7283239e-06 8.62844e-08 -8.577441e-08 -3.4608308e-07
000240 e2 ad 69 b4 de 51 13 b5 38 2a cc b2 54 df 79 33
       -2.1763074e-07 -5.48809e-07 -2.3767925e-08 5.8177946e-08
000250 9a be d2 33 94 ae d9 33 e6 ee 04 34 34 f1 c0 b3
       9.813557e-08 1.01366055e-07 1.2380369e-07 -8.984571e-08
000260 ef 9b 82 33 7e 8c 07 b5 35 ea b4 33 ef cd 56 b4
       6.081961e-08 -5.049586e-07 8.424505e-08 -2.0005221e-07
000270 7a 2a f3 b3 4b 7d c0 33 26 7b b8 33 ec aa cb 32
       -1.1323296e-07 8.9634874e-08 8.590568e-08 2.3710037e-08
000280 f8 91 be 33 6a 4e 87 33 8a ab a3 33 32 cb 30 b2
       8.874116e-08 6.300691e-08 7.621482e-08 -1.029075e-08
000290 78 fa 8a b4 af 96 ea b4 8c 7c a6 b4 83 28 48 b5
       -2.5886743e-07 -4.3695533e-07 -3.101053e-07 -7.456476e-07
0002a0 12 06 5b b4 e8 9b 9b 33 e7 54 28 34 c3 23 b5 33
       -2.0398173e-07 7.246109e-08 1.5677107e-07 8.434974e-08
0002b0 1a 39 70 b5 06 d3 61 33 2c 98 2a b3 8d 72 a1 33
       -8.949006e-07 5.257882e-08 -3.971961e-08 7.5179834e-08
0002c0 a3 58 6e 33 dd 9c 2d b5 5f a0 b6 33 fe 50 7f 33
       5.5494308e-08 -6.467579e-07 8.504207e-08 5.9445476e-08
0002d0 b7 e1 d3 33 d0 6b 8b 33 c1 c0 6a 33 98 79 a9 33
       9.8665105e-08 6.492303e-08 5.465768e-08 7.8917935e-08
0002e0 7c 8a eb 33 9e e2 7a b5 e7 46 ac 33 b9 50 11 34
       1.09682304e-07 -9.346203e-07 8.022271e-08 1.3533544e-07
0002f0 bd ca a9 33 8e 90 b3 33 5c 45 8d 33 27 05 78 b3
       7.9065536e-08 8.3616314e-08 6.5784405e-08 -5.7746686e-08
000300 15 bd ba b4 a2 27 15 b3 ef a5 bc 33 8e ff a3 33
       -3.4782775e-07 -3.472781e-08 8.784615e-08 7.636764e-08
000310 13 38 46 b5 c6 ff e4 b4 70 9c d5 b4 ca fe 1c 34
       -7.3842347e-07 -4.265441e-07 -3.9788165e-07 1.4621324e-07
000320 8a 26 26 b4 cb 40 97 33 77 db c1 b5 d4 a2 8e 34
       -1.5473975e-07 7.043271e-08 -1.4443493e-06 2.6568034e-07
000330 4c 21 2b b5 fa 61 33 b5 68 f9 af 33 5e 70 a6 34
       -6.375092e-07 -6.682527e-07 8.194439e-08 3.1001667e-07
000340 75 c1 9c 33 5f 12 55 33 fd 11 d6 34 55 0e 42 b3
       7.299506e-08 4.9609636e-08 3.9873694e-07 -4.518218e-08
000350 ea a0 a0 33 3a a1 34 34 c7 4f 4b b5 d8 9e 94 33
       7.479851e-08 1.682246e-07 -7.5739484e-07 6.9206806e-08
000360 aa 7f 65 33 a3 37 ab 33 c9 40 99 33 4d f7 ce b4
       5.3434327e-08 7.972928e-08 7.136402e-08 -3.8550425e-07
000370 5e 6d 47 b4 09 bb 4e b5 30 f5 35 34 84 08 95 b4
       -1.8573107e-07 -7.701315e-07 1.6946137e-07 -2.775961e-07
000380 61 62 a5 b2 12 91 88 33 f4 4c 54 33 92 28 00 34
       -1.9253266e-08 6.3593816e-08 4.9430085e-08 1.1935688e-07
000390 43 f6 4b b2 16 ef 7d 33 dc 63 cb 33 ca 0f b5 33
       -1.1872149e-08 5.91236e-08 9.4710884e-08 8.431341e-08
0003a0 ce 61 89 33 7e 9e a1 b3 39 0d 03 b4 b7 b9 ff 33
       6.39735e-08 -7.525976e-08 -1.2205136e-07 1.1908144e-07
0003b0 3c 35 d8 33 e9 71 94 b5 a9 d6 be 33 39 56 8c 33
       1.0067967e-07 -1.1060012e-06 8.886611e-08 6.534942e-08
0003c0 4d 63 cb 33 ad 22 48 33 c1 41 dc b4 32 4d d2 b4
       9.470987e-08 4.6597666e-08 -4.1026036e-07 -3.9171715e-07
0003d0 26 53 c2 b4 71 e1 80 b4 d0 dc c6 b0 6a f8 99 33
       -3.6195814e-07 -2.4005888e-07 -1.4469155e-09 7.169804e-08
0003e0 b6 32 c0 b4 1a 2a 7e 33 e4 6c 0d b5 04 7a 99 33
       -3.5799684e-07 5.9177275e-08 -5.268505e-07 7.146812e-08
0003f0 6a a0 9f 33 56 3b 0f b4 e4 67 17 b4 a6 52 03 34
       7.4331936e-08 -1.3339499e-07 -1.4100766e-07 1.2230393e-07
