PFG-GAME/config/results/train03/DifAgent.onnx (onnx, 74428 bytes, 6 tensors)

network_body._body_endoder.seq_layers.0.weight f4 [128, 1]
0	0x3f068794	0.52550626
1	0x3efd8190	0.4951291
2	0xbf83c136	-1.0293338
3	0xbf5cd08e	-0.8625573
4	0xbf493776	-0.7860025
5	0x3f5b7e80	0.857399
6	0x3f3bd549	0.7337232
7	0xbf2ba57b	-0.6704938
8	0xbfbd27c6	-1.4777763
9	0xbf807ae5	-1.0037504
10	0xbf6dd5b4	-0.9290421
11	0x3f19f147	0.60133785
12	0x3f623427	0.8836083
13	0x3f66f6a1	0.90220076
14	0xbf9a1753	-1.2038368
15	0x3ff0e139	1.8818733
16	0xbfad102a	-1.3520558
17	0xbd0f8bf9	-0.035045598
18	0x3fe52c54	1.7904153
19	0x40194d6c	2.3953505
20	0x3f15e9c1	0.58559805
21	0x3e49cf52	0.19707993
22	0xbf09bdce	-0.53805244
23	0x3fcb091e	1.5862157
24	0x3ded7777	0.11595052
25	0x3ff99054	1.949717
26	0xbfa527a5	-1.2902724
27	0x3f7a82f6	0.9785608
28	0x3f566c10	0.8375864
29	0xbf2df67f	-0.6795425
30	0xbec0e9f9	-0.37678507
31	0xbeb1538e	-0.3463406
32	0x3f835f79	1.0263511
33	0x3dc8dcca	0.09807737
34	0xbf962b32	-1.1731932
35	0x3cfebb11	0.03109506
36	0x3dd7f4cb	0.105447374
37	0xbf3e1255	-0.7424672
38	0x3de3cbbc	0.111228436
39	0x3ffe713c	1.9878306
40	0x3f5dba8b	0.86612767
41	0x3e1e73b5	0.15473826
42	0xbf40e7dd	-0.75353795
43	0xbec9113c	-0.3927096
44	0x3e0d7f70	0.13818145
45	0xbf83bca6	-1.0291946
46	0xbe59abec	-0.21256989
47	0xc007e6cb	-2.1234615
48	0x3ed35736	0.41277474
49	0xbf14849e	-0.5801486
50	0x3f6408a4	0.89075685
51	0xbed68563	-0.4189864
52	0x401996fb	2.39984
53	0xbfb2b758	-1.3962202
54	0xbff37372	-1.9019606
55	0xc007353f	-2.112625
56	0xbf4a6f16	-0.79075754
57	0x3dc2e9a0	0.09517217
58	0xbd114408	-0.03546527
59	0x3fe33f96	1.775378
60	0xbde22215	-0.11041657
61	0x3f2d1525	0.6761039
62	0x3f9545e7	1.1661958
63	0x3d513538	0.051076144
64	0x3f297504	0.66194177
65	0xbd808d7d	-0.06276987
66	0x3ef65490	0.4811139
67	0x3ecf6ac0	0.4051113
68	0xbf5b6788	-0.8570485
69	0xbee3e417	-0.44509956
70	0xbf8f7ef1	-1.1210614
71	0x3b99ebd8	0.004697304
72	0xbff40dc6	-1.9066703
73	0xbf536566	-0.82576597
74	0xbf612852	-0.8795215
75	0x3f50d0c6	0.81568563
76	0xbf8bf88d	-1.0935227
77	0xbebda124	-0.37037003
78	0x3f852916	1.0403163
79	0xbfffd013	-1.9985374
80	0x3d03ad1a	0.032147504
81	0xbff6d5ea	-1.9284031
82	0xbfb5465e	-1.4162099
83	0x3e0ab12d	0.1354415
84	0xbf95c6a3	-1.1701244
85	0x3ed91197	0.42396232
86	0xbf3af5c8	-0.7303128
87	0xbfca047c	-1.5782619
88	0xbf83a4ba	-1.0284646
89	0xbf5974e8	-0.8494401
90	0xbe6fa039	-0.23400964
91	0x3f994164	1.1973081
92	0xbebe0b7a	-0.3711813
93	0x3fad5031	1.3540097
94	0xbf1d2458	-0.6138358
95	0x3f873717	1.0563687
96	0xbe772892	-0.2413657
97	0xbf86877e	-1.0510099
98	0xbf64e209	-0.894074
99	0xbfa05f13	-1.2529014
100	0xbf39ae26	-0.72531354
101	0x40280349	2.6252005
102	0x3f8cce38	1.1000433
103	0x3e9f9977	0.31171772
104	0xbf88808f	-1.0664233
105	0x3f3e80fb	0.7441556
106	0xbf3601e4	-0.71096635
107	0xbf6be087	-0.92139477
108	0xbf474f5e	-0.7785548
109	0x3e64638f	0.22303604
110	0xbfaa0443	-1.328255
111	0xbefce460	-0.49392986
112	0xbfabd689	-1.3424846
113	0x4022b2ac	2.5421553
114	0x3f9bb912	1.2165854
115	0xbd966e82	-0.073452964
116	0x3ee3d310	0.44496965
117	0xbef102af	-0.4707236
118	0xbdb3bf04	-0.08776668
119	0xbfdd7fda	-1.7304642
120	0xc012a2bc	-2.2911825
121	0x3ea6abaf	0.3255286
122	0x3f13731d	0.57597524
123	0x3ca91a6b	0.02064248
124	0xbfa7f1bf	-1.312065
125	0x3f8f4abb	1.1194681
126	0xbf8c7318	-1.0972624
127	0xbfa8af35	-1.3178469

network_body._body_endoder.seq_layers.0.bias f4 [128]
0	0xbe0643de	-0.13111827
1	0xbe06d0be	-0.13165566
2	0x3cd2312b	0.02565821
3	0xbc372a97	-0.011179588
4	0x3c89bcf5	0.016813735
5	0xbe1111b6	-0.14166912
6	0xbe30f04c	-0.17279166
7	0xbe3d9d6c	-0.18517083
8	0x3de98196	0.1140167
9	0x3cde3bd6	0.027128141
10	0xbdddcc24	-0.10829952
11	0xbe0f2672	-0.1397951
12	0xbe236ab0	-0.15958667
13	0xbe4da927	-0.20084058
14	0x3d19716c	0.037461683
15	0x3c9885d3	0.0186185
16	0x3dcd8084	0.10034278
17	0x3e3fbeab	0.18725078
18	0x3d38ea5c	0.045145378
19	0x3e844211	0.25831655
20	0xbd4fa8ee	-0.050698213
21	0xbe08c73f	-0.13357256
22	0xbe8d90d1	-0.2764955
23	0xbe0aa26d	-0.13538523
24	0xbe19c9e2	-0.15018418
25	0x3c537d8c	0.012908351
26	0x3dc408cd	0.09571991
27	0xbcf8baed	-0.03036257
28	0xbe008098	-0.12549055
29	0x3c2d591e	0.010580329
30	0xbe4fca9a	-0.2029213
31	0x3de78a26	0.113056466
32	0xbe121f27	-0.14269696
33	0x3e29424b	0.16529195
34	0x3d25497d	0.040353287
35	0xbe44eca6	-0.19230899
36	0x3e3ac564	0.18239361
37	0xbe430b72	-0.19047335
38	0xbe1b6531	-0.1517532
39	0xbda6c5a0	-0.08143163
40	0xbd4653ad	-0.048419643
41	0xbe24d485	-0.16096695
42	0xbceec93d	-0.029148692
43	0xbe73c294	-0.23804694
44	0xbe1d5608	-0.1536485
45	0xbe0c1977	-0.13681589
46	0x3dd80f53	0.10549798
47	0x3dcdfa64	0.10057524
48	0xbdc73f59	-0.097288795
49	0x3da1e6bd	0.07905338
50	0xbe0707bf	-0.13186549
51	0xbe203f65	-0.15649183
52	0x3e90293b	0.28156456
53	0x3d952a79	0.07283492
54	0x3dddc734	0.108290106
55	0x3db799a3	0.08964851
56	0xbe1be410	-0.15223718
57	0xbdfe2c9d	-0.12410853
58	0x3e5e34a2	0.21699765
59	0x3d2462ea	0.040133394
60	0xbe2fcb82	-0.17167476
61	0xbdeec5e2	-0.11658837
62	0xbd6be760	-0.057593703
63	0xbe2e27d1	-0.17007376
64	0xbd8cf8da	-0.06883402
65	0xbe2ff847	-0.17184554
66	0x3d30748a	0.04307989
67	0x3db88c38	0.090111196
68	0xbdf1b073	-0.11801233
69	0xbe6a40df	-0.22876309
70	0x3d62377e	0.055228703
71	0x3e1bd951	0.15219618
72	0x3de69fba	0.11260934
73	0xbd523843	-0.051323187
74	0xbe4d3bfc	-0.20042413
75	0xbe37c5b4	-0.17946512
76	0xbddce9e4	-0.107867986
77	0xbde747bc	-0.11292979
78	0x3c48ef75	0.012264122
79	0x3dbb4290	0.09143555
80	0xbe365b02	-0.17808154
81	0x3dd33365	0.10312537
82	0x3dd9ce5b	0.10635062
83	0x3e112609	0.14174666
84	0x3d5ec7fd	0.054389942
85	0xbe19d879	-0.15023984
86	0xbe5029ed	-0.20328493
87	0x3df1fe59	0.11816091
88	0xbdc260e2	-0.09491135
89	0xbd9c1655	-0.07621447
90	0x3dcdda6b	0.100514255
91	0xbde0166a	-0.10941775
92	0xbe61779b	-0.22018282
93	0xbdbe0656	-0.09278552
94	0xbe9245ea	-0.28568965
95	0x3ccda715	0.025104085
96	0xbe367747	-0.17818938
97	0xbc6a97b1	-0.014318393
98	0xbd715250	-0.05891639
99	0x3d3b1d39	0.045682166
100	0xbe4ab98b	-0.19797342
101	0x3e5b7bcf	0.21433948
102	0xbd61f23e	-0.05516266
103	0x3d5d6bcc	0.05405788
104	0xbdc7dd45	-0.09759001
105	0x3c54db83	0.012991789
106	0x3d09bd46	0.03362777
107	0xbc92e4fe	-0.017931458
108	0xbd08215e	-0.033234946
109	0xbe048683	-0.12941937
110	0x3db0e5d7	0.086375885
111	0xbe8d437a	-0.27590543
112	0x3d7b3315	0.061328012
113	0x3e8387d5	0.2568957
114	0xbd26cc52	-0.0407222
115	0x3e42c9fa	0.1902236
116	0xbe0f8a29	-0.14017548
117	0x3de5a91e	0.11213897
118	0x3e406d12	0.18791607
119	0x3dcd7f90	0.10034096
120	0x3d9e61cc	0.07733497
121	0xbd994007	-0.07482915
122	0xbde3f6f3	-0.11131086
123	0x3e37e88a	0.179598
124	0x3d810740	0.06300211
125	0xbda0a8cd	-0.07844696
126	0x3d20cd12	0.03925807
127	0x3db16003	0.08660891

network_body._body_endoder.seq_layers.2.weight f4 [128, 128]
0	0x3c7486fb	0.01492476
1	0xbdca8cc0	-0.09890127
2	0x3e2012f8	0.15632236
3	0x3dd0f64f	0.1020323
4	0x3d0c1744	0.034201875
5	0x3cae02e6	0.021241616
6	0x3e17cd28	0.14824355
7	0xbd8fcb8c	-0.07021245
8	0xbc943566	-0.018091869
9	0x3de7bbdb	0.113151275
10	0x3d2cd26c	0.04219286
11	0x3e0851bb	0.13312428
12	0x3e6fc386	0.2341443
13	0x3e0ac16d	0.13550349
14	0xbaefcbaa	-0.001829495
15	0x3dc63795	0.0967857
16	0xbdee073d	-0.11622474
17	0xbdfe33b0	-0.12412202
18	0xba703dc5	-0.0009164478
19	0x3d8000ef	0.06250178
20	0x3e40b5b8	0.1881932
21	0x3e3de63d	0.1854486
22	0x3e4e2068	0.2012955
23	0x3df464df	0.11933302
24	0x3e0f0b01	0.13969041
25	0x3d402bc1	0.046916727
26	0xbe32de0a	-0.17467514
27	0xbc57ba39	-0.013166958
28	0xbe2666f6	-0.16250214
29	0x3e04eaa9	0.12980141
30	0x3d448cd9	0.047985885
31	0xbe77199e	-0.24130866
32	0x3a94a2d1	0.0011340027
33	0x3d49fd09	0.04931358
34	0x3c150dee	0.009097559
35	0x3dcc4901	0.09974862
36	0xbe01dfe2	-0.12683061
37	0x3e08917e	0.13336751
38	0x3e063a96	0.13108286
39	0xbccce2d4	-0.025010504
40	0x3e152adb	0.1456713
41	0x3e7d7583	0.24751858
42	0x3c9cbc8b	0.019132873
43	0xbd8b6925	-0.06807164
44	0xbc50d630	-0.012746379
45	0x3da6a1c0	0.0813632
46	0xbdb2d695	-0.087323345
47	0xbc8c83d3	-0.017152702
48	0x3cb82a66	0.022481155
49	0xbd882b61	-0.06648899
50	0x3e35ec6f	0.17765974
51	0x3e1a1b39	0.15049447
52	0xbda3090d	-0.07960711
53	0x3ce71a72	0.028210852
54	0xbd2f3189	-0.04277185
55	0xbaded8ef	-0.0017001907
56	0x3d935b02	0.07195093
57	0x3d9f7c1d	0.077873446
58	0xbe59b39e	-0.21259925
59	0x3da25879	0.07927031
60	0xbcd0a346	-0.02546848
61	0x3caa6857	0.020801706
62	0x3d8aaed7	0.06771629
63	0x3e205a94	0.15659553
64	0xbc284924	-0.010271344
65	0x3ea255c7	0.31706068
66	0x3e642477	0.22279535
67	0xbdf11571	-0.11771668
68	0x3dbc9432	0.092079535
69	0x3d438daa	0.047742523
70	0x3dbfc8f1	0.093644984
71	0xbe93d03d	-0.2886981
72	0xbdc513bc	-0.09622905
73	0x3e03509a	0.12823716
74	0x3e290bd1	0.16508414
75	0x3e233260	0.15937185
76	0xbb17ae1c	-0.0023144549
77	0xbd83c5a7	-0.064341836
78	0x3be22158	0.0069009475
79	0x3df7de0a	0.121028975
80	0x3ead4879	0.33844355
81	0x3cc68eef	0.024238078
82	0x3e29efa4	0.16595322
83	0xbb4e5d04	-0.0031488547
84	0x3e36d8f9	0.17856206
85	0x3da9fdca	0.083003595
86	0x3e06d9b2	0.13168982
87	0x3c17505e	0.00923547
88	0x3dcafc75	0.099114336
89	0x3e3ed0f2	0.18634394
90	0xbd25b2dd	-0.04045378
91	0x3d6d90a9	0.057999287
92	0xbbb16e27	-0.0054147425
93	0x3e47553f	0.19466113
94	0x3df40be4	0.119163305
95	0x3ddc7789	0.10764987
96	0x3e0eb489	0.13936056
97	0x3dae46dd	0.0850961
98	0x3d96ef19	0.07369823
99	0x3d9e9374	0.07742968
100	0xbd046601	-0.03232384
101	0xbdec8304	-0.11548427
102	0x3e13e158	0.1444143
103	0x3d6c651d	0.057713617
104	0x3ddbac15	0.107261814
105	0x3d0b1f11	0.033965174
106	0x3b6cbd92	0.0036123735
107	0x3c79e5e9	0.015252569
108	0x3d2cc975	0.042184312
109	0x3dcc6f8b	0.09982213
110	0xbdd03967	-0.10167199
111	0xbd9a288d	-0.07527266
112	0x3d5c459f	0.053777333
113	0x3d17a4d5	0.03702243
114	0xbd57bbfb	-0.052669507
115	0xbd6bdc70	-0.057583272
116	0x3d0dc7f9	0.034614537
117	0x3d2f03a9	0.0427281
118	0xbe4cab0a	-0.19987121
119	0x3ca1aaed	0.019734824
120	0xbe2636ab	-0.16231792
121	0xbbf2a7c0	-0.0074052513
122	0x3de6cb5d	0.11269257
123	0x3e20017b	0.15625565
124	0x3e53ea85	0.20694931
125	0x3d9c22c9	0.07623822
126	0x3dd97b8b	0.10619267
127	0x3dbd7a01	0.09251786
128	0xbdfb4f09	-0.12270934
129	0xbd881d4a	-0.066462114
130	0x3dacf43d	0.08445022
131	0xbe049670	-0.12948012
132	0xbd923271	-0.07138527
133	0x3d5a76e9	0.053336058
134	0x3e2059f6	0.15659317
135	0x3e259916	0.16171679
136	0xbd74dd76	-0.059781514
137	0xbd290e85	-0.041273613
138	0xbde9eb2a	-0.11421807
139	0x3c716864	0.014734361
140	0xbb3ecd2d	-0.0029113994
141	0x3da8e831	0.08247412
142	0x3d4dfa87	0.05028775
143	0xbd81812e	-0.06323467
144	0x3e1db848	0.15402329
145	0x3de40835	0.11134378
146	0x3e414b41	0.18876363
147	0xbe288d5f	-0.16460179
148	0xbcd3f057	-0.025871439
149	0x3d619aaf	0.05507916
150	0x3d88d79e	0.06681751
151	0x3c41323e	0.011791764
152	0x3d7adae4	0.061243907
153	0x3e1d1701	0.15340807
154	0xbdbdc3a4	-0.09265831
155	0xbe0e484e	-0.1389477
156	0x3e5151d6	0.20441374
157	0x3d89428a	0.067021444
158	0xbd5e4bd3	-0.05427153
159	0x3e39159d	0.18074651
160	0x3da9b351	0.08286155
161	0xbd271c38	-0.040798396
162	0x3dc9dcab	0.09856542
163	0x3e6de21b	0.23230784
164	0x3cd0d096	0.025490087
165	0xbc8c72a2	-0.017144505
166	0xbe0021e5	-0.1251293
167	0xbd4dddff	-0.05026054
168	0xbd2a963c	-0.04164718
169	0xbd083e65	-0.03326263
170	0x3d200aa9	0.039072666
171	0x3d430baa	0.047618546
172	0xbd214ac6	-0.03937795
173	0x3d1eac65	0.038738627
174	0xbde08a74	-0.10963908
175	0xbd8c9c0b	-0.068657
176	0x3e03e3b5	0.12879832
177	0xbd5e84fb	-0.05432604
178	0xbc85ee2d	-0.016348923
179	0x3e1c2940	0.1525011
180	0x3e7909cd	0.24320145
181	0x3ca16593	0.019701755
182	0x3d7eafaa	0.062179245
183	0x3e2dd1da	0.16974583
184	0xbd27d10c	-0.040970847
185	0x3e2af75c	0.16695923
186	0xbe6e8e69	-0.23296513
187	0x3d2a08e1	0.041512374
188	0x3e570562	0.20998147
189	0xbdde75aa	-0.108622864
190	0xbd229494	-0.039692476
191	0x3e2f7eaa	0.17138162
192	0x3dccc618	0.09998721
193	0xbd8a372d	-0.06748805
194	0x3cbfbbf3	0.02340505
195	0x3d1a71db	0.037706237
196	0x3c542bc8	0.012949891
197	0x3d6b21c0	0.057405233
198	0xbced9d1b	-0.029005578
199	0x3d6c04dc	0.05762182
200	0xbe45edf4	-0.19329053
201	0xbcbb9216	-0.022896808
202	0x3d409eb3	0.047026347
203	0xbda8acb1	-0.08236063
204	0x3d9bdfd7	0.076110534
205	0xbce742f3	-0.028230166
206	0x3e201e20	0.15636492
207	0x3ccec6dd	0.02524131
208	0x3d7755bf	0.06038451
209	0x3ccc585a	0.024944473
210	0x3d976c23	0.07393672
211	0xbde5a2b7	-0.11212676
212	0x3d94d48e	0.07267104
213	0xbd2c63ba	-0.042087294
214	0xbd0e34a4	-0.03471817
215	0xbc814b7d	-0.015783066
216	0x3d0957ab	0.033530872
217	0xbcd93d9c	-0.026518635
218	0x3e079379	0.1323985
219	0x3e10635e	0.14100406
220	0x3e06ce57	0.1316465
221	0x3cca787e	0.024715658
222	0x3e445dac	0.19176358
223	0x3cec680a	0.028858203
224	0x3cad14ef	0.021128146
225	0x3d9235ab	0.071391426
226	0xbd806a31	-0.062702544
227	0x3b472f00	0.0030393004
228	0x3c713e57	0.014724336
229	0xba2b7f0e	-0.0006542065
230	0x3b37ae37	0.0028027424
231	0x3e5adb44	0.21372706
232	0xbd61fb9c	-0.055171594
233	0x3dba2006	0.09088139
234	0x3e0f8f30	0.14019465
235	0xbce66e07	-0.028128637
236	0xbe1e37c9	-0.15450968
237	0xbcb538a7	-0.02212174
238	0x3dffc0e6	0.12487964
239	0x3e180a08	0.14847577
240	0xbd2e3a88	-0.04253629
241	0xbde8081c	-0.11329672
242	0xbabda538	-0.0014468795
243	0xbe0fd7ab	-0.14047115
244	0x3e477f7a	0.19482222
245	0xbc2d37eb	-0.010572414
246	0xbe0bf319	-0.13666953
247	0x3df2e454	0.118599564
248	0x3da4752c	0.08030161
249	0x3e37aed5	0.17937787
250	0x3da963a1	0.08270956
251	0xbe16d03c	-0.14727873
252	0xbbe4ec5c	-0.006986184
253	0x3db3c106	0.08777051
254	0x3e10917e	0.14118001
255	0x3d4f5700	0.05062008

network_body._body_endoder.seq_layers.2.bias f4 [128]
0	0xbe25502f	-0.16143869
1	0xbd936bdf	-0.07198309
2	0x3e15f01e	0.14642379
3	0xbe04172d	-0.12899466
4	0xbdedc5c9	-0.1160999
5	0x3db11ac9	0.08647687
6	0x3e27cde8	0.16387141
7	0x3e183661	0.14864494
8	0xbe0fb0c5	-0.14032276
9	0x3e44004d	0.1914074
10	0xbe1fae40	-0.15593815
11	0x3daf9787	0.085738234
12	0xbdabc3b3	-0.08386936
13	0x3e32055e	0.1738486
14	0x3e37671f	0.17910431
15	0xbe1978eb	-0.14987533
16	0xbe17195d	-0.14755769
17	0xbdfa17f4	-0.122116
18	0x3e09dc2c	0.13462895
19	0xbdc6856b	-0.09693416
20	0xbdeab560	-0.11460376
21	0xbe0263f8	-0.12733448
22	0xbd9be920	-0.076128244
23	0x3e0735af	0.13204072
24	0xbde837e5	-0.11338786
25	0xbd960d78	-0.07326788
26	0xbdf83e8d	-0.121213056
27	0x3d7f8c81	0.062389854
28	0xbe08c445	-0.13356121
29	0x3e3d5251	0.18488432
30	0x3e3f2128	0.18664992
31	0x3e1f4cb5	0.15556605
32	0xbe091561	-0.13387062
33	0x3dd5d91b	0.104418
34	0xbe267657	-0.1625608
35	0xbddfffce	-0.10937463
36	0xbe0c742f	-0.13716196
37	0xbde5b654	-0.11216417
38	0xbdcdc61f	-0.10047554
39	0xbdc7685b	-0.09736701
40	0xbd9dc91c	-0.07704374
41	0x3e1177f7	0.14205919
42	0x3df34e3a	0.11880155
43	0x3e0a88af	0.13528703
44	0xbdf0950e	-0.1174718
45	0xbe221cb5	-0.15831263
46	0x3ded16eb	0.11576637
47	0x3c7961ef	0.015221103
48	0x3e226a6a	0.15860906
49	0x3ce62f61	0.028098764
50	0x3e35c1ff	0.17749785
51	0xbe0f6ffb	-0.14007561
52	0x3e115aba	0.14194766
53	0x3e519e5c	0.20470566
54	0xbdf0a68c	-0.11750516
55	0xbdcfb67b	-0.10142227
56	0x3daefb00	0.08543968
57	0xbdeca645	-0.11555151
58	0xbdec8e25	-0.115505494
59	0xbe21e5af	-0.15810274
60	0x3e0d3adb	0.13791983
61	0x3e1428d3	0.14468698
62	0x3e0b5d71	0.13609864
63	0xbdfa30a5	-0.122163095
64	0xbdc3d53e	-0.09562157
65	0xbdb238bc	-0.087022275
66	0x3e1c8490	0.15284944
67	0xbe044bdc	-0.12919563
68	0xbe170670	-0.1474855
69	0xbe29bd17	-0.16576038
70	0x3df6c395	0.12049023
71	0xbe26a095	-0.16272195
72	0x3e58848a	0.2114431
73	0xbdf34209	-0.118778296
74	0xbde0bc51	-0.109734185
75	0xbe06d82f	-0.13168405
76	0xbdec04fb	-0.115243874
77	0x3df330f5	0.11874572
78	0x3d77d0bf	0.06050181
79	0x3de0980f	0.10966503
80	0xbd866cb4	-0.06563702
81	0xbe0b26f6	-0.13589081
82	0xbe1be547	-0.15224181
83	0xbe0cf2bc	-0.13764471
84	0x3df28626	0.11841993
85	0xbd91bef9	-0.07116503
86	0xbe0518af	-0.12997697
87	0xbd8cbf0f	-0.06872379
88	0x3d9f732e	0.07785641
89	0x3ddf67f7	0.109085016
90	0xbe214c73	-0.1575182
91	0x3e3b9115	0.18317063
92	0x3e23dfbb	0.16003315
93	0xbdb060ba	-0.08612199
94	0xbde8772c	-0.11350855
95	0xbda3be95	-0.07995335
96	0xbdeb5e0c	-0.114925474
97	0x3e3f4e0f	0.1868212
98	0x3e2564e3	0.16151766
99	0x3e07b3c1	0.13252164
100	0xbe00cf6b	-0.12579124
101	0x3e0b01b4	0.13574868
102	0xbdce1459	-0.10062475
103	0x3dae97ee	0.08525072
104	0x3e182a76	0.14859948
105	0x3dbb2798	0.09138411
106	0xbe01a47d	-0.12660404
107	0x3e36ca61	0.17850639
108	0x3e25f49a	0.1620659
109	0xbdd91abe	-0.10600804
110	0xbe1aa821	-0.15103199
111	0x3dbbc9e0	0.09169364
112	0x3e06672c	0.13125294
113	0x3dae4ed8	0.08511132
114	0x3e19e293	0.15027837
115	0x3e128470	0.14308333
116	0x3e3ebdef	0.18627141
117	0xbdeea761	-0.11653019
118	0xbdfa60f9	-0.12225527
119	0x3df3ea7b	0.11909958
120	0x3e220d5a	0.15825406
121	0xbdd1e7ae	-0.102492675
122	0xbe2cd944	-0.16879755
123	0xbdb867c1	-0.090041645
124	0x3e10ddc4	0.14147097
125	0xbe04e877	-0.12979303
126	0xbe122210	-0.14270806
127	0x3e39f625	0.18160303

action_model._discrete_distribution.branches.0.weight f4 [3, 128]
0	0xbdb0fe14	-0.086422116
1	0xbc94f9b6	-0.018185478
2	0x3d80bd62	0.06286122
3	0xbd7f17c0	-0.06227851
4	0xbe57e173	-0.21082096
5	0x3d380180	0.044923306
6	0x3d474160	0.04864633
7	0x3d3ad63a	0.04561446
8	0xbd50f5a0	-0.051015496
9	0x3e25328e	0.16132566
10	0xbd8bf37c	-0.0683355
11	0x3d97cc75	0.07412044
12	0xbe3daa96	-0.18522105
13	0x3dd339d1	0.10313762
14	0x3e0db654	0.13839084
15	0xbd371f95	-0.044707853
16	0xbda35e75	-0.079770006
17	0xbe4b1f40	-0.1983614
18	0x3d6eeb50	0.05832988
19	0xbe3fbc24	-0.18724114
20	0xbe49de78	-0.19713771
21	0xbe541f9f	-0.20715187
22	0xbcc2d923	-0.02378518
23	0x3d0b3d95	0.033994276
24	0xbe44068a	-0.1914312
25	0xbe0db4bb	-0.13838474
26	0xbe621381	-0.22077753
27	0x3d7b7323	0.0613891
28	0xbe4e4591	-0.20143725
29	0x3de90905	0.113786735
30	0x3e1f3c26	0.15550289
31	0x3d96e3f8	0.073677
32	0xbd195f45	-0.03744437
33	0x3cee5863	0.02909488
34	0xbd8528f6	-0.06501953
35	0xbe3e58b2	-0.18588522
36	0xbd4c4762	-0.049872763
37	0xbd7eb6a0	-0.062185884
38	0xbe4a8ba8	-0.19779837
39	0xbe599969	-0.21249928
40	0xbe384a11	-0.17997004
41	0x3d9c809d	0.076417185
42	0x3d944b90	0.07240975
43	0x3d9369a0	0.07197881
44	0xbe44cc44	-0.19218546
45	0xbda68828	-0.081314385
46	0x3dad3a1d	0.0845835
47	0x3a2c8033	0.00065803825
48	0x3e03fe2b	0.12889926
49	0xbb809bc4	-0.0039248187
50	0x3d2baf07	0.041914966
51	0xbd890192	-0.06689753
52	0x3d93a8bd	0.07209919
53	0x3db0fce5	0.08641986
54	0xbe504d1f	-0.2034192
55	0xbe50c041	-0.20385839
56	0x3db0d9c1	0.08635283
57	0xbe5aa5ef	-0.21352361
58	0xbe377775	-0.17916663
59	0xbd81c8b1	-0.06337107
60	0x3d9ccc28	0.07656127
61	0x3dcb0841	0.09913684
62	0x3d77247d	0.060337532
63	0xbde62863	-0.11238172
64	0xbe37248a	-0.17885032
65	0xbe384cad	-0.17998
66	0x3e020107	0.12695704
67	0xbe3d7ad3	-0.18503885
68	0xbdcec5ac	-0.10096297
69	0xbdc555af	-0.096354835
70	0x3d0fce12	0.035108633
71	0xbd41c3e8	-0.04730597
72	0x3e0ef30e	0.13959906
73	0xbe680a19	-0.22660102
74	0xbe42e1ba	-0.1903142
75	0xbd3ed3e6	-0.0465888
76	0xbe51dab0	-0.20493579
77	0x3d8d824d	0.069096185
78	0xbb9f0910	-0.0048533753
79	0x3d90975a	0.07060118
80	0xbe127720	-0.14303255
81	0xbe4fdd67	-0.20299302
82	0xbd88c821	-0.066787966
83	0xbd54866d	-0.05188601
84	0x3d7c7b6e	0.06164115
85	0xbd19a660	-0.037512183
86	0xbe481230	-0.19538188
87	0xbc14195c	-0.009039249
88	0x3d02ad0d	0.031903315
89	0x3d17011c	0.036866292
90	0xbd6316ce	-0.05544167
91	0x3dfa0bb3	0.12209263
92	0x3dd8841b	0.10572072
93	0xbd7d3199	-0.061814878
94	0xbd9d8a07	-0.07692342
95	0xbd339d8d	-0.043851424
96	0xbd5ef445	-0.054432172
97	0x3e161f1e	0.14660308
98	0x3da7c11d	0.0819113
99	0x3d9cdbab	0.07659086
100	0xbe63ea1b	-0.22257273
101	0x3da00aa3	0.07814529
102	0xbe5a8e43	-0.21343331
103	0x3d3f0ff7	0.046646085
104	0x3dc87854	0.09788576
105	0x3dc9ae6e	0.09847723
106	0xbcc11c17	-0.023572965
107	0x3dbf42fa	0.09338947
108	0x3dd1acc0	0.102380276
109	0xbe60a766	-0.21938857
110	0xbd5244aa	-0.051335014
111	0x3db15f28	0.08660728
112	0x3d77a2d4	0.06045802
113	0x3d9adbea	0.075614765
114	0x3dcd605d	0.100281455
115	0x3dae3fd2	0.085082665
116	0x3e24b058	0.16082895
117	0xbe453d80	-0.19261742
118	0xbe5a9f02	-0.21349719
119	0x3d2ca4b9	0.04214928
120	0x3e08c9c4	0.13358217
121	0xbe451a70	-0.19248366
122	0xbdb8188c	-0.08989057
123	0xbe34fbbf	-0.17674159
124	0x3dcbcc1b	0.099510394
125	0xbe305c97	-0.1722282
126	0xbd1b3a8d	-0.037897635
127	0x3e3f4308	0.18677914
128	0x3be34536	0.006935741
129	0xbc90ae6c	-0.017661296
130	0xbd302393	-0.043002676
131	0xbd111df1	-0.035428945
132	0x3de6435d	0.11243317
133	0xbd223acd	-0.039606858
134	0xbad02358	-0.0015879674
135	0xbd586d1a	-0.052838422
136	0xbc47af43	-0.012187782
137	0xbd982065	-0.07428054
138	0xbca8eae4	-0.020619817
139	0xbd866d7d	-0.06563852
140	0x3dceb487	0.100930266
141	0xbd411e6b	-0.04714815
142	0xbd896c6e	-0.067101344
143	0xbc0be54e	-0.008538557
144	0xbca566b9	-0.020190584
145	0x3dfcbd80	0.12340832
146	0xbca53c6a	-0.02017041
147	0x3df63bd7	0.12023132
148	0x3de87b6d	0.113516666
149	0x3de8e2df	0.11371397
150	0xbd3085cc	-0.04309635
151	0xbd876a7b	-0.066121064
152	0x3e02445d	0.12721391
153	0x3d74aa33	0.059732627
154	0x3e061300	0.13093185
155	0xbcf3751c	-0.029718928
156	0x3de1d2c0	0.110265255
157	0xbd7a9d3f	-0.061185118
158	0xbdcb572c	-0.09928736
159	0xbd0dfa6e	-0.034662656
160	0xbc3279f4	-0.010893334
161	0xbd1de506	-0.038548492
162	0xbb6c9829	-0.0036101437
163	0x3deaa002	0.114563
164	0xbc878a67	-0.016545488
165	0xbcc4b1ad	-0.024010504
166	0x3dcf0824	0.101089746
167	0x3df109f3	0.11769476
168	0x3de6ea10	0.11275113
169	0xbd83020f	-0.06396877
170	0xbd41346d	-0.047169138
171	0xbd79f6cc	-0.06102638
172	0x3de6818a	0.11255176
173	0xbc273176	-0.0102046635
174	0xbd881512	-0.06644644
175	0xbd2df514	-0.042470053
176	0xbd55ce45	-0.052198667
177	0xbd622d53	-0.055219006
178	0xbd335818	-0.043785185
179	0xbbd38ce1	-0.006456003
180	0xbd08f628	-0.033437878
181	0xbd79ec67	-0.061016466
182	0x3df503c7	0.11963611
183	0x3e05b4de	0.13057277
184	0xbd2b022c	-0.041750118
185	0x3e037403	0.12837224
186	0x3d9ee7d6	0.07759063
187	0xbcb791dd	-0.02240842
188	0xbd5c4129	-0.05377308
189	0xbd235f61	-0.039885882
190	0xbc92970d	-0.017894292
191	0x3d711493	0.05885751
192	0x3dc76870	0.09736717
193	0x3ddbf030	0.107391715
194	0xbd5ada6e	-0.053430967
195	0x3dedbb8e	0.11608039
196	0x3ab47c11	0.0013769885
197	0xbbc06e6b	-0.005872538
198	0xbd4d8e2b	-0.05018441
199	0xbc6e3af0	-0.014540419
200	0xbdc9cb2b	-0.09853204
201	0x3e05d003	0.13067631
202	0x3dc83fab	0.09777769
203	0xbc9eff75	-0.01940892
204	0x3e011fdd	0.12609811
205	0xbd7a0dc7	-0.061048295
206	0xbc6c2064	-0.014412019
207	0xbd18a94a	-0.03727082
208	0x3d5ab08c	0.053391024
209	0x3df28207	0.11841207
210	0xbc73afea	-0.014873484
211	0xbccc7e65	-0.024962613
212	0xbd0cbc6f	-0.03435939
213	0xbcad6194	-0.021164693
214	0x3dd04a1e	0.10170387
215	0xbc8ea458	-0.01741235
216	0xbd36548e	-0.04451423
217	0xbcda665a	-0.026660133
218	0xbbf42cf6	-0.007451649
219	0xbd8ea9ca	-0.069659784
220	0xbd763ad7	-0.060114708
221	0xbcdaaa11	-0.026692422
222	0x3d60f789	0.054923568
223	0xbd26e6c1	-0.040747408
224	0xbd1a2f70	-0.037642896
225	0xbd9de9ed	-0.077106334
226	0xbd85282e	-0.06501804
227	0xbccd1c16	-0.025037806
228	0x3ddcee96	0.10787694
229	0xbd3ca87f	-0.046059128
230	0x3de49923	0.11162021
231	0xbc1b3694	-0.009473462
232	0xbd2c3e47	-0.04205158
233	0xbd194259	-0.03741679
234	0xbc590ae2	-0.013247224
235	0xbd0862c0	-0.0332973
236	0xbd88df67	-0.066832356
237	0x3de4456a	0.11146052
238	0xbc2b9063	-0.010471436
239	0xbd822d87	-0.0635634
240	0xbd3a196c	-0.0454344
241	0xbd61b9cf	-0.05510884
242	0xbd7b3333	-0.061328124
243	0xbd4d14be	-0.05006861
244	0xbd885b3a	-0.06658025
245	0x3ddce2ed	0.1078547
246	0x3e04822c	0.12940282
247	0xbcbc8150	-0.02301088
248	0xbd877f30	-0.06616056
249	0x3df9dd29	0.12200386
250	0x3b9ea629	0.004841585
251	0x3dd769f0	0.10518253
252	0xbd6a8457	-0.057255115
253	0x3dcf1ebf	0.10113286
254	0xbc691f0c	-0.014228594
255	0xbd8b396b	-0.06798061

action_model._discrete_distribution.branches.0.bias f4 [3]
0	0x3e1c4462	0.15260461
1	0xbdef2637	-0.11677211
2	0xbdbe50d0	-0.092927575
