PFG-GAME/config/results/train01/DifAgent/checkpoint.pt (torch, 439339 bytes, 41 tensors)

network_body.observation_encoder.processors.0.normalizer.running_mean f4 [4]
0.0 0.40890315 0.48807633 0.45433113
00000000: 0000 0000 c15b d13e 24e5 f93e 179e e83e

network_body.observation_encoder.processors.0.normalizer.running_variance f4 [4]
1.0 71070.63 125767.164 75962.0
00000000: 0000 803f 51cf 8a47 95a3 f547 005d 9447

network_body.processors.0.normalizer.running_mean f4 [4]
0.0 0.40890315 0.48807633 0.45433113
00000000: 0000 0000 c15b d13e 24e5 f93e 179e e83e

network_body.processors.0.normalizer.running_variance f4 [4]
1.0 71070.63 125767.164 75962.0
00000000: 0000 803f 51cf 8a47 95a3 f547 005d 9447

network_body._body_endoder.seq_layers.0.weight f4 [128, 4]
-0.73080134 -0.30695647 0.27274677 0.27818114 -0.17813464 -0.59563226 0.7538057 0.38738465
-0.87509376 -0.27431083 -0.29628378 0.8783761 0.35382885 0.023261102 -0.17387019 -0.09026717
0.4121557 0.3850085 0.4160944 -0.18204226 0.46043056 0.17924479 0.49925333 -0.34618142
-1.0870354 -0.37855807 0.13189757 0.022688646 0.20833625 0.100326315 -0.25694266 -0.86989087
0.824103 0.18927225 -0.547221 0.3557354 -0.23438472 -0.48166445 -0.73577225 -0.093930624
0.93669534 0.4837496 -0.73020077 0.033700023 -0.13156888 0.25219196 0.85811424 -0.33328858
0.904097 0.5101646 -0.7097289 -0.81662965 0.2102913 0.24605627 -0.0011403757 0.37698698
0.6445266 0.17104566 0.13473448 -0.20723276 0.763989 1.4088565 0.09027956 0.03346168
0.10738202 -0.24159186 0.24762508 0.019712668 -0.06994601 -0.4509887 0.20118631 0.6406975
0.53420603 -0.45378193 0.022999309 -0.24710603 0.16708146 0.14201163 -0.46141824 0.0839097
0.25083688 0.37452722 -0.22147457 -0.20077068 -0.42694393 0.0027858447 0.11941323 0.009671629
-0.4066409 -0.3598802 -1.5515033 0.6054414 0.38662705 0.11850748 0.38325563 -0.051489655
-0.80127573 0.1468883 0.5125605 -0.4552753 -0.1915053 -0.480327 0.39297864 0.69770014
-0.13184534 0.51941776 1.1727365 0.18642284 -0.7594684 -0.046834443 0.52016306 0.54442424
0.7332861 0.70507795 0.7916481 -0.24439506 -0.5069236 -0.46811134 -0.27262563 -0.107274495
0.72054815 -0.047297027 0.18241306 0.5100016 0.29745445 -0.7050852 0.30226216 -0.4314092
-0.19074367 0.12306596 0.015062827 -0.072204866 -0.5458703 -1.059322 0.36602926 -0.04336327
-0.15191202 0.6802785 0.19720688 -1.0873978 -0.4156167 -0.35319662 0.32444885 0.36073703
0.6300456 -0.21136464 -0.0016011249 0.049433205 -0.37680906 -0.42792186 0.126304 -0.97359353
-0.41393647 -1.4796821 -0.10218134 -0.28231812 0.14823633 0.18346009 -0.043065645 0.49905506
0.36726993 0.14256029 0.96552575 0.21741006 -1.0254872 -0.4056833 -0.30074593 -0.111994244
-0.19795638 -0.79180896 0.28524727 -0.44549814 -0.44079852 -0.27344415 -0.37874427 -0.0510742
0.43505898 0.28345117 -0.9678404 -0.20655741 -0.16496564 -1.1276827 0.54171264 1.0658932
0.40878242 1.1451337 -0.3718237 -0.29136688 -0.437684 -0.15955701 -0.96946 -0.42936566
-0.24299283 -0.021337258 -0.2395032 0.41760045 -0.5368549 0.9107578 -0.27683184 -0.11890377
0.5801139 0.4364859 0.023198007 -0.602255 -0.00064666255 0.032604687 0.6189432 0.1286224
0.35616165 -0.5126895 -0.19636905 0.31612456 0.36057964 0.1934932 -0.13036533 0.28410208
0.15141213 0.15214387 0.5632593 0.909013 -0.1354892 -0.0045468854 0.17461255 -0.38143063
-0.283585 0.8103645 -0.30391505 -0.32551453 0.2829625 -0.109040126 -0.33741403 0.06316983
-0.26725018 0.14472526 0.99540514 -0.3265166 -0.041931525 -0.546032 0.3180329 0.16430438
-0.1808238 0.49331653 0.17891304 -0.03146426 -0.6730259 -0.47674444 0.29888973 1.0434028
0.6330523 0.035598345 -0.19652504 -0.21508026 0.57787645 -0.07257672 -0.036029473 -0.47162476
00000000: cc15 3bbf 6629 9dbe 77a5 8b3e c26d 8e3e
00000010: ed68 36be 5b7b 18bf 69f9 403f 4857 c63e
00000020: 2506 60bf 7872 8cbe 82b2 97be 42dd 603f
00000030: 0e29 b53e 118e be3c 070b 32be fedd b8bd
00000040: 1206 d33e d61f c53e 530a d53e 4969 3abe
00000050: 8ebd eb3e f28b 373e 229e ff3e b13e b1be
00000060: fa23 8bbf 5dd2 c1be 2810 073e 8add b93c
00000070: 1956 553e e277 cd3d fd8d 83be 2bb1 5ebf
00000080: 6af8 523f 96d0 413e ad16 0cbf f322 b63e
00000090: 8c02 70be b99c f6be 925b 3cbf b35e c0bd
000000a0: 44cb 6f3f 07ae f73e 70ee 3abf 0909 0a3d
000000b0: feb9 06be 4e1f 813e 60ad 5b3f cda4 aabe
000000c0: e772 673f 269a 023f cbb0 35bf a40e 51bf
000000d0: 9a56 573e 2df6 7b3e a978 95ba 7004 c13e
000000e0: b2ff 243f 9826 2f3e d6f7 093e d334 54be
000000f0: c894 433f 6955 b43f 7de4 b83d 1d0f 093d
00000100: 1beb db3d db63 77be 6e91 7d3e 767c a13c
00000110: db3f 8fbd fee7 e6be c903 4e3e c004 243f
00000120: bac1 083f 1b56 e8be 0c69 bc3c 5d09 7dbe
00000130: 6717 2b3e 7f6b 113e 033f ecbe d9d8 ab3d
00000140: b16d 803e 08c2 bf3e 3bca 62be d496 4dbe
00000150: 6598 dabe b892 363b ec8e f43d c175 1e3c
00000160: 3c33 d0be 3842 b8be a997 c6bf 35fe 1a3f
00000170: fbf3 c53e 0db4 f23d 153a c43e d1e6 52bd
00000180: 6820 4dbf e369 163e 2a37 033f d819 e9be
00000190: f719 44be 6ced f5be 7f34 c93e 7a9c 323f
000001a0: 7702 07be 90f8 043f 3b1c 963f a1e5 3e3e
000001b0: 856c 42bf 79d5 3fbd 6829 053f 635f 0b3f
000001c0: a3b8 3b3f fd7f 343f 73a9 4a3f b342 7abe
000001d0: bfc5 01bf 4aac efbe 9695 8bbe bbb2 dbbd
000001e0: d875 383f 87ba 41bd 7dca 3a3e 778f 023f
000001f0: f34b 983e 7780 34bf 1bc2 9a3e abe1 dcbe
00000200: 4f52 43be 020a fc3d 13ca 763c 25e0 93bd
00000210: 28be 0bbf dd97 87bf 3068 bb3e af9d 31bd
00000220: d38e 1bbe bb26 2e3f 9af0 493e da2f 8bbf
00000230: b6cb d4be 30d6 b4be 291e a63e 86b2 b83e
00000240: ab4a 213f f96f 58be d6dc d1ba 797a 4a3d
00000250: 1eed c0be 9318 dbbe d655 013e 6d3d 79bf
00000260: 7bef d3be 3966 bdbf 7344 d1bd 008c 90be
00000270: 44cb 173e f6dc 3b3e 9a65 30bd 2584 ff3e
00000280: ce0a bc3e 53fb 113e b22c 773f bea0 5e3e
00000290: 2a43 83bf b9b5 cfbe 5ffb 99be 3d5d e5bd
000002a0: 14b5 4abe feb3 4abf ee0b 923e 5518 e4be
000002b0: 58b0 e1be df00 8cbe c5ea c1be 2e33 51bd
000002c0: 0dc0 de3e 8320 913e 63c4 77bf c983 53be
000002d0: c1ec 28be e857 90bf aead 0a3f 306f 883f
000002e0: ee4b d13e be93 923f ad5f bebe 0a2e 95be
000002f0: 1e18 e0be ea62 23be 882e 78bf d1d5 dbbe
00000300: 1dd3 78be 79cb aebc 5440 75be bacf d53e
00000310: 536f 09bf 6c27 693f e7bc 8dbe d283 f3bd
00000320: 5882 143f 147b df3e bf09 be3c 622d 1abf
00000330: ca84 29ba 7e8c 053d 1073 1e3f 97b5 033e
00000340: d25a b63e 9e3f 03bf f814 49be 14db a13e
00000350: e59d b83e 1523 463e 7d7e 05be d475 913e
00000360: c80b 1b3e 9acb 1b3e c331 103f 13b5 683f
00000370: aebd 0abe 0afe 94bb a2cd 323e e04a c3be
00000380: 0e32 91be 0c74 4f3f c19a 9bbe d7a9 a6be
00000390: 76e0 903e 6e50 dfbd 88c1 acbe 2f5f 813d
000003a0: 04d5 88be dc32 143e dfd2 7e3f 2f2d a7be
000003b0: 64c0 2bbd c1c8 0bbf 35d5 a23e 683f 283e
000003c0: e029 39be fc93 fc3e fb34 373e abe0 00bd
000003d0: 6d4b 2cbf d917 f4be 1308 993e 398e 853f
000003e0: b70f 223f 92cf 113d dc3d 49be 003e 5cbe
000003f0: b6ef 133f 1aa3 94bd a493 13bd cd78 f1be

network_body._body_endoder.seq_layers.0.bias f4 [128]
0.0038886552 0.007179323 0.016341219 0.010508565 -0.0075565632 -0.015673086 -0.010144388 -0.026928522
-0.011810666 -0.017845836 0.012194074 0.0012562663 0.0027869868 -0.0052872095 -0.029997597 0.0068668253
-0.022090148 0.017658617 -0.0013755709 -0.013956463 0.018659016 0.013777051 -0.0023284878 0.005806283
-0.01722517 -0.0023555912 -0.018457705 0.013944554 -0.0026456397 -0.015876539 0.014778849 -0.013537399
-0.013237521 -0.0090221735 -0.030821769 -0.00037956258 -0.023191463 -0.033642195 0.009631307 0.0031723753
-0.0150839025 -0.033289097 -0.014546082 -0.0048867916 0.01685094 0.013399673 0.018795872 -0.004995775
-0.005702622 -0.0014272493 0.0045102537 -0.012633191 -0.015232327 -0.013802755 -0.031501226 -0.02348842
-0.027913187 -0.0059244307 -0.021193579 0.002638065 0.0035698093 0.016313745 0.014522577 -0.025552262
0.0024006753 -0.026664851 -0.010833695 -0.01038042 -0.019902464 -0.045041874 -0.012738812 -0.026350671
-0.02354271 0.02391386 -0.01473662 -0.023472289 0.0045327656 -0.0077821384 -0.0067532687 -0.01234362
-0.03446471 -0.029265843 -0.048625723 -0.014787231 0.023292866 0.016457856 -0.022241548 -0.00602508
-0.008685986 -0.0052874256 -0.0016368628 -0.01252213 0.020350797 0.012464634 0.032748237 -0.02369131
-0.007635653 0.030350491 -0.008446827 0.01550312 -0.004637664 -0.008204563 -0.016520925 0.027953723
-0.03253284 -0.016386041 0.008524427 -0.0053334762 -0.00930066 -0.0015450564 -0.015993562 -0.024604013
-0.015117742 -0.015710706 -0.0087311035 -0.022180106 0.029585378 -0.028320344 -0.018802937 -0.03309177
-0.02489163 -0.034375057 -0.0312858 0.008746866 -0.010458818 -0.013059913 0.008940092 -0.0025076093
00000000: cfd8 7e3b 8740 eb3b 05de 853c 1e2c 2c3c
00000010: 0c9d f7bb d864 80bc a634 26bc 3499 dcbc
00000020: 8681 41bc 6e31 92bc a7c9 473c 4da9 a43a
00000030: e1a5 363b 5440 adbb 85bd f5bc 1b03 e13b
00000040: 66f6 b4bc cea8 903c 804c b4ba a6a9 64bc
00000050: cbda 983c 24b9 613c 8b99 18bb a242 be3b
00000060: cd1b 8dbc 4360 1abb 9d34 97bc b377 643c
00000070: 7862 2dbb 840f 82bc fc22 723c f7cb 5dbc
00000080: 30e2 58bc bdd1 13bc ef7d fcbc 0700 c7b9
00000090: 06fc bdbc 66cc 09bd a1cc 1d3c a0e7 4f3b
000000a0: 7922 77bc 265a 08bd b152 6ebc 6121 a0bb
000000b0: fc0a 8a3c 4d8a 5b3c cdf9 993c 99b3 a3bb
000000c0: 0fdd babb 8a12 bbba c0ca 933b 72fb 4ebc
000000d0: 0391 79bc f324 62bc 6e07 01bd c96a c0bc
000000e0: 32aa e4bc ba21 c2bb 289e adbc 63e3 2c3b
000000f0: 76f3 693b 67a4 853c 1af0 6d3c fa52 d1bc
00000100: a654 1d3b 3f70 dabc cf7f 31bc a312 2abc
00000110: 7e0a a3bc d47d 38bd 73b6 50bc 5ddd d7bc
00000120: a4dc c0bc 00e7 c33c dd71 71bc f548 c0bc
00000130: 9887 943b 4f01 ffbb 864a ddbb e53c 4abc
00000140: de2a 0dbd ecbe efbc c42b 47bd 2446 72bc
00000150: aed0 be3c a0d2 863c e833 b6bc 096e c5bb
00000160: aa4f 0ebc 2442 adbb 008c d6ba 9f29 4dbc
00000170: b7b6 a63c 7738 4c3c 0423 063d 4714 c2bc
00000180: 8034 fabb 98a1 f83c 8f64 0abc cc00 7e3c
00000190: 8cf7 97bb 6e6c 06bc e456 87bc 35ff e43c
000001a0: 2841 05bd 053c 86bc 0aaa 0b3c 71c4 aebb
000001b0: cc61 18bc 7d83 caba ee04 83bc 5b8e c9bc
000001c0: 68b0 77bc bdb3 80bc e70c 0fbc 0eb3 b5bc
000001d0: 095d f23c 1100 e8bc 9e08 9abc 3c8b 07bd
000001e0: 88e9 cbbc dccc 0cbd 8a25 00bd 044f 0f3c
000001f0: 765b 2bbc 3ff9 55bc 7779 123c b456 24bb

network_body._body_endoder.seq_layers.2.weight f4 [128, 128]
-0.05137622 0.075447656 0.10206038 0.14161389 0.056178395 -0.015473079 -0.13225484 -0.004228771
0.14898701 0.16649027 -0.10899597 -0.051049065 -0.207852 -0.009907165 0.16240907 -0.058054056
-0.008156144 -0.070567526 -0.09392138 -0.035946436 -0.0156131005 -0.07762407 -0.03307555 0.058059055
-0.049247578 -0.2432551 -0.14844346 0.0028584835 -0.32764372 -0.017639954 0.07169633 0.15474921
-0.049175907 0.107246496 0.036633737 -0.08360074 -0.13283247 -0.052359477 0.007741291 0.006502454
-0.08917434 -0.10709156 0.040301166 -0.04685951 -0.25237337 0.095502704 -0.009932578 0.096350916
0.1587684 -0.13348678 -0.015315356 0.07268116 -0.065193474 0.15326189 0.1183682 -0.008697906
-0.0047300863 -0.029043123 -0.066665396 -0.05662432 -0.033629566 0.13875584 0.07146736 0.12955156
-0.09375395 0.06459008 -0.007838936 0.14878945 0.14399627 0.006044732 -0.12523216 0.008851918
-0.11376813 -0.04903628 0.07731024 0.053858716 0.036876384 -0.060466755 0.026452366 0.037335947
0.1687126 0.16279028 -0.059089657 -0.026998185 0.11827301 0.15983862 0.14658323 0.032211684
0.15422973 0.01632791 -0.029225724 -0.057330012 0.1283641 0.2101505 -0.022232639 0.038590487
-0.10270455 -0.10393874 -0.12383277 -0.029989308 0.010620801 -0.16051677 -0.008676653 -0.18389617
-0.033199336 -0.13147454 -0.08337698 0.022499906 -0.013372596 -0.009982928 -0.105041586 -0.011524642
-0.052791506 0.013307772 -0.12917736 -0.03764306 -0.13795322 0.099554665 -0.01230897 0.1071055
0.045803603 -0.0027591393 -0.08316666 -0.15426745 -0.03643878 0.08461598 -0.106960095 0.03589792
0.017391033 -0.14694875 -0.05988189 0.009420468 0.049561482 0.010461063 0.020942394 0.08509175
0.0023870124 0.029387387 0.10810033 -0.05634527 0.04527021 0.012610592 -0.05488813 -0.10434844
-0.04428888 -0.052104212 -0.08430255 -0.055448387 0.00039307933 -0.1470623 -0.15732466 0.025131308
0.112508014 -0.045606233 0.009999805 0.08923634 -0.123514704 -0.09000271 -0.10759526 0.019291513
-0.14256796 0.060494304 -0.026618289 0.076769136 -0.010679012 0.09856583 0.03156644 -0.039108302
0.00033670795 -0.06516774 0.00095557154 0.07371807 0.022444995 0.10068915 0.10066312 0.085700706
0.06930567 -0.06643753 -0.073766805 0.17073509 0.013202688 0.0646853 -0.1486014 -0.018395538
0.049926244 0.1860806 0.05820099 0.10647137 -0.16113251 -0.11978819 -0.052523892 -0.074289024
0.054578263 -0.07705634 -0.048111394 -0.1644597 0.04299306 -0.014294851 -0.14207815 0.045172352
0.027270071 -0.18780786 0.030080257 0.17746405 -0.01642349 -0.20427862 0.12754492 0.088447414
0.1418935 -0.078543946 -0.013389646 0.0046049487 -0.1909012 -0.124292985 0.07873637 0.16591606
-0.07034012 -0.0068859095 -0.065528564 0.097718544 0.0005445971 0.0023800612 -0.015370536 0.015484526
0.070675336 -0.17663899 0.086900234 -0.10380852 0.06672586 0.06513622 0.035616465 -0.0836943
-0.061314505 -0.019080784 -0.062201913 0.1229277 0.1399415 0.09202577 0.02647815 0.03655729
0.0124696605 0.07495554 0.015981475 0.14607777 -0.025565432 -0.04999318 -0.16559292 -0.0068700053
0.03314273 0.057712566 0.06565255 0.03500595 -0.20552637 0.13687362 -0.07374277 -0.038435034
00000000: df6f 52bd 4d84 9a3d 0805 d13d 3b03 113e
00000010: 511b 663d cc82 7dbc d06d 07be 8191 8abb
00000020: 0d90 183e 6d7c 2a3e 4739 dfbd d318 51bd
00000030: 28d7 54be a951 22bc 904e 263e 17ca 6dbd
00000040: 59a1 05bc b585 90bd da59 c0bd 923c 13bd
00000050: 17ce 7fbc 5ef9 9ebd 3a7a 07bd 55cf 6d3d
00000060: d4b7 49bd dd17 79be 9001 18be 6555 3b3b
00000070: ebc0 a7be aa81 90bc 87d5 923d 9476 1e3e
00000080: ad6c 49bd 0da4 db3d 420d 163d dd36 abbd
00000090: 3c05 08be e476 56bd a8aa fd3b 8a12 d53b
000000a0: 09a1 b6bd d252 dbbd d612 253d c2ef 3fbd
000000b0: 1537 81be ec96 c33d 40bc 22bc a153 c53d
000000c0: 2f94 223e c2b0 08be 42ed 7abc dcd9 943d
000000d0: 2884 85bd aff0 1c3e 076b f23d a981 0ebc
000000e0: d7fe 9abb d8eb edbc de87 88bd e7ee 67bd
000000f0: 28bf 09bd 0316 0e3e 7b5d 923d 2aa9 043e
00000100: 1202 c0bd ce47 843d e16e 00bc 435c 183e
00000110: c273 133e e312 c63b dc3c 00be a307 113c
00000120: 44ff e8bd 44da 48bd d554 9e3d f59a 5c3d
00000130: b10b 173d fdab 77bd a2b2 d83c 94ed 183d
00000140: ffc2 2c3e 7fb2 263e ff07 72bd 4c2b ddbc
00000150: 1f39 f23d bcac 233e ea19 163e 66f0 033d
00000160: 66ee 1d3e 1cc2 853c c96a efbc e0d2 6abd
00000170: e171 033e b131 573e 3921 b6bc 0f11 1e3d
00000180: c356 d2bd d6dd d4bd 099c fdbd 23ac f5bc
00000190: de02 2e3c 825e 24be 8528 0ebc 474f 3cbe
000001a0: 07fc 07bd 43a1 06be 8dc1 aabd b951 b83c
000001b0: bc18 5bbc 6f8f 23bc 0b20 d7bd dad1 3cbc
000001c0: e83b 58bd d708 5a3c 1247 04be 9c2f 1abd
000001d0: 9c43 0dbe 51e3 cb3d 90ab 49bc 215a db3d
000001e0: 8f9c 3b3d add2 34bb 4853 aabd 49f8 1dbe
000001f0: d540 15bd 254b ad3d e50d dbbd b309 133d
00000200: a477 8e3c bc79 16be b646 75bd 4e58 1a3c
00000210: fb00 4b3d e164 2b3c 628f ab3c 9544 ae3d
00000220: 6c6f 1c3b d1bd f03c b563 dd3d 4cca 66bd
00000230: 416d 393d a89c 4e3c 60d2 60bd a3b4 d5bd
00000240: 4268 35bd 3a6b 55bd d1a6 acbd d91d 63bd
00000250: 3716 ce39 8097 16be b719 21be 2ce0 cd3c
00000260: 9a6a e63d 9acd 3abd 39d6 233c 8bc1 b63d
00000270: 47f5 fcbd 5753 b8bd e75a dcbd 3c09 9e3c
00000280: 56fd 11be e0c8 773d 990e dabc 2339 9d3d
00000290: 06f7 2ebc e2dc c93d d04b 013d 0730 20bd
000002a0: 2d88 b039 aa76 85bd 527f 7a3a 80f9 963d
000002b0: 91de b73c 1d36 ce3d 7728 ce3d da83 af3d
000002c0: 22f0 8d3d 6610 88bd 0d13 97bd 2ed5 2e3e
000002d0: 1650 583c ba79 843d f72a 18be 3db2 96bc
000002e0: 767f 4c3d ea8b 3e3e 2964 6e3d a90d da3d
000002f0: ecff 24be 8353 f5bd 4b23 57bd d824 98bd
00000300: 758d 5f3d b7cf 9dbd 7410 45bd 2068 28be
00000310: 7e19 303d f334 6abc ef7c 11be a506 393d
00000320: 7c65 df3c b450 40be df6a f63c 23b9 353e
00000330: 8e8a 86bc 6a2e 51be 239b 023e eb23 b53d
00000340: 884c 113e a6db a0bd 3f60 5bbc 1ce5 963b
00000350: 9b7b 43be 528d febd 8940 a13d e6e5 293e
00000360: 7b0e 90bd 32a3 e1bb d733 86bd a920 c83d
00000370: 4bc3 0e3a cdfa 1b3b b3d4 7bbc cfb2 7d3c
00000380: 3bbe 903d dae0 34be c0f8 b13d 9099 d4bd
00000390: 91a7 883d 2366 853d 92e2 113d eb67 abbd
000003a0: eb24 7bbd 4e4f 9cbc 6fc7 7ebd 85c1 fb3d
000003b0: d34c 0f3e 0278 bc3d b5e8 d83c 19bd 153d
000003c0: 8c4d 4c3c 4a82 993d 95eb 823c 6995 153e
000003d0: 996e d1bc a6c5 4cbd 3191 29be c81d e1bb
000003e0: acc0 073d 0364 6c3d d874 863d 6662 0f3d
000003f0: 8175 52be 9928 0c3e 7306 97bd 0e6e 1dbd

network_body._body_endoder.seq_layers.2.bias f4 [128]
-0.0019329989 -0.04496088 -0.024869015 -0.0054924716 0.00695357 -0.018871734 -0.01580744 -0.0036693388
-0.027562626 -0.008090431 -0.00088264054 -0.0125569785 -0.022634672 0.010742338 -0.0434524 -0.014665319
-0.01781643 0.028926639 0.0182967 0.006168162 -0.013197598 -0.019096786 0.013364905 0.009939708
-0.020827767 0.021661296 -0.004304164 -0.025741352 0.012308286 0.011053245 -0.011598853 0.025955481
-0.027033046 0.0005314614 -0.013958818 -0.037670534 -0.00076699746 -0.0038541346 0.024349801 -0.006323838
-0.02395809 -0.001991936 -0.016161013 0.010807143 0.017712958 -0.00014441804 -0.014049721 0.014166795
-0.019492764 -0.0023738497 0.01725605 0.011446945 -0.0032710736 -0.026934724 -0.03238208 0.014236452
-0.019868875 -0.00998591 -0.0005571199 0.020000093 0.009776196 -0.019740209 -0.012465403 -0.015994288
-0.009816314 0.00012515427 -0.0066870833 -0.01205199 -0.0031003898 -0.018613923 -0.025566157 0.017766848
-0.028440243 -0.029564295 0.008330409 0.010332743 -0.003588864 -0.010027773 0.03101471 -0.020270383
0.018158428 0.014294381 -0.040097047 0.0043620835 -0.008700297 -0.0027468456 -0.020039383 0.036924075
-0.021161396 -0.022462154 -0.0010175427 -0.016908774 -0.036054786 -0.028797667 -0.009281372 -0.014676249
-0.017451042 0.0022877187 -0.011822573 -0.009069349 0.033068378 -0.01020928 -0.0066741086 -0.012516497
-0.019772692 -0.016577879 -0.03265892 -0.0073372596 0.0058254856 -0.0035667268 0.00025945934 -0.015729794
-0.027954845 -0.03975228 0.01762705 -0.016762048 0.003952729 0.01648775 0.010141715 -0.035184566
0.013864216 0.0016122902 -0.035656266 -0.023902478 -0.0037350354 -0.023677371 -0.00873247 -0.02817947
00000000: ae5c fdba e628 38bd 1bba cbbc 31fa b3bb
00000010: c6da e33b e598 9abc 9b7e 81bc 4a79 70bb
00000020: 04cb e1bc ba8d 04bc 0161 67ba c9bb 4dbc
00000030: 596c b9bc a200 303c 25fb 31bd ce46 70bc
00000040: c3f3 91bc 8ff7 ec3c f6e2 953c 4b1e ca3b
00000050: bd3a 58bc dd70 9cbc 79f8 5a3c 28da 223c
00000060: fe9e aabc 0873 b13c f209 8dbb 87df d2bc
00000070: b1a8 493c ab18 353c 1e09 3ebc 97a0 d43c
00000080: 6874 ddbc c551 0b3a 87b3 64bc 6b4c 1abd
00000090: 5410 49ba a695 7cbb 3c79 c73c 3338 cfbb
000000a0: c243 c4bc 248b 02bb 1a64 84bc 7110 313c
000000b0: c41a 913c ec6e 17b9 cd30 66bc d81b 683c
000000c0: 4aaf 9fbc 9792 1bbb 8f5c 8d3c f88b 3b3c
000000d0: 825f 56bb 36a6 dcbc 12a3 04bd 0240 693c
000000e0: 0dc4 a2bc f19b 23bc af0b 12ba 3cd7 a33c
000000f0: 572c 203c 38b6 a1bc b13b 4cbc 7406 83bc
00000100: 9bd4 20bc d83b 0339 521f dbbb b675 45bc
00000110: e92f 4bbb 3a7c 98bc 1e70 d1bc c88b 913c
00000120: 83fb e8bc d230 f2bc 457c 083c aa4a 293c
00000130: 2633 6bbb 874b 24bc 9012 fe3c 130e a6bc
00000140: fcc0 943c fb32 6a3c cd3c 24bd cfef 8e3b
00000150: b18b 0ebc 6c04 34bb a229 a4bc b33d 173d
00000160: aa5a adbc 8d02 b8bc 115f 85ba 4584 8abc
00000170: 2fae 13bd 16e9 ebbc e510 18bc a674 70bc
00000180: 7df5 8ebc 8ded 153b 77b3 41bc 9b97 14bc
00000190: b572 073d d344 27bc 7bb2 dabb fe11 4dbc
000001a0: 57fa a1bc 55ce 87bc 5cc5 05bd 656d f0bb
000001b0: b7e3 be3b bfbf 69bb 0b08 8839 c5db 80bc
000001c0: 8f01 e5bc 49d3 22bd 9a66 903c 9050 89bc
000001d0: e585 813b 5111 873c 7029 263c b11d 10bd
000001e0: bd26 633c 7b53 d33a 4e0c 12bd 21cf c3bc
000001f0: 7fc7 74bb 0cf7 c1bc a212 0fbc a2d8 e6bc

action_model._discrete_distribution.branches.0.weight f4 [3, 128]
0.004673613 0.011706807 0.007827181 0.00038818948 -0.004228692 0.02166162 0.02207279 -0.0027017712
-0.0032031809 0.024365103 -0.0054937634 -0.0029156392 0.024609689 -0.00040185702 0.01357663 -0.014784716
0.0008856887 0.004641351 -0.002126785 -0.000755029 0.021176988 -0.0021415504 0.0019088887 -0.0051723807
0.014641582 -0.008692453 0.025789237 0.008618305 -0.000106095606 -0.004861824 0.025080035 0.011772162
0.02689601 -0.0026517895 0.01707147 0.019034874 0.006006492 0.0008887557 0.0072299023 0.0050790063
0.006368267 -0.012699028 0.0041522873 -0.0015843642 0.00039363606 0.008189753 0.025657265 0.0021264376
0.02093746 0.009590706 -0.0015863415 0.010346984 -0.022295991 0.021636078 0.01988873 -0.005206045
0.024912952 0.00486838 0.03989115 0.0009915318 0.016734684 0.008049655 -0.004581471 0.013155558
0.00037086787 0.02293835 -0.00095280365 -0.0034053952 -0.011768404 0.01336815 0.009660566 -0.002988816
-0.0027678965 0.0070877974 -0.0037983 0.001057249 0.012232393 -0.00035161263 0.007955587 0.010789337
-0.0073405406 0.016354362 0.004333832 0.0052487757 -0.009866917 -0.0046230135 -0.0013695534 0.0062269857
-0.0072936816 0.016420051 -0.0011700654 0.013076012 0.026244078 0.010656707 0.0084137125 0.011508187
0.018891523 0.014123768 -0.0015475064 0.015755227 -0.0034231343 0.023904344 0.021283671 -0.012354885
0.019901445 0.0019591313 0.001040118 -0.0003776774 -0.0057588997 -0.027092926 0.007861628 0.01539753
0.015786154 0.011085318 -0.004578645 0.006264323 -0.02742521 -0.0019610396 0.018506082 0.0016870798
-0.0050556 0.009812096 0.0046518655 -0.0034171953 0.018122612 -0.02394882 0.003560194 0.016902769
0.006976927 -0.0021302477 0.034513816 -0.007555641 0.007559165 0.012201481 0.0036647087 -0.0041484083
-0.0090745 -0.0008176138 -0.0030624056 0.009968164 0.020366257 -0.01340823 0.0027967335 0.0043950654
-0.0003270511 -0.024215136 -0.02357463 0.0081190895 0.01872475 -0.0044479487 -0.019824427 -8.260467e-05
0.012279017 -0.017079743 -0.0126005355 0.0047877734 -0.007739326 -0.011443351 0.011773117 -0.020548394
0.025399942 0.0076551186 0.0005211863 -0.00092611066 -0.0069369455 0.019915821 -0.02452756 0.0067601097
0.023416787 0.0018985352 0.024786068 -0.009404545 -0.025336012 -0.0020101448 0.004537412 -0.019041898
0.019811226 -0.0075194477 2.387349e-05 -0.0013378486 -0.005027677 0.010277968 -0.0019229377 -0.013659753
0.0069606174 -0.0022779945 -0.0062173363 -0.015088495 -0.0132047655 0.027922375 0.0002976192 0.008245144
-0.0050162273 -0.019496296 -0.012407162 -0.0033580759 0.012488979 -0.0035548985 0.013948663 -0.03189845
0.009477791 -0.001715397 -0.0042466833 -0.018088726 0.02221613 -0.0048015825 -0.026282754 0.0292509
-0.029270517 -0.05201823 0.015630966 0.001249851 -0.0035555796 -0.009312894 0.023085356 -0.037737846
0.033281542 0.0070564738 -0.00067610765 0.012024935 0.037051998 0.014818816 0.011514759 0.024736831
0.014829036 -0.022565598 0.001642314 0.00022424947 -0.025904404 0.0032249396 0.026956445 0.032850776
0.036056563 -0.007022962 -0.0072928434 0.02378306 -0.01748255 -0.018469451 0.025198147 0.0332568
0.02650095 0.023084017 -0.028411902 0.022220928 -0.0010526652 -0.020209089 -0.015853494 0.0131753795
-0.014876413 -0.016188484 -0.00451498 0.005410064 0.00012379303 0.007056957 0.035257593 0.0315939
00000000: 1b25 993b e8cd 3f3c 943d 003c e985 cb39
00000010: d790 8abb b673 b13c ffd1 b43c 3310 31bb
00000020: 75ec 51bb 5399 c73c 0705 b4bb 4f14 3fbb
00000030: 429a c93c 56b0 d2b9 8370 5e3c 983b 72bc
00000040: 902d 683a 7916 983b 8861 0bbb 23ed 45ba
00000050: 5d7b ad3c 4159 0cbb ad33 fa3a 137d a9bb
00000060: 3fe3 6f3c ca6a 0ebc f343 d33c cb33 0d3c
00000070: a57f deb8 f04f 9fbb a574 cd3c 07e0 403c
00000080: 0555 dc3c a5c9 2dbb 78d9 8b3c 06ef 9b3c
00000090: 1bd2 c43b 63fb 683a d1e8 ec3b cb6d a63b
000000a0: e5ac d03b 950f 50bc e90f 883b 71aa cfba
000000b0: f060 ce39 502e 063c 2f2f d23c b45b 0b3b
000000c0: 0985 ab3c 5622 1d3c caec cfba 6586 293c
000000d0: 15a6 b6bc 253e b13c b1ed a23c 7997 aabb
000000e0: 3f16 cc3c ee86 9f3b e764 233d 49f6 813a
000000f0: 2d17 893c b3e2 033c 2a20 96bb 698a 573c
00000100: 0b71 c239 35e9 bb3c 92c5 79ba 0d2d 5fbb
00000110: 44d0 40bc 1606 5b3c 5a47 1e3c 03e0 43bb
00000120: 9965 35bb c140 e83b e6ec 78bb 6493 8a3a
00000130: 606a 483c a658 b8b9 2658 023c c2c5 303c
00000140: eb88 f0bb 95f9 853c d102 8e3b ecfd ab3b
00000150: d9a8 21bc a67c 97bb 9682 b3ba be0b cc3b
00000160: d6ff eebb 5883 863c e15c 99ba c53c 563c
00000170: d2fd d63c 7899 2e3c abd9 093c d68c 3c3c
00000180: 65c2 9a3c 6067 673c b3d5 caba 1b11 813c
00000190: aa56 60bb 0bd3 c33c 185b ae3c 256c 4abc
000001a0: 5b08 a33c c564 003b 9254 883a 0103 c6b9
000001b0: 27b5 bcbb fcf1 ddbc 0fce 003c ec45 7c3c
000001c0: f751 813c 329f 353c 7508 96bb f344 cd3b
000001d0: d6aa e0bc c984 00bb 119a 973c 0121 dd3a
000001e0: 72a9 a5bb eac2 203c ad6e 983b 06f3 5fbb
000001f0: df75 943c 5130 c4bc 2552 693b ad77 8a3c
00000200: b59e e43b a09b 0bbb 5c5e 0d3d 4f95 f7bb
00000210: dfb2 f73b b8e8 473c 9c2b 703b 5fef 87bb
00000220: 36ad 14bc 2255 56ba a4b2 48bb 8351 233c
00000230: 23d7 a63c 31ae 5bbc 6749 373b 7b04 903b
00000240: 0e78 abb9 d25e c6bc 951f c1bc ee05 053c
00000250: a664 993c 19c0 91bb d666 a2bc 0b3c adb8
00000260: ee2d 493c d1ea 8bbc 7a72 4ebc c1e2 9c3b
00000270: 2c9a fdbb e57c 3bbc 08e4 403c 1b55 a8bc
00000280: 8a13 d03c cad7 fa3b 38a0 083a 3cc6 72ba
00000290: 514f e3bb 8126 a33c 06ee c8bc e983 dd3b
000002a0: 90d4 bf3c 45d8 f83a 270c cb3c 8515 1abc
000002b0: 788d cfbc a2bc 03bb 92ae 943b c1fd 9bbc
000002c0: 274b a23c b365 f6bb ee43 c837 c05a afba
000002d0: 36bf a4bb ec64 283c 150b fcba 28cd 5fbc
000002e0: e415 e43b 684a 15bb ccba cbbb bc35 77bc
000002f0: cd58 58bc 77bd e43c c609 9c39 a416 073c
00000300: 2a5f a4bb b2b6 9fbc 6947 4bbc 2a13 5cbb
00000310: 939e 4c3c 4df9 68bb ef88 643c f3a7 02bd
00000320: bd48 1b3c 2cd7 e0ba c327 8bbb cf2e 94bc
00000330: 9afe b53c 9856 9dbb ee4e d7bc 959f ef3c
00000340: b9c8 efbc 1111 55bd 830c 803c 0ad2 a33a
00000350: ba04 69bb 1c95 18bc 801d bd3c 0093 1abd
00000360: 3a52 083d fe39 e73b d13c 31ba 3c04 453c
00000370: d6c3 173d 9fca 723c 66a8 3c3c e5a4 ca3c
00000380: 7cf5 723c 7ddb b8bc ea42 d73a 8224 6b39
00000390: 7935 d4bc 8259 533b c3d3 dc3c 898e 063d
000003a0: 0cb0 133d e020 e6bb cef8 eebb b1d4 c23c
000003b0: 9137 8fbc 3f4d 97bc 586c ce3c 4838 083d
000003c0: 8518 d93c b11a bd3c 14c0 e8bc aa08 b63c
000003d0: 95f9 89ba 888d a5bc 30df 81bc 8cdd 573c
000003e0: 33bc 73bc b69d 84bc 66f2 93bb e846 b13b
000003f0: 70ce 0139 0c3e e73b 446a 103d 9b68 013d

action_model._discrete_distribution.branches.0.bias f4 [3]
-0.0015936679 -0.014262818 0.014835089
00000000: 9fe2 d0ba 98ae 69bc e00e 733c

exp_avg f4 [128, 4]
0.0 9.640595e-05 -0.00019725194 -0.00019268096 0.0 -1.310204e-06 -0.000118557364 -0.00023141094
0.0 -0.00034678337 0.0002221269 -9.191822e-05 0.0 -1.077646e-05 0.00014195112 0.00012432819
0.0 1.6055385e-05 -1.3502438e-05 5.5203844e-05 0.0 2.0127534e-05 -4.4554017e-05 7.820908e-06
0.0 8.6630025e-06 -0.00013102438 -0.00010602774 0.0 0.00013958273 3.892889e-05 0.00012868209
0.0 -9.617473e-06 2.6490374e-05 0.00010129987 0.0 0.00013131228 6.6419794e-05 0.00025984406
0.0 4.0014693e-05 0.00038649145 0.00045934026 0.0 8.25936e-06 -8.228527e-05 1.0938154e-07
0.0 0.00022804512 0.0005340686 0.000326025 0.0 4.069345e-05 -0.00015605801 6.7900015e-05
0.0 2.4591041e-05 -2.0845631e-05 2.8821305e-05 0.0 -0.0002078366 0.00017724496 -9.723163e-05
0.0 2.7875612e-05 -0.00020924554 -0.00012847294 0.0 0.00010174612 -0.00015173994 -0.00024634783
0.0 3.0953594e-05 -4.6257846e-06 -4.5166476e-06 0.0 -9.4471536e-05 1.5699154e-05 0.00020144849
0.0 -0.00012192682 0.00027698322 7.41175e-05 0.0 9.614045e-05 1.1379232e-05 2.4469286e-05
0.0 -2.0176626e-06 0.0002708448 -0.0001454974 0.0 1.2517426e-05 4.697248e-05 3.0799012e-05
0.0 4.194617e-06 -5.5344106e-05 -1.4024711e-05 0.0 0.00019881826 -0.00015905485 -0.00015498689
0.0 0.00011963631 -0.00010615506 7.776502e-05 0.0 -7.2574803e-06 -0.00016765294 0.00021038773
0.0 -3.0302348e-05 -3.6230787e-05 -2.2582011e-05 0.0 5.003594e-05 -7.0857575e-05 -2.7518403e-05
0.0 1.274804e-05 -0.000117974014 -6.960817e-05 0.0 -0.000302567 -0.0002821331 -0.00048210143
0.0 -2.8632294e-05 0.00012671044 8.5085485e-05 0.0 -0.00016166244 -0.00016240076 -0.00057353824
0.0 -1.856537e-05 -3.0379899e-05 -9.101417e-06 0.0 1.4713112e-05 -0.00017968666 -0.0003507308
0.0 1.2386847e-05 -0.00020050994 -0.00017792321 0.0 -3.16966e-05 -2.0938154e-05 -5.0381077e-05
0.0 -0.00031418906 -0.00022385671 -0.0008216102 0.0 -0.0003729814 0.00015142512 -7.820208e-06
0.0 4.4599087e-06 -6.8393565e-05 -3.594455e-05 0.0 5.0262526e-05 -8.8350964e-05 -0.00012164263
0.0 -0.00010881703 -0.00012296867 -0.00017223462 0.0 0.00020774157 0.00010094164 9.390487e-05
0.0 -0.00018210651 0.00038380662 0.00013943012 0.0 0.00012722843 -8.435937e-05 -0.0003247793
0.0 -0.000120068275 0.00015916122 -6.7292094e-05 0.0 1.3189802e-05 3.743613e-05 6.307606e-05
0.0 -1.49701655e-05 7.260165e-05 9.2389615e-05 0.0 -0.00023787627 0.0001688927 -0.000107004715
0.0 -3.5462086e-05 0.00014769896 1.0214305e-06 0.0 9.6377626e-05 -0.00022694361 2.8784063e-05
0.0 0.00022450608 -6.127973e-05 -0.00020694002 0.0 -0.00012484567 6.7468696e-05 -4.3928983e-05
0.0 8.283796e-05 -5.798702e-05 -1.8016133e-05 0.0 1.9937206e-05 -8.9336514e-05 -2.662384e-05
0.0 0.0002077806 2.8212706e-05 0.00025675123 0.0 -5.1728035e-05 9.983676e-05 7.021913e-05
0.0 5.926885e-05 -4.8331225e-05 5.6662728e-05 0.0 5.0471077e-05 -0.00015648057 -0.00015495575
0.0 -6.6345056e-05 9.16332e-05 6.211041e-05 0.0 -3.7084243e-05 -9.697357e-05 -9.052435e-05
0.0 -7.89127e-05 0.00019736346 4.3444597e-05 0.0 -4.3321263e-05 -5.0158425e-05 -7.61797e-05
00000000: 0000 0000 8d2d ca38 6ad5 4eb9 670a 4ab9
00000010: 0000 0000 44da afb5 00a2 f8b8 e7a6 72b9
00000020: 0000 0000 7ad0 b5b9 bcea 6839 38c4 c0b8
00000030: 0000 0000 8bcc 34b7 b7d8 1439 185e 0239
00000040: 0000 0000 adae 8637 8888 62b7 ad8a 6738
00000050: 0000 0000 8dd7 a837 83df 3ab8 8b36 0337
00000060: 0000 0000 5057 1137 9763 09b9 365b deb8
00000070: 0000 0000 f45c 1239 9447 2338 d6ee 0639
00000080: 0000 0000 bb5a 21b7 a537 de37 f470 d438
00000090: 0000 0000 dfb0 0939 db4a 8b38 ae3b 8839
000000a0: 0000 0000 73d5 2738 01a2 ca39 9bd3 f039
000000b0: 0000 0000 ae91 0a37 9190 acb8 23e5 ea33
000000c0: 0000 0000 651f 6f39 bd00 0c3a 56ee aa39
000000d0: 0000 0000 42ae 2a38 81a3 23b9 8b65 8e38
000000e0: 0000 0000 dc48 ce37 a7dd aeb7 48c5 f137
000000f0: 0000 0000 b6ee 59b9 d5da 3939 d5e8 cbb8
00000100: 0000 0000 6cd6 e937 ec68 5bb9 b1b6 06b9
00000110: 0000 0000 8860 d538 611c 1fb9 3f28 81b9
00000120: 0000 0000 2bd4 0138 3037 9bb6 b58d 97b6
00000130: 0000 0000 051f c6b8 adb1 8337 eb3b 5339
00000140: 0000 0000 f7b2 ffb8 0f38 9139 886f 9b38
00000150: 0000 0000 039f c938 6ee9 3e37 6443 cd37
00000160: 0000 0000 2e67 07b6 2c00 8e39 a990 18b9
00000170: 0000 0000 ef01 5237 5104 4538 302e 0138
00000180: 0000 0000 7cbf 8c36 4821 68b8 ad4b 6bb7
00000190: 0000 0000 df79 5039 f6c7 26b9 fa83 22b9
000001a0: 0000 0000 41e5 fa38 909f deb8 c715 a338
000001b0: 0000 0000 4885 f3b6 fecb 2fb9 879b 5c39
000001c0: 0000 0000 cc31 feb7 83f6 17b8 806e bdb7
000001d0: 0000 0000 aedd 5138 5f99 94b8 52d7 e6b7
000001e0: 0000 0000 6ae0 5537 d168 f7b8 9afa 91b8
000001f0: 0000 0000 dba1 9eb9 44eb 93b9 8fc2 fcb9
00000200: 0000 0000 622f f0b7 93dd 0439 ec6f b238
00000210: 0000 0000 ee83 29b9 1f4a 2ab9 8059 16ba
00000220: 0000 0000 d4bc 9bb7 56d8 feb7 4ab2 18b7
00000230: 0000 0000 56d8 7637 456a 3cb9 4be2 b7b9
00000240: 0000 0000 1ad1 4f37 fa3f 52b9 e690 3ab9
00000250: 0000 0000 f7f1 04b8 58a4 afb7 4550 53b8
00000260: 0000 0000 beb9 a4b9 14bb 6ab9 5461 57ba
00000270: 0000 0000 b78c c3b9 dfc7 1e39 8a33 03b7
00000280: 0000 0000 53a6 9536 846e 8fb8 2bc3 16b8
00000290: 0000 0000 fad0 5238 1049 b9b8 641a ffb8
000002a0: 0000 0000 b334 e4b8 27f1 00b9 e199 34b9
000002b0: 0000 0000 34d5 5939 a1b0 d338 cbee c438
000002c0: 0000 0000 d8f3 3eb9 a739 c939 fd33 1239
000002d0: 0000 0000 9f68 0539 18ea b0b8 2447 aab9
000002e0: 0000 0000 2acd fbb8 84e4 2639 2b1f 8db8
000002f0: 0000 0000 c549 5d37 bd04 1d38 b447 8438
00000300: 0000 0000 5f28 7bb7 b741 9838 4cc1 c138
00000310: 0000 0000 6d6e 79b9 ca18 3139 b867 e0b8
00000320: 0000 0000 20bd 14b8 a3df 1a39 1618 8935
00000330: 0000 0000 581e ca38 b6f7 6db9 4e75 f137
00000340: 0000 0000 6469 6b39 4e83 80b8 0afe 58b9
00000350: 0000 0000 01e9 02b9 fb7d 8d38 6340 38b8
00000360: 0000 0000 4bb9 ad38 1737 73b8 5a21 97b7
00000370: 0000 0000 d33e a737 2d5a bbb8 4356 dfb7
00000380: 0000 0000 aedf 5939 53aa ec37 919c 8639
00000390: 0000 0000 8ef6 58b8 745f d138 9c42 9338
000003a0: 0000 0000 7197 7838 42b7 4ab8 24a9 6d38
000003b0: 0000 0000 e8b0 5338 ef14 24b9 9e7b 22b9
000003c0: 0000 0000 bb22 8bb8 332b c038 4641 8238
000003d0: 0000 0000 e78a 1bb8 4a5e cbb8 e4d7 bdb8
000003e0: 0000 0000 ef7d a5b8 5af3 4e39 4838 3638
000003f0: 0000 0000 dab3 35b8 3361 52b8 aac2 9fb8

exp_avg_sq f4 [128, 4]
0.0 7.805171e-07 2.776893e-07 8.888813e-07 0.0 1.8896577e-07 1.389334e-07 3.2436682e-07
0.0 2.2712334e-06 5.712708e-07 2.119402e-06 0.0 4.3743347e-07 2.1495225e-07 4.6562442e-07
0.0 1.6356933e-07 3.6538953e-08 1.4913292e-07 0.0 1.15174586e-07 8.424438e-08 1.1998202e-07
0.0 2.0710216e-07 1.5480903e-07 2.3341033e-07 0.0 4.4528977e-07 3.4564866e-07 5.098778e-07
0.0 3.059621e-07 1.1495601e-07 3.2126923e-07 0.0 1.4190455e-07 1.080974e-07 2.2947088e-07
0.0 1.9124361e-06 1.1873257e-06 2.2511365e-06 0.0 1.1393679e-07 3.2797466e-08 1.02207586e-07
0.0 1.1646716e-06 6.3533764e-07 1.1759746e-06 0.0 4.3426367e-06 3.90104e-07 3.8547014e-06
0.0 7.060211e-08 3.5690473e-08 6.9688e-08 0.0 4.7547127e-07 1.4553957e-07 4.1584804e-07
0.0 4.4809752e-07 2.4801534e-07 4.871966e-07 0.0 1.125015e-06 2.0858562e-07 1.3128486e-06
0.0 9.409932e-08 7.499093e-08 1.09142114e-07 0.0 6.492884e-07 2.2933995e-07 8.488832e-07
0.0 1.4771266e-06 6.652781e-07 1.4677421e-06 0.0 1.1756308e-07 4.573763e-08 1.346654e-07
0.0 1.4370585e-06 4.7128665e-07 1.5205073e-06 0.0 5.463765e-08 1.7002277e-08 5.3256112e-08
0.0 7.57946e-08 6.102843e-08 8.174978e-08 0.0 1.850451e-06 3.5772814e-07 1.8618196e-06
0.0 2.9113617e-06 2.5895218e-07 2.5534257e-06 0.0 1.7892603e-06 1.8870527e-07 1.6774635e-06
0.0 5.0920806e-07 7.645521e-08 4.553948e-07 0.0 3.3629618e-08 1.9832141e-08 3.8945632e-08
0.0 4.7168467e-07 6.328448e-08 4.3011863e-07 0.0 8.010809e-07 6.3713543e-07 9.271787e-07
0.0 1.8698543e-07 5.1899953e-08 1.8726989e-07 0.0 7.985474e-07 5.907158e-07 1.1485163e-06
0.0 1.4881468e-07 1.2232844e-07 1.7121384e-07 0.0 6.18099e-07 3.2069104e-07 8.916973e-07
0.0 5.0155927e-07 2.955377e-07 5.5030057e-07 0.0 3.2525128e-07 2.5882048e-07 3.737289e-07
0.0 1.7660351e-06 1.3743855e-06 2.3404434e-06 0.0 1.5144739e-06 3.6724254e-07 1.5495976e-06
0.0 1.0079168e-06 1.0268988e-07 9.0570796e-07 0.0 2.0750399e-07 1.5775703e-07 2.6143533e-07
0.0 1.6400512e-07 1.1006944e-07 1.8311042e-07 0.0 1.956527e-07 1.380391e-07 2.5273823e-07
0.0 3.960408e-06 1.5234551e-06 3.906755e-06 0.0 4.4044188e-07 2.2449204e-07 8.793019e-07
0.0 5.1256814e-07 1.9174388e-07 4.7521357e-07 0.0 6.01419e-08 4.1342595e-08 7.459026e-08
0.0 8.775413e-08 5.326515e-08 1.2609466e-07 0.0 1.2273316e-06 2.604589e-07 1.1044887e-06
0.0 3.442865e-07 1.8428251e-07 3.4433646e-07 0.0 2.0300185e-06 2.5486054e-07 1.8029745e-06
0.0 8.59512e-07 5.462136e-07 1.3199989e-06 0.0 4.6985656e-07 1.0654086e-07 4.3572936e-07
0.0 1.7351335e-06 1.5910982e-07 1.5838687e-06 0.0 1.4306752e-07 9.61998e-08 1.4850588e-07
0.0 2.1825424e-06 2.6053553e-07 1.9680251e-06 0.0 4.7274307e-07 1.3413408e-07 5.163228e-07
0.0 4.9101647e-08 2.0966667e-08 4.4290204e-08 0.0 2.1202683e-07 1.4199188e-07 2.9262787e-07
0.0 2.690884e-07 1.892401e-07 3.0064504e-07 0.0 5.0272746e-07 6.3648464e-08 4.5488622e-07
0.0 6.524552e-07 2.6013245e-07 6.344525e-07 0.0 7.6408185e-08 6.158692e-08 8.840793e-08
00000000: 0000 0000 ba84 5135 5415 9534 759b 6e35
00000010: 0000 0000 84e6 4a34 b92d 1534 a324 ae34
00000020: 0000 0000 7e6b 1836 6e59 1935 0d3b 0e36
00000030: 0000 0000 66d8 ea34 a0cd 6634 effa f934
00000040: 0000 0000 98a1 2f34 01ef 1c33 5821 2034
00000050: 0000 0000 e655 f733 d6e9 b433 68d4 0034
00000060: 0000 0000 cf5f 5e34 9539 2634 589f 7a34
00000070: 0000 0000 2910 ef34 9791 b934 89de 0835
00000080: 0000 0000 1c43 a434 bcdd f633 e87a ac34
00000090: 0000 0000 6d5e 1834 2d23 e833 7a64 7634
000000a0: 0000 0000 6757 0036 335c 9f35 3b12 1736
000000b0: 0000 0000 6aad f433 32dd 0c33 377d db33
000000c0: 0000 0000 d051 9c35 128c 2a35 2ed6 9d35
000000d0: 0000 0000 f7b6 9136 7c6f d134 a257 8136
000000e0: 0000 0000 ec9d 9733 174a 1933 62a7 9533
000000f0: 0000 0000 4644 ff34 9d45 1c34 b841 df34
00000100: 0000 0000 0e92 f034 f826 8534 e5c7 0235
00000110: 0000 0000 39ff 9635 94f7 5f34 2235 b035
00000120: 0000 0000 a613 ca33 b30a a133 8361 ea33
00000130: 0000 0000 c24a 2e35 7c40 7634 cfde 6335
00000140: 0000 0000 af41 c635 9095 3235 3cff c435
00000150: 0000 0000 fd76 fc33 0e71 4433 8b98 1034
00000160: 0000 0000 f4e0 c035 2505 fd34 3c14 cc35
00000170: 0000 0000 bbaa 6a33 670c 9232 b7bb 6433
00000180: 0000 0000 86c4 a233 bc0e 8333 6b8e af33
00000190: 0000 0000 035d f835 c80d c034 a2e3 f935
000001a0: 0000 0000 d060 4336 1e06 8b34 855b 2b36
000001b0: 0000 0000 8426 f035 e99e 4a34 3525 e135
000001c0: 0000 0000 83b0 0835 b22f a433 fc7c f434
000001d0: 0000 0000 2870 1033 575b aa32 2d45 2733
000001e0: 0000 0000 d93b fd34 03e7 8733 0eeb e634
000001f0: 0000 0000 dc09 5735 9d07 2b35 3ce3 7835
00000200: 0000 0000 2ac6 4834 9ae8 5e33 5b14 4934
00000210: 0000 0000 c25b 5635 ae91 1e35 b826 9a35
00000220: 0000 0000 dec9 1f34 6359 0334 e7d6 3734
00000230: 0000 0000 71eb 2535 712b ac34 f95c 6f35
00000240: 0000 0000 e4a2 0635 64aa 9e34 5eb8 1335
00000250: 0000 0000 329e ae34 04f4 8a34 e9a4 c834
00000260: 0000 0000 8108 ed35 8777 b835 8310 1d36
00000270: 0000 0000 ed44 cb35 6e29 c534 c5fb cf35
00000280: 0000 0000 c247 8735 5c86 dc33 c71f 7335
00000290: 0000 0000 43ce 5e34 ec63 2934 665b 8c34
000002a0: 0000 0000 6219 3034 515f ec33 029d 4434
000002b0: 0000 0000 9b14 5234 e637 1434 14b0 8734
000002c0: 0000 0000 a5e3 8436 8579 cc35 c516 8336
000002d0: 0000 0000 df75 ec34 e70b 7134 2b09 6c35
000002e0: 0000 0000 6a97 0935 28e2 4d34 db20 ff34
000002f0: 0000 0000 5c27 8133 aa90 3133 6e2e a033
00000300: 0000 0000 5873 bc33 a7c5 6433 a364 0734
00000310: 0000 0000 cbba a435 33d5 8b34 f13d 9435
00000320: 0000 0000 60d6 b834 31df 4534 3edd b834
00000330: 0000 0000 743b 0836 c4d3 8834 bbfd f135
00000340: 0000 0000 37b9 6635 839f 1235 d12a b135
00000350: 0000 0000 9840 fc34 75cb e433 30ee e934
00000360: 0000 0000 bce2 e835 c6d7 2a34 5095 d435
00000370: 0000 0000 1a9e 1934 6696 ce33 fc74 1f34
00000380: 0000 0000 cb77 1236 bbdf 8b34 6a12 0436
00000390: 0000 0000 50cd fd34 7f06 1034 6f99 0a35
000003a0: 0000 0000 d5e3 5233 301a b432 9839 3e33
000003b0: 0000 0000 7ea9 6334 6e76 1834 781a 9d34
000003c0: 0000 0000 3a77 9034 ec31 4b34 5768 a134
000003d0: 0000 0000 2bf3 0635 1daf 8833 1637 f434
000003e0: 0000 0000 6124 2f35 55a8 8b34 3e4f 2a35
000003f0: 0000 0000 d815 a433 c441 8433 c6da bd33

exp_avg f4 [128]
0.00039643765 0.0002537043 -0.00042634355 -0.00027814123 -2.8060213e-05 0.00010175025 0.00028405047 -6.35257e-05
-4.519357e-05 -0.00012653593 -0.0007254235 0.00014533676 -0.0010199493 0.00026486002 3.2986874e-05 -0.00035651177
0.00040280784 0.00028558998 2.384877e-05 -2.9445697e-05 -0.00054373726 -2.2964736e-05 -0.00051519566 -8.505938e-05
0.00013102576 0.00034846895 0.00021760816 0.00024974294 -2.8094598e-06 0.00012896513 0.00019773137 0.0005995894
-0.00025200093 0.00036376435 8.6075896e-05 0.00039249397 0.00040964168 7.840709e-05 0.00048170311 -0.00031388286
0.000119546625 0.00018328475 0.0002469772 -0.0001845725 -0.00072621903 0.0001875393 -0.00030142686 -6.9850306e-05
-0.0001423364 -0.0003237675 -0.00030761713 0.0003992832 0.00014513591 -0.00013874647 0.000119084085 0.0002050793
-5.790859e-05 -0.00018853165 5.3911328e-05 0.00032128673 -0.00024052222 0.00014088073 -0.0003849152 0.00010480623
-0.00084452657 0.0002454612 0.00011127041 1.9000878e-05 -0.0006016619 5.6297235e-05 -0.00015942742 0.0002430527
-0.00030892857 -0.00070715585 -0.000101031685 0.00045707932 8.989952e-05 2.3995519e-05 0.00013062208 5.4894612e-05
0.00011091323 -1.1115682e-05 6.886607e-05 -0.000121391124 0.00043805162 -0.00055728905 -1.19369215e-05 -9.0940106e-05
0.00020079299 -8.063558e-05 -0.0008461981 2.8088209e-05 -0.00045981488 -0.00034907064 -4.634877e-05 2.8986757e-05
0.00033148727 0.00031147487 -0.00016984325 -0.00017859985 -0.0001040073 -1.3121833e-05 0.00021951534 -0.00037687828
-0.00023921614 -0.0002300921 0.00012903904 -3.8798462e-05 -0.0005761812 0.00015954839 0.00019882167 -0.00014382822
0.00032197835 0.0001132761 0.00020427993 0.000253724 -0.0004160696 6.48759e-05 0.00016439217 0.00019610922
6.758223e-05 0.00018243656 -0.00011391643 -0.0005917287 7.458982e-05 0.00018610992 -0.00024118528 0.0004130142
00000000: f6d8 cf39 9d03 8539 dd86 dfb9 7cd3 91b9
00000010: d962 ebb7 c062 d538 9cec 9439 1a39 85b8
00000020: 3a8e 3db8 bbae 04b9 592a 3eba 8a65 1839
00000030: d2af 85ba e9dc 8a39 635b 0a38 33ea bab9
00000040: f42f d339 3dbb 9539 d80e c837 2702 f7b7
00000050: 9789 0eba 65a4 c0b7 320e 07ba e861 b2b8
00000060: f663 0939 b6b2 b639 bf2d 6439 eeef 8239
00000070: 278a 3cb6 d03a 0739 1c56 4f39 c32d 1d3a
00000080: fe1e 84b9 a0b7 be39 a583 b438 a6c7 cd39
00000090: 2dc5 d639 7c6e a438 198d fc39 a590 a4b9
000000a0: 1bb5 fa38 2030 4039 b87c 8139 ce89 41b9
000000b0: bc5f 3eba 33a6 4439 d408 9eb9 997c 92b8
000000c0: 2340 15b9 57bf a9b9 ac47 a1b9 e256 d139
000000d0: a02f 1839 797c 11b9 c8bc f938 8e0a 5739
000000e0: e0e2 72b8 94b0 45b9 d91e 6238 6072 a839
000000f0: b134 7cb9 62b9 1339 72ce c9b9 6bcb db38
00000100: 3863 5dba 3fb1 8039 d959 e938 1364 9f37
00000110: d9b8 1dba b220 6c38 f92b 27b9 f6db 7e39
00000120: b1f7 a1b9 6d60 39ba f9e0 d3b8 26a4 ef39
00000130: 7088 bc38 fc49 c937 99f7 0839 a43e 6638
00000140: 169a e838 7e7d 3ab7 316c 9038 5d93 feb8
00000150: 4baa e539 0917 12ba b044 48b7 19b7 beb8
00000160: f58b 5239 e61a a9b8 65d3 5dba f89e eb37
00000170: 4f13 f1b9 7803 b7b9 9d66 42b8 9628 f337
00000180: 78cb ad39 734d a339 f317 32b9 8846 3bb9
00000190: 7e1e dab8 d825 5cb7 b32d 6639 bf97 c5b9
000001a0: 18d6 7ab9 e144 71b9 a74e 0739 88bb 22b8
000001b0: de0a 17ba 724c 2739 c97a 5039 98d0 16b9
000001c0: 34cf a839 a58e ed38 fa33 5639 4206 8539
000001d0: eb23 dab9 fc0d 8838 b060 2c39 aba2 4d39
000001e0: efba 8d38 714c 3f39 6be6 eeb8 3e1e 1bba
000001f0: 1b6d 9c38 8026 4339 aee6 7cb9 d489 d839

exp_avg_sq f4 [128]
9.951722e-07 4.7430524e-07 2.0876187e-06 7.811323e-07 9.7732794e-08 2.687718e-07 5.4861454e-07 1.2537865e-06
4.2127067e-07 3.9708402e-07 4.33805e-06 9.6667904e-08 2.3193265e-06 1.4028849e-06 1.2632358e-07 5.269463e-07
8.982442e-07 7.5601e-07 2.6545197e-07 8.3734676e-07 2.4129145e-06 1.6339898e-07 1.7305535e-06 5.4130595e-08
1.9151915e-07 1.2670286e-06 8.884746e-07 6.1915097e-07 2.141343e-07 7.140717e-08 2.2650451e-07 2.2594945e-06
1.8826884e-07 2.1129292e-06 4.2253643e-07 1.1170705e-06 1.0649275e-06 9.218721e-07 4.9425744e-06 1.327574e-06
3.519014e-07 5.684974e-07 3.986018e-07 5.00446e-07 5.574528e-06 7.7580404e-07 7.000861e-07 1.5200438e-07
1.9372781e-07 9.4963735e-07 6.540498e-07 9.088151e-07 1.9660504e-06 3.8544988e-07 5.7523596e-07 3.3147356e-07
9.4824014e-07 4.910354e-07 5.9605334e-08 5.002825e-07 6.321822e-07 2.123062e-07 9.441382e-07 2.2032484e-07
2.0759626e-06 7.438257e-07 3.775603e-07 3.4810046e-07 8.039447e-07 1.3112529e-07 3.1118304e-07 1.0975815e-06
1.6038632e-06 3.4861782e-06 1.3248e-07 4.190516e-06 8.6557726e-08 7.551707e-08 5.9567964e-07 8.1023506e-07
2.2156883e-07 1.6619249e-07 7.5901575e-08 1.2253341e-07 9.925138e-07 2.237765e-06 4.0744353e-06 6.442722e-07
5.199128e-07 2.4201123e-07 2.2345453e-06 1.5887592e-07 1.723229e-06 7.9628984e-07 1.6033065e-06 6.899726e-07
7.731831e-07 6.1387584e-07 7.875381e-08 3.810076e-07 2.4407686e-07 1.685894e-07 1.2449774e-06 3.155937e-06
2.3191909e-07 6.2926944e-07 1.3514752e-06 4.0617667e-07 1.6760423e-06 2.499454e-06 5.765395e-07 4.9461306e-07
1.0383595e-06 3.1190964e-07 7.3679655e-07 9.150794e-07 1.6186905e-06 8.7479606e-07 2.5513168e-06 1.0697266e-06
1.5153348e-07 6.276672e-07 9.581252e-08 1.2916089e-06 1.454875e-06 2.8372267e-07 9.1935027e-07 1.2035449e-06
00000000: db91 8535 04a4 fe34 0419 0c36 01af 5135
00000010: 2ce1 d133 b74b 9034 8144 1335 c747 a835
00000020: 002b e234 d02e d534 918f 9136 be97 cf33
00000030: baa5 1b36 c24a bc35 90a3 0734 7973 0d35
00000040: df1e 7135 9df0 4a35 7183 8e34 08c6 6035
00000050: 8eed 2136 c572 2f34 5e45 e835 387d 6833
00000060: 62a4 4d34 c50e aa35 827f 6e35 bb33 2635
00000070: caec 6534 8258 9933 1635 7334 d2a1 1736
00000080: f226 4a34 d9cb 0d36 f7d8 e234 40ee 9535
00000090: a1ee 8e35 9176 7735 64d8 a536 182f b235
000000a0: f6ec bc34 d89a 1835 6aff d534 6356 0635
000000b0: d50c bb36 d940 5035 8ded 3b35 a536 2334
000000c0: 7f03 5034 95ea 7e35 f691 2f35 4cf5 7335
000000d0: 7df0 0336 d4ef ce34 ea69 1a35 61f5 b134
000000e0: 918a 7e35 b2cf 0335 6100 8033 274b 0635
000000f0: 3bb3 2935 49f6 6334 af70 7d35 6e92 6c34
00000100: c450 0b36 50ab 4735 7eb3 ca34 90e2 ba34
00000110: a9ce 5735 72cb 0c34 ac10 a734 9d50 9335
00000120: 5244 d735 16f4 6936 d33f 0e34 429c 8c36
00000130: 9de1 b933 f32b a233 cbe6 1f35 ee7e 5935
00000140: 60e8 6d34 a572 3234 55ff a233 ba91 0334
00000150: 8436 8535 832c 1636 22b7 8836 0cf2 2c35
00000160: 2390 0b35 c5ed 8134 32f5 1536 7b97 2a34
00000170: b349 e735 9fc0 5535 3131 d735 8e36 3935
00000180: bd8c 4f35 3ac9 2435 5d1f a933 498d cc34
00000190: ab09 8334 8005 3534 1919 a735 96ca 5336
000001a0: 6f05 7934 11eb 2835 5664 b535 7f10 da34
000001b0: 60f4 e035 4bbc 2736 7ec3 1a35 8dc5 0435
000001c0: c35d 8b35 8974 a734 46c8 4535 c7a3 7535
000001d0: c841 d935 87d3 6a35 4a37 2b36 8793 8f35
000001e0: 35b5 2234 f67c 2835 7dc1 cd33 585b ad35
000001f0: 2045 c335 8c52 9834 45c9 7635 7d89 a135
