PFG-GAME/config/results/train01/DifAgent/DifAgent-145221.onnx (onnx, 75988 bytes, 8 tensors)

network_body.observation_encoder.processors.0.normalizer.running_mean f4 [4]
000000 00 00 00 00 c1 5b d1 3e 24 e5 f9 3e 17 9e e8 3e
       0.0 0.40890315 0.48807633 0.45433113

network_body._body_endoder.seq_layers.0.weight f4 [128, 4]
000000 cc 15 3b bf 66 29 9d be 77 a5 8b 3e c2 6d 8e 3e
       -0.73080134 -0.30695647 0.27274677 0.27818114
000010 ed 68 36 be 5b 7b 18 bf 69 f9 40 3f 48 57 c6 3e
       -0.17813464 -0.59563226 0.7538057 0.38738465
000020 25 06 60 bf 78 72 8c be 82 b2 97 be 42 dd 60 3f
       -0.87509376 -0.27431083 -0.29628378 0.8783761
000030 0e 29 b5 3e 11 8e be 3c 07 0b 32 be fe dd b8 bd
       0.35382885 0.023261102 -0.17387019 -0.09026717
000040 12 06 d3 3e d6 1f c5 3e 53 0a d5 3e 49 69 3a be
       0.4121557 0.3850085 0.4160944 -0.18204226
000050 8e bd eb 3e f2 8b 37 3e 22 9e ff 3e b1 3e b1 be
       0.46043056 0.17924479 0.49925333 -0.34618142
000060 fa 23 8b bf 5d d2 c1 be 28 10 07 3e 8a dd b9 3c
       -1.0870354 -0.37855807 0.13189757 0.022688646
000070 19 56 55 3e e2 77 cd 3d fd 8d 83 be 2b b1 5e bf
       0.20833625 0.100326315 -0.25694266 -0.86989087
000080 6a f8 52 3f 96 d0 41 3e ad 16 0c bf f3 22 b6 3e
       0.824103 0.18927225 -0.547221 0.3557354
000090 8c 02 70 be b9 9c f6 be 92 5b 3c bf b3 5e c0 bd
       -0.23438472 -0.48166445 -0.73577225 -0.093930624
0000a0 44 cb 6f 3f 07 ae f7 3e 70 ee 3a bf 09 09 0a 3d
       0.93669534 0.4837496 -0.73020077 0.033700023
0000b0 fe b9 06 be 4e 1f 81 3e 60 ad 5b 3f cd a4 aa be
       -0.13156888 0.25219196 0.85811424 -0.33328858
0000c0 e7 72 67 3f 26 9a 02 3f cb b0 35 bf a4 0e 51 bf
       0.904097 0.5101646 -0.7097289 -0.81662965
0000d0 9a 56 57 3e 2d f6 7b 3e a9 78 95 ba 70 04 c1 3e
       0.2102913 0.24605627 -0.0011403757 0.37698698
0000e0 b2 ff 24 3f 98 26 2f 3e d6 f7 09 3e d3 34 54 be
       0.6445266 0.17104566 0.13473448 -0.20723276
0000f0 c8 94 43 3f 69 55 b4 3f 7d e4 b8 3d 1d 0f 09 3d
       0.763989 1.4088565 0.09027956 0.03346168
000100 1b eb db 3d db 63 77 be 6e 91 7d 3e 76 7c a1 3c
       0.10738202 -0.24159186 0.24762508 0.019712668
000110 db 3f 8f bd fe e7 e6 be c9 03 4e 3e c0 04 24 3f
       -0.06994601 -0.4509887 0.20118631 0.6406975
000120 ba c1 08 3f 1b 56 e8 be 0c 69 bc 3c 5d 09 7d be
       0.53420603 -0.45378193 0.022999309 -0.24710603
000130 67 17 2b 3e 7f 6b 11 3e 03 3f ec be d9 d8 ab 3d
       0.16708146 0.14201163 -0.46141824 0.0839097
000140 b1 6d 80 3e 08 c2 bf 3e 3b ca 62 be d4 96 4d be
       0.25083688 0.37452722 -0.22147457 -0.20077068
000150 65 98 da be b8 92 36 3b ec 8e f4 3d c1 75 1e 3c
       -0.42694393 0.0027858447 0.11941323 0.009671629
000160 3c 33 d0 be 38 42 b8 be a9 97 c6 bf 35 fe 1a 3f
       -0.4066409 -0.3598802 -1.5515033 0.6054414
000170 fb f3 c5 3e 0d b4 f2 3d 15 3a c4 3e d1 e6 52 bd
       0.38662705 0.11850748 0.38325563 -0.051489655
000180 68 20 4d bf e3 69 16 3e 2a 37 03 3f d8 19 e9 be
       -0.80127573 0.1468883 0.5125605 -0.4552753
000190 f7 19 44 be 6c ed f5 be 7f 34 c9 3e 7a 9c 32 3f
       -0.1915053 -0.480327 0.39297864 0.69770014
0001a0 77 02 07 be 90 f8 04 3f 3b 1c 96 3f a1 e5 3e 3e
       -0.13184534 0.51941776 1.1727365 0.18642284
0001b0 85 6c 42 bf 79 d5 3f bd 68 29 05 3f 63 5f 0b 3f
       -0.7594684 -0.046834443 0.52016306 0.54442424
0001c0 a3 b8 3b 3f fd 7f 34 3f 73 a9 4a 3f b3 42 7a be
       0.7332861 0.70507795 0.7916481 -0.24439506
0001d0 bf c5 01 bf 4a ac ef be 96 95 8b be bb b2 db bd
       -0.5069236 -0.46811134 -0.27262563 -0.107274495
0001e0 d8 75 38 3f 87 ba 41 bd 7d ca 3a 3e 77 8f 02 3f
       0.72054815 -0.047297027 0.18241306 0.5100016
0001f0 f3 4b 98 3e 77 80 34 bf 1b c2 9a 3e ab e1 dc be
       0.29745445 -0.7050852 0.30226216 -0.4314092
000200 4f 52 43 be 02 0a fc 3d 13 ca 76 3c 25 e0 93 bd
       -0.19074367 0.12306596 0.015062827 -0.072204866
000210 28 be 0b bf dd 97 87 bf 30 68 bb 3e af 9d 31 bd
       -0.5458703 -1.059322 0.36602926 -0.04336327
000220 d3 8e 1b be bb 26 2e 3f 9a f0 49 3e da 2f 8b bf
       -0.15191202 0.6802785 0.19720688 -1.0873978
000230 b6 cb d4 be 30 d6 b4 be 29 1e a6 3e 86 b2 b8 3e
       -0.4156167 -0.35319662 0.32444885 0.36073703
000240 ab 4a 21 3f f9 6f 58 be d6 dc d1 ba 79 7a 4a 3d
       0.6300456 -0.21136464 -0.0016011249 0.049433205
000250 1e ed c0 be 93 18 db be d6 55 01 3e 6d 3d 79 bf
       -0.37680906 -0.42792186 0.126304 -0.97359353
000260 7b ef d3 be 39 66 bd bf 73 44 d1 bd 00 8c 90 be
       -0.41393647 -1.4796821 -0.10218134 -0.28231812
000270 44 cb 17 3e f6 dc 3b 3e 9a 65 30 bd 25 84 ff 3e
       0.14823633 0.18346009 -0.043065645 0.49905506
000280 ce 0a bc 3e 53 fb 11 3e b2 2c 77 3f be a0 5e 3e
       0.36726993 0.14256029 0.96552575 0.21741006
000290 2a 43 83 bf b9 b5 cf be 5f fb 99 be 3d 5d e5 bd
       -1.0254872 -0.4056833 -0.30074593 -0.111994244
0002a0 14 b5 4a be fe b3 4a bf ee 0b 92 3e 55 18 e4 be
       -0.19795638 -0.79180896 0.28524727 -0.44549814
0002b0 58 b0 e1 be df 00 8c be c5 ea c1 be 2e 33 51 bd
       -0.44079852 -0.27344415 -0.37874427 -0.0510742
0002c0 0d c0 de 3e 83 20 91 3e 63 c4 77 bf c9 83 53 be
       0.43505898 0.28345117 -0.9678404 -0.20655741
0002d0 c1 ec 28 be e8 57 90 bf ae ad 0a 3f 30 6f 88 3f
       -0.16496564 -1.1276827 0.54171264 1.0658932
0002e0 ee 4b d1 3e be 93 92 3f ad 5f be be 0a 2e 95 be
       0.40878242 1.1451337 -0.3718237 -0.29136688
0002f0 1e 18 e0 be ea 62 23 be 88 2e 78 bf d1 d5 db be
       -0.437684 -0.15955701 -0.96946 -0.42936566
000300 1d d3 78 be 79 cb ae bc 54 40 75 be ba cf d5 3e
       -0.24299283 -0.021337258 -0.2395032 0.41760045
000310 53 6f 09 bf 6c 27 69 3f e7 bc 8d be d2 83 f3 bd
       -0.5368549 0.9107578 -0.27683184 -0.11890377
000320 58 82 14 3f 14 7b df 3e bf 09 be 3c 62 2d 1a bf
       0.5801139 0.4364859 0.023198007 -0.602255
000330 ca 84 29 ba 7e 8c 05 3d 10 73 1e 3f 97 b5 03 3e
       -0.00064666255 0.032604687 0.6189432 0.1286224
000340 d2 5a b6 3e 9e 3f 03 bf f8 14 49 be 14 db a1 3e
       0.35616165 -0.5126895 -0.19636905 0.31612456
000350 e5 9d b8 3e 15 23 46 3e 7d 7e 05 be d4 75 91 3e
       0.36057964 0.1934932 -0.13036533 0.28410208
000360 c8 0b 1b 3e 9a cb 1b 3e c3 31 10 3f 13 b5 68 3f
       0.15141213 0.15214387 0.5632593 0.909013
000370 ae bd 0a be 0a fe 94 bb a2 cd 32 3e e0 4a c3 be
       -0.1354892 -0.0045468854 0.17461255 -0.38143063
000380 0e 32 91 be 0c 74 4f 3f c1 9a 9b be d7 a9 a6 be
       -0.283585 0.8103645 -0.30391505 -0.32551453
000390 76 e0 90 3e 6e 50 df bd 88 c1 ac be 2f 5f 81 3d
       0.2829625 -0.109040126 -0.33741403 0.06316983
0003a0 04 d5 88 be dc 32 14 3e df d2 7e 3f 2f 2d a7 be
       -0.26725018 0.14472526 0.99540514 -0.3265166
0003b0 64 c0 2b bd c1 c8 0b bf 35 d5 a2 3e 68 3f 28 3e
       -0.041931525 -0.546032 0.3180329 0.16430438
0003c0 e0 29 39 be fc 93 fc 3e fb 34 37 3e ab e0 00 bd
       -0.1808238 0.49331653 0.17891304 -0.03146426
0003d0 6d 4b 2c bf d9 17 f4 be 13 08 99 3e 39 8e 85 3f
       -0.6730259 -0.47674444 0.29888973 1.0434028
0003e0 b7 0f 22 3f 92 cf 11 3d dc 3d 49 be 00 3e 5c be
       0.6330523 0.035598345 -0.19652504 -0.21508026
0003f0 b6 ef 13 3f 1a a3 94 bd a4 93 13 bd cd 78 f1 be
       0.57787645 -0.07257672 -0.036029473 -0.47162476

network_body._body_endoder.seq_layers.0.bias f4 [128]
000000 cf d8 7e 3b 87 40 eb 3b 05 de 85 3c 1e 2c 2c 3c
       0.0038886552 0.007179323 0.016341219 0.010508565
000010 0c 9d f7 bb d8 64 80 bc a6 34 26 bc 34 99 dc bc
       -0.0075565632 -0.015673086 -0.010144388 -0.026928522
000020 86 81 41 bc 6e 31 92 bc a7 c9 47 3c 4d a9 a4 3a
       -0.011810666 -0.017845836 0.012194074 0.0012562663
000030 e1 a5 36 3b 54 40 ad bb 85 bd f5 bc 1b 03 e1 3b
       0.0027869868 -0.0052872095 -0.029997597 0.0068668253
000040 66 f6 b4 bc ce a8 90 3c 80 4c b4 ba a6 a9 64 bc
       -0.022090148 0.017658617 -0.0013755709 -0.013956463
000050 cb da 98 3c 24 b9 61 3c 8b 99 18 bb a2 42 be 3b
       0.018659016 0.013777051 -0.0023284878 0.005806283
000060 cd 1b 8d bc 43 60 1a bb 9d 34 97 bc b3 77 64 3c
       -0.01722517 -0.0023555912 -0.018457705 0.013944554
000070 78 62 2d bb 84 0f 82 bc fc 22 72 3c f7 cb 5d bc
       -0.0026456397 -0.015876539 0.014778849 -0.013537399
000080 30 e2 58 bc bd d1 13 bc ef 7d fc bc 07 00 c7 b9
       -0.013237521 -0.0090221735 -0.030821769 -0.00037956258
000090 06 fc bd bc 66 cc 09 bd a1 cc 1d 3c a0 e7 4f 3b
       -0.023191463 -0.033642195 0.009631307 0.0031723753
0000a0 79 22 77 bc 26 5a 08 bd b1 52 6e bc 61 21 a0 bb
       -0.0150839025 -0.033289097 -0.014546082 -0.0048867916
0000b0 fc 0a 8a 3c 4d 8a 5b 3c cd f9 99 3c 99 b3 a3 bb
       0.01685094 0.013399673 0.018795872 -0.004995775
0000c0 0f dd ba bb 8a 12 bb ba c0 ca 93 3b 72 fb 4e bc
       -0.005702622 -0.0014272493 0.0045102537 -0.012633191
0000d0 03 91 79 bc f3 24 62 bc 6e 07 01 bd c9 6a c0 bc
       -0.015232327 -0.013802755 -0.031501226 -0.02348842
0000e0 32 aa e4 bc ba 21 c2 bb 28 9e ad bc 63 e3 2c 3b
       -0.027913187 -0.0059244307 -0.021193579 0.002638065
0000f0 76 f3 69 3b 67 a4 85 3c 1a f0 6d 3c fa 52 d1 bc
       0.0035698093 0.016313745 0.014522577 -0.025552262
000100 a6 54 1d 3b 3f 70 da bc cf 7f 31 bc a3 12 2a bc
       0.0024006753 -0.026664851 -0.010833695 -0.01038042
000110 7e 0a a3 bc d4 7d 38 bd 73 b6 50 bc 5d dd d7 bc
       -0.019902464 -0.045041874 -0.012738812 -0.026350671
000120 a4 dc c0 bc 00 e7 c3 3c dd 71 71 bc f5 48 c0 bc
       -0.02354271 0.02391386 -0.01473662 -0.023472289
000130 98 87 94 3b 4f 01 ff bb 86 4a dd bb e5 3c 4a bc
       0.0045327656 -0.0077821384 -0.0067532687 -0.01234362
000140 de 2a 0d bd ec be ef bc c4 2b 47 bd 24 46 72 bc
       -0.03446471 -0.029265843 -0.048625723 -0.014787231
000150 ae d0 be 3c a0 d2 86 3c e8 33 b6 bc 09 6e c5 bb
       0.023292866 0.016457856 -0.022241548 -0.00602508
000160 aa 4f 0e bc 24 42 ad bb 00 8c d6 ba 9f 29 4d bc
       -0.008685986 -0.0052874256 -0.0016368628 -0.01252213
000170 b7 b6 a6 3c 77 38 4c 3c 04 23 06 3d 47 14 c2 bc
       0.020350797 0.012464634 0.032748237 -0.02369131
000180 80 34 fa bb 98 a1 f8 3c 8f 64 0a bc cc 00 7e 3c
       -0.007635653 0.030350491 -0.008446827 0.01550312
000190 8c f7 97 bb 6e 6c 06 bc e4 56 87 bc 35 ff e4 3c
       -0.004637664 -0.008204563 -0.016520925 0.027953723
0001a0 28 41 05 bd 05 3c 86 bc 0a aa 0b 3c 71 c4 ae bb
       -0.03253284 -0.016386041 0.008524427 -0.0053334762
0001b0 cc 61 18 bc 7d 83 ca ba ee 04 83 bc 5b 8e c9 bc
       -0.00930066 -0.0015450564 -0.015993562 -0.024604013
0001c0 68 b0 77 bc bd b3 80 bc e7 0c 0f bc 0e b3 b5 bc
       -0.015117742 -0.015710706 -0.0087311035 -0.022180106
0001d0 09 5d f2 3c 11 00 e8 bc 9e 08 9a bc 3c 8b 07 bd
       0.029585378 -0.028320344 -0.018802937 -0.03309177
0001e0 88 e9 cb bc dc cc 0c bd 8a 25 00 bd 04 4f 0f 3c
       -0.02489163 -0.034375057 -0.0312858 0.008746866
0001f0 76 5b 2b bc 3f f9 55 bc 77 79 12 3c b4 56 24 bb
       -0.010458818 -0.013059913 0.008940092 -0.0025076093

network_body._body_endoder.seq_layers.2.weight f4 [128, 128]
000000 df 6f 52 bd 4d 84 9a 3d 08 05 d1 3d 3b 03 11 3e
       -0.05137622 0.075447656 0.10206038 0.14161389
000010 51 1b 66 3d cc 82 7d bc d0 6d 07 be 81 91 8a bb
       0.056178395 -0.015473079 -0.13225484 -0.004228771
000020 0d 90 18 3e 6d 7c 2a 3e 47 39 df bd d3 18 51 bd
       0.14898701 0.16649027 -0.10899597 -0.051049065
000030 28 d7 54 be a9 51 22 bc 90 4e 26 3e 17 ca 6d bd
       -0.207852 -0.009907165 0.16240907 -0.058054056
000040 59 a1 05 bc b5 85 90 bd da 59 c0 bd 92 3c 13 bd
       -0.008156144 -0.070567526 -0.09392138 -0.035946436
000050 17 ce 7f bc 5e f9 9e bd 3a 7a 07 bd 55 cf 6d 3d
       -0.0156131005 -0.07762407 -0.03307555 0.058059055
000060 d4 b7 49 bd dd 17 79 be 90 01 18 be 65 55 3b 3b
       -0.049247578 -0.2432551 -0.14844346 0.0028584835
000070 eb c0 a7 be aa 81 90 bc 87 d5 92 3d 94 76 1e 3e
       -0.32764372 -0.017639954 0.07169633 0.15474921
000080 ad 6c 49 bd 0d a4 db 3d 42 0d 16 3d dd 36 ab bd
       -0.049175907 0.107246496 0.036633737 -0.08360074
000090 3c 05 08 be e4 76 56 bd a8 aa fd 3b 8a 12 d5 3b
       -0.13283247 -0.052359477 0.007741291 0.006502454
0000a0 09 a1 b6 bd d2 52 db bd d6 12 25 3d c2 ef 3f bd
       -0.08917434 -0.10709156 0.040301166 -0.04685951
0000b0 15 37 81 be ec 96 c3 3d 40 bc 22 bc a1 53 c5 3d
       -0.25237337 0.095502704 -0.009932578 0.096350916
0000c0 2f 94 22 3e c2 b0 08 be 42 ed 7a bc dc d9 94 3d
       0.1587684 -0.13348678 -0.015315356 0.07268116
0000d0 28 84 85 bd af f0 1c 3e 07 6b f2 3d a9 81 0e bc
       -0.065193474 0.15326189 0.1183682 -0.008697906
0000e0 d7 fe 9a bb d8 eb ed bc de 87 88 bd e7 ee 67 bd
       -0.0047300863 -0.029043123 -0.066665396 -0.05662432
0000f0 28 bf 09 bd 03 16 0e 3e 7b 5d 92 3d 2a a9 04 3e
       -0.033629566 0.13875584 0.07146736 0.12955156
000100 12 02 c0 bd ce 47 84 3d e1 6e 00 bc 43 5c 18 3e
       -0.09375395 0.06459008 -0.007838936 0.14878945
000110 c2 73 13 3e e3 12 c6 3b dc 3c 00 be a3 07 11 3c
       0.14399627 0.006044732 -0.12523216 0.008851918
000120 44 ff e8 bd 44 da 48 bd d5 54 9e 3d f5 9a 5c 3d
       -0.11376813 -0.04903628 0.07731024 0.053858716
000130 b1 0b 17 3d fd ab 77 bd a2 b2 d8 3c 94 ed 18 3d
       0.036876384 -0.060466755 0.026452366 0.037335947
000140 ff c2 2c 3e 7f b2 26 3e ff 07 72 bd 4c 2b dd bc
       0.1687126 0.16279028 -0.059089657 -0.026998185
000150 1f 39 f2 3d bc ac 23 3e ea 19 16 3e 66 f0 03 3d
       0.11827301 0.15983862 0.14658323 0.032211684
000160 66 ee 1d 3e 1c c2 85 3c c9 6a ef bc e0 d2 6a bd
       0.15422973 0.01632791 -0.029225724 -0.057330012
000170 e1 71 03 3e b1 31 57 3e 39 21 b6 bc 0f 11 1e 3d
       0.1283641 0.2101505 -0.022232639 0.038590487
000180 c3 56 d2 bd d6 dd d4 bd 09 9c fd bd 23 ac f5 bc
       -0.10270455 -0.10393874 -0.12383277 -0.029989308
000190 de 02 2e 3c 82 5e 24 be 85 28 0e bc 47 4f 3c be
       0.010620801 -0.16051677 -0.008676653 -0.18389617
0001a0 07 fc 07 bd 43 a1 06 be 8d c1 aa bd b9 51 b8 3c
       -0.033199336 -0.13147454 -0.08337698 0.022499906
0001b0 bc 18 5b bc 6f 8f 23 bc 0b 20 d7 bd da d1 3c bc
       -0.013372596 -0.009982928 -0.105041586 -0.011524642
0001c0 e8 3b 58 bd d7 08 5a 3c 12 47 04 be 9c 2f 1a bd
       -0.052791506 0.013307772 -0.12917736 -0.03764306
0001d0 9c 43 0d be 51 e3 cb 3d 90 ab 49 bc 21 5a db 3d
       -0.13795322 0.099554665 -0.01230897 0.1071055
0001e0 8f 9c 3b 3d ad d2 34 bb 48 53 aa bd 49 f8 1d be
       0.045803603 -0.0027591393 -0.08316666 -0.15426745
0001f0 d5 40 15 bd 25 4b ad 3d e5 0d db bd b3 09 13 3d
       -0.03643878 0.08461598 -0.106960095 0.03589792
000200 a4 77 8e 3c bc 79 16 be b6 46 75 bd 4e 58 1a 3c
       0.017391033 -0.14694875 -0.05988189 0.009420468
000210 fb 00 4b 3d e1 64 2b 3c 62 8f ab 3c 95 44 ae 3d
       0.049561482 0.010461063 0.020942394 0.08509175
000220 6c 6f 1c 3b d1 bd f0 3c b5 63 dd 3d 4c ca 66 bd
       0.0023870124 0.029387387 0.10810033 -0.05634527
000230 41 6d 39 3d a8 9c 4e 3c 60 d2 60 bd a3 b4 d5 bd
       0.04527021 0.012610592 -0.05488813 -0.10434844
000240 42 68 35 bd 3a 6b 55 bd d1 a6 ac bd d9 1d 63 bd
       -0.04428888 -0.052104212 -0.08430255 -0.055448387
000250 37 16 ce 39 80 97 16 be b7 19 21 be 2c e0 cd 3c
       0.00039307933 -0.1470623 -0.15732466 0.025131308
000260 9a 6a e6 3d 9a cd 3a bd 39 d6 23 3c 8b c1 b6 3d
       0.112508014 -0.045606233 0.009999805 0.08923634
000270 47 f5 fc bd 57 53 b8 bd e7 5a dc bd 3c 09 9e 3c
       -0.123514704 -0.09000271 -0.10759526 0.019291513
000280 56 fd 11 be e0 c8 77 3d 99 0e da bc 23 39 9d 3d
       -0.14256796 0.060494304 -0.026618289 0.076769136
000290 06 f7 2e bc e2 dc c9 3d d0 4b 01 3d 07 30 20 bd
       -0.010679012 0.09856583 0.03156644 -0.039108302
0002a0 2d 88 b0 39 aa 76 85 bd 52 7f 7a 3a 80 f9 96 3d
       0.00033670795 -0.06516774 0.00095557154 0.07371807
0002b0 91 de b7 3c 1d 36 ce 3d 77 28 ce 3d da 83 af 3d
       0.022444995 0.10068915 0.10066312 0.085700706
0002c0 22 f0 8d 3d 66 10 88 bd 0d 13 97 bd 2e d5 2e 3e
       0.06930567 -0.06643753 -0.073766805 0.17073509
0002d0 16 50 58 3c ba 79 84 3d f7 2a 18 be 3d b2 96 bc
       0.013202688 0.0646853 -0.1486014 -0.018395538
0002e0 76 7f 4c 3d ea 8b 3e 3e 29 64 6e 3d a9 0d da 3d
       0.049926244 0.1860806 0.05820099 0.10647137
0002f0 ec ff 24 be 83 53 f5 bd 4b 23 57 bd d8 24 98 bd
       -0.16113251 -0.11978819 -0.052523892 -0.074289024
000300 75 8d 5f 3d b7 cf 9d bd 74 10 45 bd 20 68 28 be
       0.054578263 -0.07705634 -0.048111394 -0.1644597
000310 7e 19 30 3d f3 34 6a bc ef 7c 11 be a5 06 39 3d
       0.04299306 -0.014294851 -0.14207815 0.045172352
000320 7c 65 df 3c b4 50 40 be df 6a f6 3c 23 b9 35 3e
       0.027270071 -0.18780786 0.030080257 0.17746405
000330 8e 8a 86 bc 6a 2e 51 be 23 9b 02 3e eb 23 b5 3d
       -0.01642349 -0.20427862 0.12754492 0.088447414
000340 88 4c 11 3e a6 db a0 bd 3f 60 5b bc 1c e5 96 3b
       0.1418935 -0.078543946 -0.013389646 0.0046049487
000350 9b 7b 43 be 52 8d fe bd 89 40 a1 3d e6 e5 29 3e
       -0.1909012 -0.124292985 0.07873637 0.16591606
000360 7b 0e 90 bd 32 a3 e1 bb d7 33 86 bd a9 20 c8 3d
       -0.07034012 -0.0068859095 -0.065528564 0.097718544
000370 4b c3 0e 3a cd fa 1b 3b b3 d4 7b bc cf b2 7d 3c
       0.0005445971 0.0023800612 -0.015370536 0.015484526
000380 3b be 90 3d da e0 34 be c0 f8 b1 3d 90 99 d4 bd
       0.070675336 -0.17663899 0.086900234 -0.10380852
000390 91 a7 88 3d 23 66 85 3d 92 e2 11 3d eb 67 ab bd
       0.06672586 0.06513622 0.035616465 -0.0836943
0003a0 eb 24 7b bd 4e 4f 9c bc 6f c7 7e bd 85 c1 fb 3d
       -0.061314505 -0.019080784 -0.062201913 0.1229277
0003b0 d3 4c 0f 3e 02 78 bc 3d b5 e8 d8 3c 19 bd 15 3d
       0.1399415 0.09202577 0.02647815 0.03655729
0003c0 8c 4d 4c 3c 4a 82 99 3d 95 eb 82 3c 69 95 15 3e
       0.0124696605 0.07495554 0.015981475 0.14607777
0003d0 99 6e d1 bc a6 c5 4c bd 31 91 29 be c8 1d e1 bb
       -0.025565432 -0.04999318 -0.16559292 -0.0068700053
0003e0 ac c0 07 3d 03 64 6c 3d d8 74 86 3d 66 62 0f 3d
       0.03314273 0.057712566 0.06565255 0.03500595
0003f0 81 75 52 be 99 28 0c 3e 73 06 97 bd 0e 6e 1d bd
       -0.20552637 0.13687362 -0.07374277 -0.038435034

network_body._body_endoder.seq_layers.2.bias f4 [128]
000000 ae 5c fd ba e6 28 38 bd 1b ba cb bc 31 fa b3 bb
       -0.0019329989 -0.04496088 -0.024869015 -0.0054924716
000010 c6 da e3 3b e5 98 9a bc 9b 7e 81 bc 4a 79 70 bb
       0.00695357 -0.018871734 -0.01580744 -0.0036693388
000020 04 cb e1 bc ba 8d 04 bc 01 61 67 ba c9 bb 4d bc
       -0.027562626 -0.008090431 -0.00088264054 -0.0125569785
000030 59 6c b9 bc a2 00 30 3c 25 fb 31 bd ce 46 70 bc
       -0.022634672 0.010742338 -0.0434524 -0.014665319
000040 c3 f3 91 bc 8f f7 ec 3c f6 e2 95 3c 4b 1e ca 3b
       -0.01781643 0.028926639 0.0182967 0.006168162
000050 bd 3a 58 bc dd 70 9c bc 79 f8 5a 3c 28 da 22 3c
       -0.013197598 -0.019096786 0.013364905 0.009939708
000060 fe 9e aa bc 08 73 b1 3c f2 09 8d bb 87 df d2 bc
       -0.020827767 0.021661296 -0.004304164 -0.025741352
000070 b1 a8 49 3c ab 18 35 3c 1e 09 3e bc 97 a0 d4 3c
       0.012308286 0.011053245 -0.011598853 0.025955481
000080 68 74 dd bc c5 51 0b 3a 87 b3 64 bc 6b 4c 1a bd
       -0.027033046 0.0005314614 -0.013958818 -0.037670534
000090 54 10 49 ba a6 95 7c bb 3c 79 c7 3c 33 38 cf bb
       -0.00076699746 -0.0038541346 0.024349801 -0.006323838
0000a0 c2 43 c4 bc 24 8b 02 bb 1a 64 84 bc 71 10 31 3c
       -0.02395809 -0.001991936 -0.016161013 0.010807143
0000b0 c4 1a 91 3c ec 6e 17 b9 cd 30 66 bc d8 1b 68 3c
       0.017712958 -0.00014441804 -0.014049721 0.014166795
0000c0 4a af 9f bc 97 92 1b bb 8f 5c 8d 3c f8 8b 3b 3c
       -0.019492764 -0.0023738497 0.01725605 0.011446945
0000d0 82 5f 56 bb 36 a6 dc bc 12 a3 04 bd 02 40 69 3c
       -0.0032710736 -0.026934724 -0.03238208 0.014236452
0000e0 0d c4 a2 bc f1 9b 23 bc af 0b 12 ba 3c d7 a3 3c
       -0.019868875 -0.00998591 -0.0005571199 0.020000093
0000f0 57 2c 20 3c 38 b6 a1 bc b1 3b 4c bc 74 06 83 bc
       0.009776196 -0.019740209 -0.012465403 -0.015994288
000100 9b d4 20 bc d8 3b 03 39 52 1f db bb b6 75 45 bc
       -0.009816314 0.00012515427 -0.0066870833 -0.01205199
000110 e9 2f 4b bb 3a 7c 98 bc 1e 70 d1 bc c8 8b 91 3c
       -0.0031003898 -0.018613923 -0.025566157 0.017766848
000120 83 fb e8 bc d2 30 f2 bc 45 7c 08 3c aa 4a 29 3c
       -0.028440243 -0.029564295 0.008330409 0.010332743
000130 26 33 6b bb 87 4b 24 bc 90 12 fe 3c 13 0e a6 bc
       -0.003588864 -0.010027773 0.03101471 -0.020270383
000140 fc c0 94 3c fb 32 6a 3c cd 3c 24 bd cf ef 8e 3b
       0.018158428 0.014294381 -0.040097047 0.0043620835
000150 b1 8b 0e bc 6c 04 34 bb a2 29 a4 bc b3 3d 17 3d
       -0.008700297 -0.0027468456 -0.020039383 0.036924075
000160 aa 5a ad bc 8d 02 b8 bc 11 5f 85 ba 45 84 8a bc
       -0.021161396 -0.022462154 -0.0010175427 -0.016908774
000170 2f ae 13 bd 16 e9 eb bc e5 10 18 bc a6 74 70 bc
       -0.036054786 -0.028797667 -0.009281372 -0.014676249
000180 7d f5 8e bc 8d ed 15 3b 77 b3 41 bc 9b 97 14 bc
       -0.017451042 0.0022877187 -0.011822573 -0.009069349
000190 b5 72 07 3d d3 44 27 bc 7b b2 da bb fe 11 4d bc
       0.033068378 -0.01020928 -0.0066741086 -0.012516497
0001a0 57 fa a1 bc 55 ce 87 bc 5c c5 05 bd 65 6d f0 bb
       -0.019772692 -0.016577879 -0.03265892 -0.0073372596
0001b0 b7 e3 be 3b bf bf 69 bb 0b 08 88 39 c5 db 80 bc
       0.0058254856 -0.0035667268 0.00025945934 -0.015729794
0001c0 8f 01 e5 bc 49 d3 22 bd 9a 66 90 3c 90 50 89 bc
       -0.027954845 -0.03975228 0.01762705 -0.016762048
0001d0 e5 85 81 3b 51 11 87 3c 70 29 26 3c b1 1d 10 bd
       0.003952729 0.01648775 0.010141715 -0.035184566
0001e0 bd 26 63 3c 7b 53 d3 3a 4e 0c 12 bd 21 cf c3 bc
       0.013864216 0.0016122902 -0.035656266 -0.023902478
0001f0 7f c7 74 bb 0c f7 c1 bc a2 12 0f bc a2 d8 e6 bc
       -0.0037350354 -0.023677371 -0.00873247 -0.02817947

action_model._discrete_distribution.branches.0.weight f4 [3, 128]
000000 1b 25 99 3b e8 cd 3f 3c 94 3d 00 3c e9 85 cb 39
       0.004673613 0.011706807 0.007827181 0.00038818948
000010 d7 90 8a bb b6 73 b1 3c ff d1 b4 3c 33 10 31 bb
       -0.004228692 0.02166162 0.02207279 -0.0027017712
000020 75 ec 51 bb 53 99 c7 3c 07 05 b4 bb 4f 14 3f bb
       -0.0032031809 0.024365103 -0.0054937634 -0.0029156392
000030 42 9a c9 3c 56 b0 d2 b9 83 70 5e 3c 98 3b 72 bc
       0.024609689 -0.00040185702 0.01357663 -0.014784716
000040 90 2d 68 3a 79 16 98 3b 88 61 0b bb 23 ed 45 ba
       0.0008856887 0.004641351 -0.002126785 -0.000755029
000050 5d 7b ad 3c 41 59 0c bb ad 33 fa 3a 13 7d a9 bb
       0.021176988 -0.0021415504 0.0019088887 -0.0051723807
000060 3f e3 6f 3c ca 6a 0e bc f3 43 d3 3c cb 33 0d 3c
       0.014641582 -0.008692453 0.025789237 0.008618305
000070 a5 7f de b8 f0 4f 9f bb a5 74 cd 3c 07 e0 40 3c
       -0.000106095606 -0.004861824 0.025080035 0.011772162
000080 05 55 dc 3c a5 c9 2d bb 78 d9 8b 3c 06 ef 9b 3c
       0.02689601 -0.0026517895 0.01707147 0.019034874
000090 1b d2 c4 3b 63 fb 68 3a d1 e8 ec 3b cb 6d a6 3b
       0.006006492 0.0008887557 0.0072299023 0.0050790063
0000a0 e5 ac d0 3b 95 0f 50 bc e9 0f 88 3b 71 aa cf ba
       0.006368267 -0.012699028 0.0041522873 -0.0015843642
0000b0 f0 60 ce 39 50 2e 06 3c 2f 2f d2 3c b4 5b 0b 3b
       0.00039363606 0.008189753 0.025657265 0.0021264376
0000c0 09 85 ab 3c 56 22 1d 3c ca ec cf ba 65 86 29 3c
       0.02093746 0.009590706 -0.0015863415 0.010346984
0000d0 15 a6 b6 bc 25 3e b1 3c b1 ed a2 3c 79 97 aa bb
       -0.022295991 0.021636078 0.01988873 -0.005206045
0000e0 3f 16 cc 3c ee 86 9f 3b e7 64 23 3d 49 f6 81 3a
       0.024912952 0.00486838 0.03989115 0.0009915318
0000f0 2d 17 89 3c b3 e2 03 3c 2a 20 96 bb 69 8a 57 3c
       0.016734684 0.008049655 -0.004581471 0.013155558
000100 0b 71 c2 39 35 e9 bb 3c 92 c5 79 ba 0d 2d 5f bb
       0.00037086787 0.02293835 -0.00095280365 -0.0034053952
000110 44 d0 40 bc 16 06 5b 3c 5a 47 1e 3c 03 e0 43 bb
       -0.011768404 0.01336815 0.009660566 -0.002988816
000120 99 65 35 bb c1 40 e8 3b e6 ec 78 bb 64 93 8a 3a
       -0.0027678965 0.0070877974 -0.0037983 0.001057249
000130 60 6a 48 3c a6 58 b8 b9 26 58 02 3c c2 c5 30 3c
       0.012232393 -0.00035161263 0.007955587 0.010789337
000140 eb 88 f0 bb 95 f9 85 3c d1 02 8e 3b ec fd ab 3b
       -0.0073405406 0.016354362 0.004333832 0.0052487757
000150 d9 a8 21 bc a6 7c 97 bb 96 82 b3 ba be 0b cc 3b
       -0.009866917 -0.0046230135 -0.0013695534 0.0062269857
000160 d6 ff ee bb 58 83 86 3c e1 5c 99 ba c5 3c 56 3c
       -0.0072936816 0.016420051 -0.0011700654 0.013076012
000170 d2 fd d6 3c 78 99 2e 3c ab d9 09 3c d6 8c 3c 3c
       0.026244078 0.010656707 0.0084137125 0.011508187
000180 65 c2 9a 3c 60 67 67 3c b3 d5 ca ba 1b 11 81 3c
       0.018891523 0.014123768 -0.0015475064 0.015755227
000190 aa 56 60 bb 0b d3 c3 3c 18 5b ae 3c 25 6c 4a bc
       -0.0034231343 0.023904344 0.021283671 -0.012354885
0001a0 5b 08 a3 3c c5 64 00 3b 92 54 88 3a 01 03 c6 b9
       0.019901445 0.0019591313 0.001040118 -0.0003776774
0001b0 27 b5 bc bb fc f1 dd bc 0f ce 00 3c ec 45 7c 3c
       -0.0057588997 -0.027092926 0.007861628 0.01539753
0001c0 f7 51 81 3c 32 9f 35 3c 75 08 96 bb f3 44 cd 3b
       0.015786154 0.011085318 -0.004578645 0.006264323
0001d0 d6 aa e0 bc c9 84 00 bb 11 9a 97 3c 01 21 dd 3a
       -0.02742521 -0.0019610396 0.018506082 0.0016870798
0001e0 72 a9 a5 bb ea c2 20 3c ad 6e 98 3b 06 f3 5f bb
       -0.0050556 0.009812096 0.0046518655 -0.0034171953
0001f0 df 75 94 3c 51 30 c4 bc 25 52 69 3b ad 77 8a 3c
       0.018122612 -0.02394882 0.003560194 0.016902769
000200 b5 9e e4 3b a0 9b 0b bb 5c 5e 0d 3d 4f 95 f7 bb
       0.006976927 -0.0021302477 0.034513816 -0.007555641
000210 df b2 f7 3b b8 e8 47 3c 9c 2b 70 3b 5f ef 87 bb
       0.007559165 0.012201481 0.0036647087 -0.0041484083
000220 36 ad 14 bc 22 55 56 ba a4 b2 48 bb 83 51 23 3c
       -0.0090745 -0.0008176138 -0.0030624056 0.009968164
000230 23 d7 a6 3c 31 ae 5b bc 67 49 37 3b 7b 04 90 3b
       0.020366257 -0.01340823 0.0027967335 0.0043950654
000240 0e 78 ab b9 d2 5e c6 bc 95 1f c1 bc ee 05 05 3c
       -0.0003270511 -0.024215136 -0.02357463 0.0081190895
000250 a6 64 99 3c 19 c0 91 bb d6 66 a2 bc 0b 3c ad b8
       0.01872475 -0.0044479487 -0.019824427 -8.260467e-05
000260 ee 2d 49 3c d1 ea 8b bc 7a 72 4e bc c1 e2 9c 3b
       0.012279017 -0.017079743 -0.0126005355 0.0047877734
000270 2c 9a fd bb e5 7c 3b bc 08 e4 40 3c 1b 55 a8 bc
       -0.007739326 -0.011443351 0.011773117 -0.020548394
000280 8a 13 d0 3c ca d7 fa 3b 38 a0 08 3a 3c c6 72 ba
       0.025399942 0.0076551186 0.0005211863 -0.00092611066
000290 51 4f e3 bb 81 26 a3 3c 06 ee c8 bc e9 83 dd 3b
       -0.0069369455 0.019915821 -0.02452756 0.0067601097
0002a0 90 d4 bf 3c 45 d8 f8 3a 27 0c cb 3c 85 15 1a bc
       0.023416787 0.0018985352 0.024786068 -0.009404545
0002b0 78 8d cf bc a2 bc 03 bb 92 ae 94 3b c1 fd 9b bc
       -0.025336012 -0.0020101448 0.004537412 -0.019041898
0002c0 27 4b a2 3c b3 65 f6 bb ee 43 c8 37 c0 5a af ba
       0.019811226 -0.0075194477 2.387349e-05 -0.0013378486
0002d0 36 bf a4 bb ec 64 28 3c 15 0b fc ba 28 cd 5f bc
       -0.005027677 0.010277968 -0.0019229377 -0.013659753
0002e0 e4 15 e4 3b 68 4a 15 bb cc ba cb bb bc 35 77 bc
       0.0069606174 -0.0022779945 -0.0062173363 -0.015088495
0002f0 cd 58 58 bc 77 bd e4 3c c6 09 9c 39 a4 16 07 3c
       -0.0132047655 0.027922375 0.0002976192 0.008245144
000300 2a 5f a4 bb b2 b6 9f bc 69 47 4b bc 2a 13 5c bb
       -0.0050162273 -0.019496296 -0.012407162 -0.0033580759
000310 93 9e 4c 3c 4d f9 68 bb ef 88 64 3c f3 a7 02 bd
       0.012488979 -0.0035548985 0.013948663 -0.03189845
000320 bd 48 1b 3c 2c d7 e0 ba c3 27 8b bb cf 2e 94 bc
       0.009477791 -0.001715397 -0.0042466833 -0.018088726
000330 9a fe b5 3c 98 56 9d bb ee 4e d7 bc 95 9f ef 3c
       0.02221613 -0.0048015825 -0.026282754 0.0292509
000340 b9 c8 ef bc 11 11 55 bd 83 0c 80 3c 0a d2 a3 3a
       -0.029270517 -0.05201823 0.015630966 0.001249851
000350 ba 04 69 bb 1c 95 18 bc 80 1d bd 3c 00 93 1a bd
       -0.0035555796 -0.009312894 0.023085356 -0.037737846
000360 3a 52 08 3d fe 39 e7 3b d1 3c 31 ba 3c 04 45 3c
       0.033281542 0.0070564738 -0.00067610765 0.012024935
000370 d6 c3 17 3d 9f ca 72 3c 66 a8 3c 3c e5 a4 ca 3c
       0.037051998 0.014818816 0.011514759 0.024736831
000380 7c f5 72 3c 7d db b8 bc ea 42 d7 3a 82 24 6b 39
       0.014829036 -0.022565598 0.001642314 0.00022424947
000390 79 35 d4 bc 82 59 53 3b c3 d3 dc 3c 89 8e 06 3d
       -0.025904404 0.0032249396 0.026956445 0.032850776
0003a0 0c b0 13 3d e0 20 e6 bb ce f8 ee bb b1 d4 c2 3c
       0.036056563 -0.007022962 -0.0072928434 0.02378306
0003b0 91 37 8f bc 3f 4d 97 bc 58 6c ce 3c 48 38 08 3d
       -0.01748255 -0.018469451 0.025198147 0.0332568
0003c0 85 18 d9 3c b1 1a bd 3c 14 c0 e8 bc aa 08 b6 3c
       0.02650095 0.023084017 -0.028411902 0.022220928
0003d0 95 f9 89 ba 88 8d a5 bc 30 df 81 bc 8c dd 57 3c
       -0.0010526652 -0.020209089 -0.015853494 0.0131753795
0003e0 33 bc 73 bc b6 9d 84 bc 66 f2 93 bb e8 46 b1 3b
       -0.014876413 -0.016188484 -0.00451498 0.005410064
0003f0 70 ce 01 39 0c 3e e7 3b 44 6a 10 3d 9b 68 01 3d
       0.00012379303 0.007056957 0.035257593 0.0315939

action_model._discrete_distribution.branches.0.bias f4 [3]
000000 9f e2 d0 ba 98 ae 69 bc e0 0e 73 3c
       -0.0015936679 -0.014262818 0.014835089

onnx::Div_52 f4 [4]
000000 70 f9 2b 3b c7 16 33 3f 6b 3c 6e 3f 35 26 39 3f
       0.0026241206 0.6995663 0.9306094 0.72323924
