PFG-GAME/config/results/train05/DifAgent.onnx (onnx, 74428 bytes, 6 tensors)

network_body._body_endoder.seq_layers.0.weight f4 [128, 1]
00000000: 663b 68bd 2cd3 0c3d e5bd c2be a98d 89bf
00000010: 9286 42bf 277d 8f3f e917 62bf 9825 d63f
00000020: 978b 793f aa78 b3bf 07c8 833f 0c76 51bf
00000030: dfca 183e a6fe 94be ce41 0340 b53c 8abf
00000040: 6b38 bebf 01bd 0840 073c a73f d037 fabe
00000050: 0cf9 0a3f d8bc 48bf 5832 1b3f d519 853e
00000060: 70f2 76bf 64e4 a9bf 3cef 3a3f 683a e13f
00000070: b5ba e4bd ff06 b53f dfce ba3f 2686 e33f
00000080: ee22 efbe 0b8b 1a3f 35c1 653f d377 4f3f
00000090: 3431 89bf abd0 94bf a1f3 ae3f 67f7 fa3f
000000a0: 5335 863f 1354 83bf 8d20 d9bd b15d 20bf
000000b0: a1b5 5abf 0813 2fbf 14a2 02c0 1169 273b
000000c0: 987e efbf c6a2 87bf 6968 86be de0a 43bf
000000d0: ecbe 763e ab57 383f a026 2fbf 9345 33bf
000000e0: 0b55 e63e f981 723e 0c43 813e 424c bd3f
000000f0: b081 8d3f 6fe3 7abf 7f69 3bbf 9a53 693f
00000100: 02f6 b0bc d0da 123f ad44 ca3e ce63 003f
00000110: e3ef 21bf d7b8 22be 4864 943d 6eec c8bf
00000120: b292 1bbf 2f7f 16bf fced 9fbf 0fc6 103f
00000130: 1960 503f 17f7 dc3d 2fc2 b0bf 2313 9bbf
00000140: c0f7 903b ce10 30bf d4e2 143e 8da1 04bc
00000150: 5022 31be cbe1 0bbc 495b f3bf 3fe4 5b3e
00000160: 7479 0740 cc68 0040 4de5 00bf a7c5 0fc0
00000170: b45a 55bf 0d8f 253f 6372 cbbf e954 083e
00000180: ecbc 533f cb2a 6d3f 7821 24bf 1c8b 9cbe
00000190: 04d6 563f 8be9 933d 571a 933e 212d 9c3e
000001a0: aa41 243e fb14 dcbd 1c29 503f c721 133f
000001b0: eec9 753f 381e 33bf 7cc3 3c3e 2e33 42bf
000001c0: 6538 553e f65a 73be 5c4c c1bf dc35 5e3f
000001d0: 9558 173e e5dc 2b3f 682c bd3f 259c ad3f
000001e0: 1910 e23e c103 c83e 9c9a 8ebf efee cc3e
000001f0: 3587 30bf f71e 8abf d308 b9bc e35d adbd
-0.05669727 0.034381077 -0.38035503 -1.0746356 -0.7598659 1.1210068 -0.88317734 1.6730223
0.9747862 -1.4021199 1.0295419 -0.8182075 0.14921139 -0.2910053 2.0508914 -1.0799776
-1.4860967 2.136536 1.3065194 -0.48870707 0.54286265 -0.7841315 0.60623693 0.2599627
-0.9646368 -1.3272824 0.7302129 1.7595949 -0.11168424 1.414276 1.4594382 1.7775314
-0.46706337 0.6036841 0.89747936 0.8104221 -1.0718141 -1.162618 1.36681 1.9606751
1.0485023 -1.0260032 -0.10601912 -0.6264296 -0.85433394 -0.68388414 -2.0411425 0.0025544802
-1.8710508 -1.059655 -0.26251534 -0.76188457 0.24096268 0.7200877 -0.6841831 -0.70028037
0.44986758 0.23682393 0.25246465 1.4788897 1.1055202 -0.98003286 -0.7320785 0.9114319
-0.02160168 0.5736513 0.3950552 0.5015229 -0.63256663 -0.15890823 0.0724569 -1.5697153
-0.60770714 -0.58787817 -1.2494502 0.56552213 0.81396633 0.10789316 -1.380926 -1.2115215
0.0044240654 -0.6877564 0.14539653 -0.008095157 -0.17298245 -0.00853772 -1.9012233 0.21473788
2.116788 2.0063963 -0.50349885 -2.2464387 -0.83341527 0.64671403 -1.5894283 0.1331364
0.82710147 0.9264342 -0.6411357 -0.30574882 0.8392031 0.07222279 0.28731033 0.3050318
0.16040674 -0.10746189 0.8131273 0.57473415 0.96011245 -0.69967985 0.18433946 -0.75859344
0.20822294 -0.23765168 -1.5101428 0.8680093 0.14779885 0.67133933 1.4779177 1.3563277
0.44152907 0.39065364 -1.1140933 0.40026042 -0.6895631 -1.07907 -0.022587216 -0.08465173

network_body._body_endoder.seq_layers.0.bias f4 [128]
00000000: 0fd1 2e3e f04e 363e 12d0 3a3d ed92 1c3c
00000010: 5a07 16be b8f9 1cbe b6db 9cbb 8e58 f3bd
00000020: 2b87 bb3d 72d2 c03d 99a3 1fbe d563 dbbd
00000030: a08a 363e 7be6 69be d97b 943e 0433 4d3d
00000040: 9055 bf3d 2e24 30bd 85ad e53c 5b9c 76be
00000050: 9dcc b93d d0f5 fdbd fee9 27be 894b 2bbe
00000060: 14b2 27bd e90f 6d3d bfd9 f2bd 83db 4cbd
00000070: af01 133e 2202 193d ca4e 533e 89c7 1b3e
00000080: b2fb 79be 890e 4abe c904 2fbd 1e92 293e
00000090: 2f28 4ebd 6d0f 0b3d 39ee 30be b5b7 86bd
000000a0: ef84 6dbd 1a67 9dbc f0fc 243e 91fd 67be
000000b0: 114a 83bd 2247 bfbd e186 a23d 23b3 40be
000000c0: 0dc5 da3d 1889 cd3c a878 933d 5c0e 0ebe
000000d0: 70c7 413e e859 d1bd cc33 1ebe 4b2d 883c
000000e0: d428 2ebd 3c14 163e 1056 0c3e b019 e3bd
000000f0: 1694 06be 6ecb 99bd 94c7 1ebe 7b57 1abe
00000100: 1690 41be dfbf d03d 3101 a4bd 3c13 86bd
00000110: f8cb 66be b6f1 483e 01a0 2b3e cfdd cf3d
00000120: 0088 88be c19c 89be 2d9d 433d 79ae 8bbd
00000130: 9b68 833d ffa2 24be c60d 9e3d 2e90 b53d
00000140: 40f5 1bbe 61f9 e7bd 8f56 073e d43b 4b3e
00000150: 5ecb 43be c73a 3c3e 53eb c33d 1894 17be
00000160: 2327 7f3e b024 7e3e ece5 44be 2a34 a33d
00000170: c305 0abe ca39 19be 0412 d43d d336 2b3e
00000180: 02a0 7d3d a21c e5bc 0d77 57be 32ea 81bd
00000190: ca73 54be 75c3 2abe 933e 17be 953a 18be
000001a0: 237f 13be 9f24 c33d 0c79 43be ba96 febd
000001b0: 261a 4dbd 5e24 54be 1329 e0bd ae8a 39be
000001c0: e9a3 15be b60a 78be 4b76 df3d e96b 40be
000001d0: da5b c7bd 5ca4 71bd 2f43 2abe ba41 65be
000001e0: 3d25 3abc 9f3c a7bc 3c8d b13c 8ee6 1f3e
000001f0: 15e5 bbbd 301b 8cbc f6cf 383e dcbc 443e
0.17071937 0.1780355 0.045608588 0.009556514 -0.14651242 -0.15329635 -0.004786934 -0.11882125
0.091566406 0.09415139 -0.15589751 -0.10712401 0.17826319 -0.22841828 0.29000738 0.05009748
0.093424916 -0.043003254 0.028036842 -0.24083082 0.0907223 -0.12400401 -0.16397855 -0.16728033
-0.040941313 0.0578765 -0.11857938 -0.05001403 0.14356111 0.03735555 0.20635524 0.15212835
-0.2441242 -0.19732107 -0.042729173 0.16559646 -0.05033129 0.033950258 -0.17278375 -0.06578008
-0.057988103 -0.019214202 0.16112113 -0.22655322 -0.064106114 -0.093397394 0.07935882 -0.18818335
0.10682116 0.025089785 0.07200748 -0.13872665 0.18923736 -0.102222264 -0.15449446 0.01662316
-0.042519405 0.14656156 0.13704705 -0.11088884 -0.13142428 -0.07509504 -0.1550582 -0.15072434
-0.1890262 0.101928465 -0.0800804 -0.065466374 -0.22538745 0.19623455 0.16760255 0.101497285
-0.2666626 -0.26877406 0.047757316 -0.068203874 0.06416436 -0.16077803 0.07717471 0.08865391
-0.15230274 -0.11326862 0.13216613 0.19847041 -0.19120547 0.18381797 0.09566369 -0.14802587
0.24917273 0.24818683 -0.19228333 0.07968934 -0.1347876 -0.14963451 0.10354999 0.16720133
0.061920173 -0.027967755 -0.21041508 -0.06343497 -0.20747295 -0.16676123 -0.14769964 -0.14866097
-0.14403968 0.09528469 -0.19089144 -0.124310926 -0.050073765 -0.20716998 -0.10945334 -0.18119308
-0.14613308 -0.24222836 0.109112345 -0.18791164 -0.09734316 -0.058994636 -0.16627191 -0.22388354
-0.011361417 -0.020414649 0.021673791 0.15615293 -0.09174553 -0.017102808 0.18048081 0.19212669

network_body._body_endoder.seq_layers.2.weight f4 [128, 128]
00000000: 1301 90bd 2c1c 7abe 80d6 103d cd40 25be
00000010: c12c 23bc d3c4 ab3c fae2 a2bc 5e2a fdbc
00000020: f918 013d 18c8 153d faa2 133d 1970 d83d
00000030: 29ca 193d 18f1 4cbc dc78 023e f1ca 763d
00000040: 50fb c9bc 3ea9 a13d 292a febd bb5f 263e
00000050: 883b 02ba 34f8 dabd 6064 ba3d 0d86 163e
00000060: 6792 5cbb ff01 d63d 8987 323e 4c41 dabc
00000070: 2339 d6bd 323f 253e 842b bd3d 3804 783d
00000080: bef2 8e3d 4d57 da3d bf34 b73d f849 d43c
00000090: 4958 213e 3a3c 5ebd 9980 9ebd 63f8 db3d
000000a0: 449c a3bd ac47 f33c 5bac 84bc d23b 98bd
000000b0: 8092 c9bd de67 31bd 41e4 983c 027a 823d
000000c0: 9caf 1e3d f36e 693e 34f7 093d 5eb8 25bd
000000d0: b03b 05b9 3661 56bd 5bad e9bd 38ed c83a
000000e0: 7908 463d 22c3 e93c 8d92 d3bd 2f56 5a3d
000000f0: a616 983d 927a fc3d a7c8 37bd e396 df3b
00000100: 80e0 fe3d e588 2c3d 22d9 d0bc 9370 c73c
00000110: 1cb6 f33d 9953 35bd ca3b 533b 6393 a53d
00000120: 74dc 313e cc1f 033c 6f14 c43d f7d5 a63d
00000130: d53d 9e3d a3fe 503e 5645 463e 8953 6f3e
00000140: 4897 8f3d c4c5 303e 1233 9a3d c8e0 79be
00000150: fd7e c13d 5052 89be 3ada c3bd 26c2 36bd
00000160: a652 0abd 38a8 1dbe 863f 1a3e 9d81 31bd
00000170: 17e9 123e 2bdd 6f3b 84cf 6e3d a97b 01be
00000180: ad3c c93d 91e0 ff3d d11a db3c 79d8 02bd
00000190: 5f36 84bd 1929 153e 4f87 793e 73e5 273e
000001a0: dfa3 06be bbc8 bbbd 0b69 a63d bf99 a9ba
000001b0: ca02 213e 8414 053d 973f 9f3d 5e54 c03d
000001c0: f718 99bc 77cc e9bd 7756 3a3b 2d05 0bbd
000001d0: 7786 1c3d 90ce e83d 16b3 2e3d 84bd 07bd
000001e0: ddf4 afbd 28ca bf3d cd7a 38bc 6a96 b0bd
000001f0: 3b24 7a3c e4f3 aa3d 787f 3abe 9f6b c1bd
00000200: ca1f 833d 0c63 293e 8cc2 793c 4991 0ebd
00000210: c8b3 383c 27c0 f4bd c57f 0cbd e8cc e23c
00000220: 1ae8 ac3c 782b 40ba 9e44 27be 2daa 153e
00000230: 2011 283e 14b1 15bd e239 02bd 5dd5 c7bd
00000240: cdc7 6a3d 5f8a 9dbd 6945 433d 08b3 ae3d
00000250: 795a aa3d 385a 08bd e666 753b 32e3 90bd
00000260: 8455 83bd e9c9 923c 879b fbbd 02db eebc
00000270: 849e 38bd 344e fdba fbac 1e3e c9e0 73bc
00000280: 0b5d ce3c ab0a d7bd 59e1 0e3e 1a4b 0abe
00000290: 9f36 86bd 1cbc bdbd df44 e13c 0fc2 80bd
000002a0: 720d 513d 5417 20bc c5ed 043e 4a6e 58be
000002b0: 70dd 93bd d048 af3c e3da bb3d c2b0 cebe
000002c0: e552 cf3d e228 8d3c cbe8 753d 7789 80bc
000002d0: 1c85 003e efd1 1abb 07f6 053d 5728 cfbd
000002e0: 4fd9 e7bd e9b9 183d 6169 c3bc 3d3e 023e
000002f0: fb2c 163e 3ec1 79bd f314 873b 12d4 493d
00000300: 6ce2 b7bd f54c cfbd 103a 0d3d 894e 023e
00000310: f155 4abd 2935 1a3e b7c4 d43b 4236 213e
00000320: 6290 67bd dcb1 8cbe 5827 69bd 06da 743d
00000330: e312 1bbe fad0 65be 7b01 98bc 4757 5d3d
00000340: fb76 3fbe 3de8 443d 0142 e53c 4db1 233e
00000350: fa4c 76be 77f7 433e 36d2 953d a507 a03c
00000360: e6ec c23c d037 43bd 3d23 e1bd d02c fe3b
00000370: c53e 13be 5b1c 5abe f730 14bd 6cad 0cbc
00000380: a869 083d f739 f1bc 4c52 91bc 0930 d3b9
00000390: b231 41bb 58c8 76be a3f1 80bd 4a6e db3d
000003a0: b905 6dbd 9d5b bc3c 160f 33be ec3a 6f3d
000003b0: 5aa7 e43d 2fc3 0fbe 76d2 b7bd 0396 2dbe
000003c0: c31c 123e 053d 42be 39bd 95bd e2f6 2ebe
000003d0: 6c31 8f3d e217 5b3d 99e1 6abc d0d6 8c3d
000003e0: 9f92 b83d d711 f03d 6d99 64be 05a0 01be
000003f0: 360d 803d 083f 1e3e 35f4 543e 31cd 4b3d
-0.07031455 -0.24424809 0.035360813 -0.16138001 -0.009959401 0.020967877 -0.019883621 -0.030903991
0.031517956 0.036567777 0.0360441 0.10568256 0.03754631 -0.012508653 0.12741417 0.060252134
-0.024655968 0.078936085 -0.12410385 0.16247456 -0.00049679773 -0.10691872 0.09101176 0.14699574
-0.0033656599 0.104495995 0.17434515 -0.026642464 -0.10460117 0.16137388 0.092368156 0.0605509
0.06979893 0.106611826 0.089456074 0.025914177 0.15756334 -0.054256655 -0.07739372 0.107407354
-0.0798879 0.029697262 -0.016195467 -0.07433285 -0.09842396 -0.043311946 0.018663527 0.063709274
0.038741693 0.2279623 0.033683017 -0.04045903 -0.00012706104 -0.0523388 -0.11410018 0.0015329486
0.048347924 0.02853543 -0.10330687 0.053304847 0.07426195 0.12328066 -0.04486909 0.006823407
0.12445164 0.04212274 -0.025494162 0.024345672 0.11899969 -0.044269178 0.0032231682 0.080847524
0.17369252 0.008003186 0.0957421 0.08146279 0.07726637 0.20409636 0.19362387 0.2337171
0.070112765 0.17262942 0.07529272 -0.24402153 0.09448049 -0.26820612 -0.09563108 -0.044618748
-0.033770226 -0.15396202 0.15063295 -0.0433365 0.14346729 0.0036600332 0.05830337 -0.12644829
0.09826026 0.124940045 0.026746185 -0.031944726 -0.06455683 0.14566459 0.24368022 0.16396122
-0.1314845 -0.09169146 0.08125504 -0.0012939497 0.1572372 0.03249027 0.07775801 0.09391092
-0.018688662 -0.11415952 0.0028432885 -0.033940483 0.038214173 0.11367524 0.04265126 -0.03313972
-0.08591626 0.0936473 -0.011259747 -0.08622439 0.015267427 0.083473 -0.18212688 -0.09444355
0.06402548 0.1654169 0.0152441375 -0.034806523 0.011273332 -0.11950713 -0.034301538 0.027685598
0.021106768 -0.0007330696 -0.16334769 0.14615698 0.16412783 -0.036545828 -0.031793483 -0.09757493
0.05731945 -0.07692408 0.047673617 0.08530241 0.083180375 -0.033289164 0.0037445365 -0.07074584
-0.06412795 0.017918544 -0.12285524 -0.029157165 -0.045073047 -0.0019325675 0.15495674 -0.014885136
0.02519085 -0.10500082 0.13953151 -0.13505211 -0.06553387 -0.09264395 0.02749866 -0.06287014
0.051038213 -0.009771187 0.12981327 -0.21135822 -0.0721997 0.021397024 0.09172609 -0.4036923
0.10123233 0.017231409 0.06003646 -0.015690548 0.12550777 -0.0023623665 0.032705333 -0.10115116
-0.11320745 0.037286673 -0.02385396 0.12719055 0.14665596 -0.060975306 0.0041223704 0.04927451
-0.089787334 -0.101221 0.0344792 0.12725271 -0.049398366 0.15059341 0.006493177 0.15743354
-0.05653418 -0.27479446 -0.056922287 0.059778236 -0.15143923 -0.22443 -0.018555393 0.054038312
-0.18697731 0.048073042 0.027985575 0.15985604 -0.24052802 0.19137369 0.07315485 0.019534895
0.023794603 -0.04766065 -0.10993049 0.007756807 -0.14379413 -0.21299879 -0.03617951 -0.008586269
0.033303887 -0.029446585 -0.017739438 -0.00040280845 -0.0029479084 -0.24099863 -0.062960885 0.10714395
-0.057866786 0.022992903 -0.17486224 0.0584058 0.11164732 -0.140393 -0.08975689 -0.16951756
0.14268784 -0.1896859 -0.07311482 -0.17086366 0.06991848 0.053489573 -0.014336013 0.0687691
0.09012341 0.11722153 -0.22324152 -0.12658699 0.0625252 0.15453732 0.20796283 0.049756233

network_body._body_endoder.seq_layers.2.bias f4 [128]
00000000: 8bde f1bd 8d85 213e 175b 3c3e e676 1ebe
00000010: f358 a9bd af49 26be 3575 a13d e4f0 d2bd
00000020: f0ec 94bd 1e25 1fbe 5ff9 43be ce5b 483e
00000030: 47f8 20bd 4150 a7bd 1328 73bd be50 e7bd
00000040: 9922 f5bd 0c5f 1bbe 06e6 76bd aefa d8bd
00000050: 4540 d23c 1620 343e 5d5d 0f3e 0217 babd
00000060: 9975 1ebe 9645 883d 9e79 2bbe 1eed 0cbe
00000070: a829 30be 14f7 333e dd0a 383e 2eab 253e
00000080: 5653 ecbd b9cd d7bd 8b54 093e 1955 f83d
00000090: bf10 4abd 1760 adbd 5879 37be 9008 2b3e
000000a0: 889a 37be b3ac d23d 40ae a23d c9da eebd
000000b0: 29bd e0bd cb1b ae3d 9f81 e3bd 4ed1 073e
000000c0: aa53 ecbd c06d a4bd d4f8 aebd 7148 1abe
000000d0: 5c12 a5bd 7940 d8bd 947d aabd c6d8 ffbd
000000e0: 46b0 0c3e a128 373e 13d8 3abe 1361 fb3d
000000f0: e002 b23d 8b97 373e 7bd2 20be dbc9 39be
00000100: 1dac 5f3e fa5f f4bd fbc2 bf3d a780 b7bd
00000110: a630 ddbd f4d6 8c3d 432f 583e aa0f ecbd
00000120: 3766 af3d 8fd9 a23d 67cb e83c c335 21be
00000130: 9926 403e 6eeb d0bd 70f2 22be d9f0 e5bd
00000140: 4c77 8f3d b41a 2f3e 4b5a c1bd 0953 623e
00000150: d06d 9a3d ef22 bfbd d6a2 483e 03ad fbbd
00000160: 1cd8 cfbd 8176 ecbd 2943 183e 0057 e4bd
00000170: f4fe d3bd 7554 9d3d 3cf3 3dbe 9c75 403e
00000180: 622b 06be 1788 f8bd 4dce 3b3e 0556 03be
00000190: 0a18 10be ba3c e9bd bf61 2c3e b141 813e
000001a0: 6fb7 333e a612 2fbe c849 e3bd 6592 433e
000001b0: c6de 0e3e b87c 2ebe 5dd7 fdbd f4da e23d
000001c0: 87cb e13d 0787 78bd 1918 463e d544 5d3e
000001d0: b708 f8bd 2d73 27be c836 d2bd 2345 60bd
000001e0: 6b51 a6bd 034d 0abe 53dd fabd a779 483e
000001f0: a21d 0a3e eb52 f2bd 8dec ff3d 9057 3cbe
-0.11810025 0.15773602 0.18394123 -0.15475044 -0.08268919 -0.16239046 0.078836836 -0.102998525
-0.07271755 -0.15541503 -0.19138096 0.1956627 -0.039299276 -0.08169604 -0.05936439 -0.11294697
-0.119694896 -0.15172976 -0.06027796 -0.10594688 0.025665412 0.17590365 0.14000459 -0.0908642
-0.15474547 0.066538975 -0.16745612 -0.13762328 -0.1720339 0.17574722 0.17972894 0.16178581
-0.115393326 -0.10537285 0.13411157 0.12125606 -0.049332377 -0.08465593 -0.17917383 0.16702485
-0.17930043 0.10286846 0.07943392 -0.11662824 -0.109735794 0.08501395 -0.11108708 0.13263437
-0.11539395 -0.08028746 -0.08543554 -0.15066697 -0.080601424 -0.10559172 -0.083247334 -0.12492518
0.13739118 0.17886592 -0.18246488 0.12274375 0.086919546 0.17928903 -0.15705292 -0.18143408
0.21843 -0.119323686 0.093633614 -0.08960085 -0.108002946 0.068769366 0.21111779 -0.11526425
0.08564418 0.07951652 0.028417302 -0.15743165 0.18764724 -0.10201155 -0.15912795 -0.11227579
0.07005176 0.1710003 -0.0944105 0.22101988 0.07540476 -0.09332835 0.19593367 -0.12288859
-0.101486415 -0.1154604 0.1486937 -0.111494064 -0.10351363 0.076821245 -0.18549818 0.18794864
-0.13102487 -0.12135332 0.18340416 -0.12825783 -0.1407167 -0.11388536 0.16834162 0.2524543
0.17550443 -0.17096958 -0.11098057 0.19098814 0.13952169 -0.17039764 -0.12394593 0.11076918
0.11025148 -0.060675647 0.1934513 0.21608289 -0.12111037 -0.1635253 -0.10264355 -0.054753434
-0.08120998 -0.1350594 -0.122492455 0.19577657 0.13487867 -0.118322216 0.1249629 -0.18392777

action_model._discrete_distribution.branches.0.weight f4 [3, 128]
00000000: c63c fbbc 32f0 8a3d c2a5 d63d ab0c 54bd
00000010: 61e6 55be 5f97 b9bd eeef 7e3d e50c 63be
00000020: a84e 35be 4512 8ebd 44b5 27be e35a 153e
00000030: 8dab 1dbd 3d15 cabd 41cb 1bbe ba18 5cbe
00000040: 5a05 31be 9387 c3bc 5769 c7bc b6e4 66be
00000050: 8f97 6b3b 5097 c73d 668f 4d3d 0cf6 63be
00000060: 39d0 e8bd d57c 563d ce30 9cbd f8bc 1bbe
00000070: 787e 79bd 43b5 9d3d bb31 993d 6b53 ba3d
00000080: 5aa0 5cbe 9519 6dbe bb96 af3d 9c50 453d
00000090: 013b a8bc 81fd 67be 5c40 f4bd d1a3 af3d
000000a0: 1d10 0abe d6b7 533d 1c96 8e3d 9c2e 5abe
000000b0: 11fc 38be b341 b53d f742 70be 2255 8b3d
000000c0: c12f 6bbe 6218 f8bd 861b 62be b869 b2bd
000000d0: 188f 29be b3c7 56be 5b3b 62be 5c28 95bd
000000e0: 9af6 833d ed70 0a3e b28f 27bd a615 6e3d
000000f0: e1ce b23d abeb e63d a57a 87bd 1f7d 9dbd
00000100: 60bb 1f3e 0a49 6abe 1923 f53c 8b3a a5bd
00000110: 13df 63be 2993 353c 7303 f03d 0bc9 60be
00000120: 5700 ac3d 698c 8c3d e0db a63b 65d7 3bbd
00000130: 5fad cb3d 7876 15bd af3b 81bd 2814 68be
00000140: ba7e 8c3d 4023 ba3d fe67 6ebd 17d5 023e
00000150: 68c3 493d 7a15 63be 14cc c13d 8906 62be
00000160: f882 77be 4c4e 4fbe ad3a 803d 322d 71be
00000170: da9e 60be 0f94 313c 15de c0bd b06b 063e
00000180: f80e 41bd c395 d4bd 3148 b03d 5721 40bd
00000190: 0ce3 43bd 3ac8 6abe d845 af3d ae6c 2b3e
000001a0: 9ef2 ca3d 63fb 1ebe 35c8 71be 9dcd c33d
000001b0: ef1e 7d3c 466e b9bd 0fd1 1cbd bf22 883d
000001c0: 5dd7 f83c 361c 1fbe 85ce 043e cf99 063e
000001d0: 49a4 6cbe c772 a1bd f526 68be b05f 48be
000001e0: 2afd 6ebe 71c0 67bd 8bfa 64be 2c57 0d3e
000001f0: 5098 633d 282e 53be b2d3 5e3d cf40 1bbe
00000200: 5e88 75bc 93ae 85bd c156 d4bd 2e5b b0bc
00000210: b542 133e 86d2 32bc 6a22 47bd c9ed f63d
00000220: f92b a63d 0217 71bc ae5a b13c 5c15 08be
00000230: aa88 9c3c 3611 7d3d d01c 713d 73f0 003e
00000240: 4abe e53d e6e2 ebbc e4d3 71bd f2d3 043e
00000250: ce66 f6bc befe cfbd ddbb 4ebd eb3f 013e
00000260: 00fa aabb 4fa5 27bd 4e9f a1bc a344 a73b
00000270: cb09 14bd 7f92 9bbd 4509 83bd 6a1d 8dbd
00000280: d46f f93d 01d1 db3d 05f7 1abd a322 11bd
00000290: c28d f73b d403 053e bc47 21bc e015 a7bd
000002a0: d352 d238 6247 20bd 66e1 24bd 2c67 f33d
000002b0: c7cf b83d 10c0 54bd 1e1f 073e 5981 67bc
000002c0: 2b50 f03d 7f3b aa3d 7d7a 113e 3810 90bc
000002d0: 9e41 c33d c0c5 f03d d70d 013e 2f15 61bc
000002e0: 30e5 51bd 6802 c9bd e312 d8bc 1c6e 56bc
000002f0: 361f 6dbd 3106 a9bd c60b 6fbc 1970 293b
00000300: 68d9 03be 160e f43d 2149 c2bc 37e7 a2bc
00000310: 8735 f93d cc69 43bc 1d18 b4bd 90a0 083e
00000320: 44b1 72bd 7754 20bd 2430 6abd 869f 02bd
00000330: 9384 b4bd 38ca 0dbd 8dac 5bbc 264f f33d
00000340: 6ce1 24bd 0c8f 90bd 072d 1bbd 58dd c5bd
00000350: 4593 55bd 3334 083e 48cf a7bd be6d f23d
00000360: 07e9 0b3e 8ff8 063e d660 2fbd 37b7 0a3e
00000370: 4e05 043e c37d 43bd a36b 59bc f8ad 01be
00000380: e7b4 07bd e9e5 943d 1c05 7ebd 9bca 04bd
00000390: 47bc debc e8e5 e23d 4e45 bebd 5b89 f4bd
000003a0: 870d b5bd e8eb 153b 2ef8 e93d 1c12 a8bd
000003b0: 97fc afbc 62b5 ffbc f697 f2bc b6ed 1dbd
000003c0: 036f 36bd a478 c53d 7a47 c6bd f33b bfbd
000003d0: 9e49 f13d 97ba e4bc e2fc 073e 2fe8 b83d
000003e0: fe7e 043e 248a 1dbd 368d fc3d fb7e cebd
000003f0: 9564 4bbd e2ef 073e 38c6 5bbd 949c 513c
-0.030668627 0.06784095 0.104808345 -0.051769894 -0.20888664 -0.09062075 0.062240534 -0.22172888
-0.17705786 -0.069370784 -0.16377741 0.14585452 -0.03849368 -0.09867332 -0.15214254 -0.21493807
-0.17287198 -0.023868358 -0.024342222 -0.22548184 0.003594849 0.097456574 0.050185584 -0.22261828
-0.1136784 0.052365143 -0.07626496 -0.15208805 -0.060911626 0.077005886 0.074801885 0.09097942
-0.21545544 -0.2315429 0.085736714 0.04817258 -0.020535948 -0.22655298 -0.11926338 0.085761674
-0.13482709 0.05168899 0.06962225 -0.21306843 -0.18064906 0.08850422 -0.23463045 0.06803347
-0.22967435 -0.12114026 -0.22080812 -0.087115705 -0.16558492 -0.20974617 -0.22092955 -0.072830886
0.0644352 0.1351964 -0.040908523 0.058126114 0.08730865 0.11275419 -0.066151895 -0.076898806
0.15598822 -0.22879425 0.029923962 -0.08067807 -0.22253065 0.011082449 0.11719408 -0.21951692
0.08398502 0.068627186 0.005092129 -0.045859713 0.09945177 -0.036489934 -0.06310212 -0.22663939
0.06860109 0.09088755 -0.058204643 0.127766 0.04925862 -0.22176161 0.09462753 -0.22072805
-0.24171054 -0.20244712 0.062611915 -0.23552397 -0.21935597 0.010838523 -0.09417359 0.13127017
-0.047133416 -0.10380127 0.086075194 -0.046906795 -0.04782395 -0.22927943 0.085582435 0.16740677
0.09909557 -0.15525584 -0.23611529 0.09560702 0.01544927 -0.09054236 -0.03828531 0.06647252
0.03037613 -0.15538105 0.12969406 0.13144611 -0.23109545 -0.0788322 -0.22671111 -0.19567752
-0.23338762 -0.05658001 -0.223612 0.13802785 0.05556518 -0.20623076 0.054401107 -0.15161441
-0.014986126 -0.06527438 -0.103681095 -0.021527853 0.14380915 -0.0109144505 -0.048616804 0.12057073
0.08113856 -0.014714958 0.021649685 -0.13289398 0.019108135 0.06178399 0.05886537 0.12591724
0.112179354 -0.028794717 -0.059039965 0.12971476 -0.030078318 -0.1015601 -0.05047213 0.12622039
-0.0052177906 -0.040929135 -0.019729283 0.0051046177 -0.03614215 -0.07596301 -0.063982524 -0.06890376
0.12179533 0.10733224 -0.037833232 -0.035433423 0.0075547406 0.12989742 -0.009843763 -0.08158469
0.000100290075 -0.039130576 -0.04025402 0.11884913 0.090240054 -0.051940978 0.13195464 -0.01412996
0.11734041 0.08312129 0.14206882 -0.017585859 0.09534 0.11756468 0.12602936 -0.013737961
-0.05124396 -0.09814912 -0.026376193 -0.013087776 -0.057891093 -0.08253134 -0.014590209 0.002585417
-0.12875903 0.11916749 -0.023716511 -0.019885642 0.12168413 -0.011927079 -0.08793662 0.133425
-0.059251085 -0.039143052 -0.057174817 -0.031890415 -0.08814349 -0.03461668 -0.0134078385 0.11880331
-0.04025404 -0.07058534 -0.03788474 -0.096613586 -0.0521424 0.13301162 -0.08193833 0.11837338
0.13663112 0.13180755 -0.04281696 0.13546453 0.12892649 -0.047727358 -0.0132702915 -0.1266402
-0.033131506 0.072704144 -0.06201659 -0.032419782 -0.027189387 0.110790074 -0.092905626 -0.11940261
-0.08840471 0.0022876207 0.1142429 -0.08206579 -0.021482749 -0.03121442 -0.029613476 -0.038556777
-0.044539463 0.09642151 -0.09681602 -0.09337606 0.117816195 -0.027921004 0.13280061 0.090286605
0.12939069 -0.03846182 0.12331621 -0.10082813 -0.04965647 0.13275102 -0.053655833 0.012793679

action_model._discrete_distribution.branches.0.bias f4 [3]
00000000: 6aa9 273e c7e6 ecbd e08d cdbd
0.1637322 -0.11567455 -0.10036826
