PFG-GAME/config/results/train06/DifAgent/checkpoint.pt (torch, 429995 bytes, 33 tensors)

network_body._body_endoder.seq_layers.0.weight f4 [128, 2]
00000000: cfeb 293e 563b 3cbf c319 383f 3115 943e
00000010: b989 8a3e a222 ba3e 6508 3cbe 19c1 61bf
00000020: c021 34bf 260e 77bf 03e4 573f c97f ecbd
00000030: 4faf 1abf 365b 51bf 2d3f 773f 1aba fbbe
00000040: a83a 1abf c378 36bf 2588 683f 4c2d 4b3e
00000050: 7317 32bf 84cd 28bf 5bcf ff3e 6e03 cabf
00000060: 087c 75bf 8252 98be 56eb 263e 4b6d a3bf
00000070: b91e ea3e 7f79 fbbe 9c6a 79bf ff16 2a3e
00000080: bef8 efbe 7699 a0bf b8b1 f1be 42d2 243e
00000090: 0a81 f03e caf1 b7bb 4274 47bf 27f6 61bf
000000a0: b30b de3f bee9 1abf ee71 23bf 657b 16bf
000000b0: dcb7 27bf 846a 48bf 530e 75bf b421 a7bf
000000c0: 1bd8 ac3f 354f cabf 2827 74bf f450 963f
000000d0: b2a4 fabf afae c0be 32aa 3bbf 7da9 babe
000000e0: 483d 3bbe 688f 0a3f b277 24bf 9080 1cbf
000000f0: 24c4 793c 1b65 2a3f 63fc 27bd 1e97 f939
00000100: f8da 03c0 d63d ecbe d4d1 51bf 7c91 363f
00000110: 277d 4c3e 27b3 bfbf b638 e4be 414a 5fbc
00000120: 1412 a0bf 65a2 673f ae83 413f b5c2 a2be
00000130: e442 f1be e4a3 993f bd41 1d3f b44f 543e
00000140: 1ea5 34bf 3ba2 c2be 214c 73bf fe4e 0a3f
00000150: d37f 8c3f a614 81bf 006b 4bbf 8b3e 15bf
00000160: 246f 86bf 5438 8dbe 95ea 46bf eebe 11bf
00000170: 15b2 a93e df8c 36be dd2c 8fbe dbab e9be
00000180: 1d8f 3abf 21cb 11bd f623 4abf 0334 943e
00000190: 4776 343f c8fd d03d fc4d a93f 57e8 203f
000001a0: a9d4 01bf 4aa8 e43e 2df6 a63d 7de0 20bf
000001b0: abe9 87bf 4f61 203f 3e8a 61bf c9e2 0e3f
000001c0: 06f8 ff3d 8cc0 5f3f 6127 ab3f 13f0 043f
000001d0: 9c3d 5f3f 8730 673f 0dbf 643f ca57 0fbf
000001e0: 385a 123f dfea 9e3e 0433 993d c6f8 543e
000001f0: c1d3 18bf a969 75bf a6f1 963e 6767 b1bf
00000200: 6248 58bf a3cb e6be 621e c3bf 86d1 8b3f
00000210: ee05 32bc 07f8 723f 9b12 26be 18bb ad3f
00000220: 5cf5 b63e de08 40bf b20a 6bbf 9c17 26bf
00000230: 72ae e03e 61f5 aabc 9c28 42bf 2c99 4cbf
00000240: fb52 7cbe c1d0 61bf 8132 1c3e a278 aabf
00000250: 6bcd b0bd 0a3e cdbe fcf6 be3f f16d 5ebe
00000260: ce5c 5abf b474 233f b220 51be 3a45 87be
00000270: e4a0 ed3e 924e 943e c2d1 6ebf 9c29 213e
00000280: 83a2 37bf 188f 583f 85d1 3337 2669 e83e
00000290: 1280 babf be72 2f3f 1a0f e6be 8769 893e
000002a0: b374 e93e c52e 44bf 7376 ca3e 29b3 9bbf
000002b0: 1142 aabe d4ac 2a3f f6a6 e63d 2105 993f
000002c0: d6c9 ef3d f6b9 d33e ff2d 753f ae81 173f
000002d0: 2a1f 17be c3aa 5bbf ec58 c13e 945e 433f
000002e0: c4af 923f 6e2a 8b3f 779a cf3e 3bf3 243f
000002f0: 9a39 c5bd f251 953e 2bf0 8c3f e61a 0ebe
00000300: 0310 2c3f f8db 3fbf 1a54 133f 0280 863f
00000310: 9072 96bc 6279 783e 74b9 b33e 43d6 a73e
00000320: 1054 3a3f 3381 aa3d 0dd0 91be 58fa 1cbe
00000330: cce2 9f3e f8e4 af3f 5228 353f 6704 00bf
00000340: 60e1 8c3f 74fb bfbe 6d05 813f 26c5 263e
00000350: 0631 81bc 2238 403d 3796 f4bd 7c9d 69be
00000360: c764 8a3e 0890 253f 17ad 1a3e 3055 eebf
00000370: 6739 4ebb b22d e63f 6d0d 39bf 5a95 37be
00000380: 8d55 75bf ffb7 d73e 8be4 5bbf 366b 033f
00000390: fb8e 0dbf 05ae 74bf 8fd4 3dbe 9224 653f
000003a0: a5a3 633f ce16 e53f a3e1 4d3e f559 a5bf
000003b0: 43bf 29bf f873 5cbf e61b 693f 4592 64be
000003c0: 7bc3 2a3f 3d70 08bf 3f32 2e3f b878 9abf
000003d0: f5ea 70bf 3cb2 463f 676f 6d3e 2ec6 4c3e
000003e0: 52db 993e 4ed1 30bf 78ec 803f 9e70 7fbf
000003f0: 0ac8 c63d 5da9 a7bf 5bd8 2bbf c69e 71bf
0.1659386 -0.7352804 0.7191431 0.28922418 0.270582 0.36354548 -0.18362577 -0.8818527
-0.70364 -0.96505964 0.84332293 -0.115478106 -0.6042375 -0.817798 0.96580774 -0.49165422
-0.6024575 -0.7127802 0.9083274 0.19841498 -0.6956703 -0.6593859 0.49962887 -1.5782297
-0.9589238 -0.29750448 0.16300711 -1.2767729 0.45726565 -0.49116132 -0.974283 0.16610335
-0.46869463 -1.2546833 -0.472059 0.16095832 0.4697345 -0.0056135403 -0.7791177 -0.88266224
1.734732 -0.6051291 -0.6384572 -0.58782035 -0.6551492 -0.7828753 -0.9572498 -1.305716
1.350345 -1.5805422 -0.9537225 1.1743455 -1.9581511 -0.37633273 -0.7330657 -0.36457434
-0.18285096 0.5412507 -0.6424514 -0.6113367 0.0152445175 0.66560525 -0.04101218 0.00047605572
-2.0602398 -0.46140927 -0.819608 0.7131574 0.19969617 -1.4976548 -0.44574517 -0.013628543
-1.2505517 0.9048217 0.7559155 -0.31789175 -0.47121346 1.200314 0.61428434 0.2073353
-0.7056445 -0.38014397 -0.9503804 0.5402678 1.0976509 -1.0084426 -0.79460144 -0.5829856
-1.0502667 -0.27582037 -0.77701694 -0.5693196 0.33143678 -0.17827176 -0.27963915 -0.45638928
-0.72874624 -0.03559411 -0.7896112 0.28945932 0.70492977 0.10204655 1.3226924 0.6285452
-0.5071512 0.44659644 0.08152423 -0.6284254 -1.0618185 0.6264848 -0.88101566 0.55814797
0.124984786 0.8740318 1.3371392 0.51928824 0.87203383 0.9030842 0.8935402 -0.5599333
0.5716891 0.31038567 0.074804336 0.20798025 -0.5969811 -0.9586435 0.29481238 -1.3859681
-0.8448545 -0.45077237 -1.5243647 1.0923316 -0.010865672 0.9490971 -0.16218035 1.3572721
0.3573407 -0.7501353 -0.91813195 -0.64879775 0.4388309 -0.020868959 -0.75843215 -0.7992122
-0.2464103 -0.8820916 0.1525364 -1.3318064 -0.0863293 -0.40086395 1.4919124 -0.21721627
-0.8529786 0.6384995 -0.20422629 -0.26420003 0.46411812 0.28966194 -0.93288815 0.15738529
-0.7173235 0.84593344 1.0718014e-05 0.45392722 -1.4570334 0.6853446 -0.44933397 0.26838323
0.45596847 -0.76633865 0.39543495 -1.216405 -0.3325353 0.66669965 0.11262314 1.195469
0.11708419 0.41352814 0.9577331 0.5918225 -0.14757982 -0.85807437 0.37763155 0.7631619
1.145989 1.0872324 0.40547535 0.6443364 -0.09630127 0.29164082 1.1010793 -0.13877448
0.6721193 -0.7494502 0.57550204 1.0507815 -0.018365175 0.24265054 0.35102427 0.32780656
0.7278452 0.08325424 -0.28479043 -0.15329874 0.3122772 1.3741751 0.7076465 -0.5000672
1.1006279 -0.3749653 1.0079781 0.16286144 -0.015770447 0.046928532 -0.11942714 -0.22813982
0.27030012 0.646729 0.15105091 -1.8619747 -0.003146732 1.7982695 -0.7228611 -0.17928067
-0.95833665 0.42132565 -0.85895604 0.51335466 -0.55296296 -0.9557803 -0.18538116 0.89508927
0.88921577 1.7897584 0.20105605 -1.2918078 -0.6630747 -0.86114454 0.91058195 -0.22321422
0.6670453 -0.5329626 0.6804542 -1.206809 -0.94108516 0.77615714 0.23187028 0.19997475
0.3005014 -0.69069374 1.0072165 -0.99781215 0.09706123 -1.309856 -0.6712701 -0.94382894

network_body._body_endoder.seq_layers.0.bias f4 [128]
00000000: a180 853e 56d5 58bd d603 c2bd c91f 5f3e
00000010: af39 35be 8b33 80bd 32da 7dbe b960 fe3d
00000020: 896f 84be 3f73 debd 5270 77be 4429 de3d
00000030: 7c54 d13d d506 723e 57d5 e43d 285d d93d
00000040: 76ee 67be 8de1 54be d2d1 34be c8d2 7bbe
00000050: ed5c be3d 8089 81be 8c55 6ebe 7859 58be
00000060: 3bef 9c3e 6333 433c 250a 36be 74c6 8bbe
00000070: 1132 58bd bcfd 59be d4fb 04be ab9a 703e
00000080: f0b5 7ebe 2ccd 9d3c 29b7 6bbd 44d8 83be
00000090: 12f5 853d 0c48 cbbd bf23 ed3c 075e adbd
000000a0: ea24 f5bd d1bb 083e 6e71 803e b0f6 78be
000000b0: a7d0 6bbe 127f c2bd 2e40 2ebe 9f9a 863e
000000c0: adae 71be eff6 1cbe f924 88bb 5393 e1bd
000000d0: 5af4 1b3e a0eb 73be 189d c53c 2da3 ba3c
000000e0: c236 2bbd 9e93 b6bd d964 9cbd 5da4 343e
000000f0: 5fdc bfbd e954 43be 6c75 58be 42bc 3f3e
00000100: e52d 6ebe 0add c93d a117 8fbd 5217 0ebe
00000110: b1f8 453e b707 4cbe c333 fbba 7263 79be
00000120: 3a90 743e ced6 8f3e f757 8c3e 04aa 8b3d
00000130: 09d6 cd3d 01dc 303e b97a 24be 8235 d43d
00000140: cb15 813d a56d 01be 59b5 9b3d f4f7 0c3c
00000150: 3bde bd3d c61c fcbd e100 b3bc 81c8 0bbe
00000160: 5ca0 c13d a218 92bd 994f 703e 8141 ccbd
00000170: 3b4d 0abe 58f2 5fbc 6684 eebd 0edb 1bbe
00000180: 7d9b 703e 3aeb 413c efdf 18be 0cfe 13be
00000190: b830 0fbe 0669 87be 9709 ccbd 564c 903d
000001a0: 4c60 0abe 224b 06be 141c 533e 0aec 7a3e
000001b0: d08e f7bc 98a6 383d 2e10 d4bd f995 5dbe
000001c0: b3af 30bb 9b8e 2ebe fe4d 1bbe 17b7 b13c
000001d0: e21d b2bd 1088 8d3e fcb5 84be 15bd e2bd
000001e0: 830f 26be bd02 8d3e 9ba1 c23d b729 24be
000001f0: 8225 753e 15a3 733e cb87 433e 4301 78be
0.260747 -0.052937828 -0.09473388 0.21789469 -0.17697786 -0.06259831 -0.24790266 0.12420792
-0.25866345 -0.10861825 -0.2416394 0.108477145 0.10221192 0.23635419 0.11173504 0.10613471
-0.2264956 -0.20789166 -0.17658165 -0.24592125 0.09295068 -0.25300217 -0.23274821 -0.2112788
0.30651268 0.011914107 -0.17777307 -0.27299845 -0.052782122 -0.21288198 -0.1298669 0.23496501
-0.24874091 0.019262873 -0.057547722 -0.25750935 0.06540884 -0.09925851 0.02894771 -0.084652
-0.119699314 0.13352896 0.2508654 -0.24312854 -0.23028813 -0.09496893 -0.1701667 0.26289842
-0.2360179 -0.15328573 -0.004154798 -0.11014428 0.15229931 -0.23820353 0.02412276 0.022782886
-0.041800268 -0.089148745 -0.07636423 0.17640825 -0.09368204 -0.1907536 -0.21138543 0.18724158
-0.23259695 0.09856613 -0.06986929 -0.13876083 0.1933315 -0.19924818 -0.0019165206 -0.24354342
0.23883143 0.2809357 0.27410862 0.06819537 0.100505896 0.17271425 -0.1606244 0.10361768
0.06302985 -0.12639482 0.07602949 0.0086040385 0.09270903 -0.123101756 -0.021851005 -0.13650705
0.09454414 -0.071336046 0.23467864 -0.099734314 -0.13506024 -0.013668619 -0.11646347 -0.15220281
0.23496814 0.011835868 -0.14929174 -0.1445238 -0.13983428 -0.26447314 -0.099627666 0.0704581
-0.13513297 -0.13114598 0.2061618 0.24504104 -0.030219465 0.04508075 -0.103546485 -0.21639241
-0.0026960194 -0.17046587 -0.1516647 0.02169375 -0.08697106 0.2764287 -0.25920093 -0.11071221
-0.16216855 0.27541152 0.0950348 -0.16031538 0.2394009 0.2379268 0.1909477 -0.24219231

network_body._body_endoder.seq_layers.2.weight f4 [128, 128]
00000000: f94a a5bd 3b6b aebd 480b 44be d873 d9bb
00000010: 71ff dfbc 9b50 da3d 1563 123d be25 89bd
00000020: 1bb9 b8bc 97e7 e83d ecb4 ed3c 16e0 87bd
00000030: b885 3b3d d26e 38be 9a37 213c 5770 bbbd
00000040: 361a afbd e277 65bd 7d4a 12bc cb6c 803d
00000050: a008 1b3d 6be8 b53d 35cb 2b3b ee49 bdbd
00000060: dc67 56bd 0762 f33b d171 db3d e102 123e
00000070: 48fe 873d 173e 98bc 0f17 9f3d c0c8 0e3e
00000080: 565d d2bc d2f0 c5bd c393 c4bd 5371 433c
00000090: 3f1f 643c 768c f53d c9df a4bc 4690 9abd
000000a0: 7907 49bd 6c1e cebd 542a c1bd 5901 183e
000000b0: 1bf4 09be 595d 37be 11ab 9bbd e6d7 8cbe
000000c0: 5274 a33d c788 153e 24ff cc3d 3759 6abe
000000d0: 2bd0 bbbd e674 f3bd 2421 b6bc 6f62 e53d
000000e0: 2fb5 f9bd 6c4f 5ebe 6eb4 3e3c 3f2d d13c
000000f0: 7a38 e1bb 70b9 123d 6c85 803b 515e e73c
00000100: a0ea 19bc fbbb b6bd de9c ecbd 8ace 243d
00000110: 8650 933d 3826 b93d 954e ffbd f19b 8b3d
00000120: ee37 a3bd cea1 ddbd b1d8 e2bd c773 29be
00000130: b3b0 c8bd 494c 61bd c2fb 9f3d ad95 0fbe
00000140: 1918 05be 69a9 42bb 2fc8 69bd c3e0 e0ba
00000150: afe8 5a3c 6d73 74be 2150 713d 69f5 56bd
00000160: bfed 81bd f38b bcb9 1f4e 10bd 0868 063c
00000170: c31d babd b448 b1bc 881a 4d3c 44fb 373d
00000180: 2d08 33bd b9d6 77bd 4349 d3bd ac29 9ebd
00000190: 27aa a0bc 3516 863d 5990 febd d68c 06bd
000001a0: 9435 78bd 6aae c23d b3ad 12be 451d febd
000001b0: 449d 8dbc 90a6 59be 64e8 133d 115a 203d
000001c0: e1f8 b8bc 23d6 113d 0e39 143e 20d5 06be
000001d0: 3d09 bcbd 3a1d 7cbc 9fbc d9bd 02bf 513d
000001e0: fced c9bd 0fea 19be 4efc 66bd 7834 033d
000001f0: 89c9 44bd 921f 4e3d fb39 78bd bcab a33d
00000200: 3a26 183e 5c63 d6bd 35d5 1b3d 0562 b03d
00000210: 94cb 5dbc 2a7b c8bd 9c51 743d 854b 2f3d
00000220: 8d2f 0cbe db87 b83c 29c9 9ebd ded1 f63d
00000230: cd83 6e3e d58a 8a3e 20c6 323d 0367 0d3c
00000240: 58ae 4eba f1aa c9bd c68a 223d 7061 c2bd
00000250: d72a cbbd 6b79 75bd 5665 a33d 1bff cabd
00000260: db24 f33d 2e54 243e 0f50 fcbd 7a5c 703b
00000270: fa96 de3c 32f2 e13d b9cc c9bd 2359 623e
00000280: d1fb a5bc 9114 063e 1cb7 a03d cb71 bbbd
00000290: 64b6 adbc 46cc 1b3e 8840 6cbc 797a 033d
000002a0: 240f a2bd 6b41 713d 3253 843e 0d36 24bd
000002b0: 8d42 c6bc fae7 833d 3e54 efbc 87d7 963d
000002c0: 28a3 0e3d e9a6 013e 4458 223e 9777 a0bc
000002d0: 35d3 683c f44c d1bc 33b7 823d d6a4 cf3d
000002e0: 5d0b ccbd 47bf ea3c c117 bf3d dab1 c43d
000002f0: 5c12 96bd 415b c2bb a823 e7bb f424 2c3e
00000300: 36ba 703d 446b 84bd 8d9e 48be ec5a 04bd
00000310: 3d13 233e 636e e83d ab1e 153c 6487 b53c
00000320: 09df d13d cfd2 a43e 6156 353e 7b45 1a3e
00000330: c025 abbc 0ee5 d93a 0a7c 8dbd 4397 603e
00000340: 6d7d 1fbe 4428 99bc f852 6f3d 6fb7 903d
00000350: 51a1 823e b317 663e 38a8 963c 4673 10be
00000360: ddbd 633d cc94 103c ab59 783e 0db8 013e
00000370: 4e05 d9bd c1a0 ba3d 3ebf 52bd a571 043d
00000380: 545d bebd 5530 0abe 906f 7ebd db4a 803d
00000390: 98a5 b2bd 675c 3dbe 02de 3ebd 63eb b63d
000003a0: 9319 f63d 5439 6e3d 7666 063d df1a 4b3e
000003b0: 6367 953b 3f19 c33e 10a0 2dbe f457 c0bb
000003c0: ad67 8cbd 0c03 5c3c 4a3d 10bc de9e 21bd
000003d0: 1598 57bc f0e9 743e 8322 f0bc d90b 903c
000003e0: 0b00 4f3d 386b 093e 93ec b13c 45db 32bd
000003f0: bae4 6e3d fd2e d23d 717a 723e 35ea 3fbe
-0.080709405 -0.08516546 -0.19144928 -0.006636124 -0.027343484 0.106599055 0.035739023 -0.06696652
-0.022549203 0.11372297 0.029016934 -0.06634538 0.04578182 -0.18011025 0.009839917 -0.091522865
-0.08549921 -0.056022532 -0.008928892 0.062707506 0.037850022 0.08882221 0.002621365 -0.092426166
-0.05234514 0.0074274573 0.10715068 0.1425891 0.06640297 -0.018584294 0.0776807 0.13943768
-0.025679272 -0.096650735 -0.09598496 0.011928874 0.013923465 0.119896814 -0.02012624 -0.07547049
-0.049079392 -0.10064396 -0.094319016 0.14844264 -0.13472025 -0.17906703 -0.07600988 -0.27508467
0.07981171 0.14602958 0.10009602 -0.22885595 -0.09170564 -0.11887531 -0.0222326 0.11200415
-0.12192761 -0.21709985 0.0116396975 0.02553427 -0.0068731876 0.03582138 0.003922155 0.028243216
-0.009394318 -0.08922573 -0.115533575 0.040236033 0.07193093 0.09040493 -0.1246616 0.06816853
-0.07969652 -0.108218774 -0.11076487 -0.16548072 -0.09799328 -0.05500439 0.07811691 -0.1402194
-0.12997474 -0.0029703027 -0.057075676 -0.0017156828 0.01336114 -0.23872156 0.058914308 -0.052480135
-0.063441746 -0.00035962425 -0.035230752 0.008203514 -0.09087708 -0.021641113 0.012518533 0.04491736
-0.04370897 -0.06050751 -0.10316708 -0.07722792 -0.019612385 0.065472044 -0.12429876 -0.032849155
-0.06059797 0.09505923 -0.14324073 -0.124079265 -0.017286904 -0.21254945 0.036110297 0.039148394
-0.022579612 0.035604607 0.1447489 -0.13167238 -0.091814496 -0.0153878275 -0.1063168 0.05120755
-0.09859845 -0.15030693 -0.05639296 0.03203246 -0.04804376 0.050323077 -0.06060217 0.0799174
0.14858332 -0.1046817 0.038045127 0.08612446 -0.013537306 -0.09789117 0.05964814 0.04279663
-0.13690014 0.022525718 -0.07753212 0.12051748 0.23292466 0.27059045 0.043645978 0.008630517
-0.00078842556 -0.098470576 0.039683126 -0.09491241 -0.099202804 -0.059930246 0.07978313 -0.09911939
0.11872264 0.16047737 -0.123199575 0.0036676214 0.0271716 0.11032523 -0.09853501 0.22104315
-0.020261677 0.13093783 0.07847425 -0.09152564 -0.021205135 0.15214643 -0.014419682 0.03209922
-0.07913044 0.058900278 0.25844723 -0.04009061 -0.024201656 0.064407304 -0.029214974 0.07365327
0.034823567 0.12661327 0.15853983 -0.019588275 0.014210512 -0.02554939 0.06382599 0.10138862
-0.09963105 0.028655661 0.093307026 0.09604235 -0.073277205 -0.0059312885 -0.007053811 0.16810971
0.058771335 -0.06465772 -0.19591732 -0.032313272 0.15925308 0.113491796 0.00910155 0.022159286
0.10247619 0.32192084 0.17708732 0.15065567 -0.020892024 0.001662405 -0.06908424 0.21932702
-0.1557519 -0.018695958 0.058428735 0.07066237 0.255137 0.22469978 0.01839076 -0.14106473
0.05560099 0.008824538 0.24252956 0.12667866 -0.10596715 0.091126926 -0.051451914 0.032334942
-0.09295145 -0.13495 -0.062118113 0.062642775 -0.08722991 -0.1849228 -0.046598442 0.08931615
0.12016597 0.05816014 0.032812558 0.1983447 0.004559444 0.381052 -0.1695559 -0.00586986
-0.06855712 0.013428461 -0.008803675 -0.03945815 -0.013158818 0.23917365 -0.029313331 0.017583774
0.05053715 0.13419807 0.021719253 -0.043666143 0.0583236 0.102628686 0.2367952 -0.18741687

network_body._body_endoder.seq_layers.2.bias f4 [128]
00000000: e3f7 acbd cd21 bd3d a981 673d 9bea 3ebe
00000010: 8ab0 26bd ede1 f63d f47d 493e ef5a 3dbe
00000020: 1acd 14be eb30 18be 8db2 0cbe 9513 0fbe
00000030: 442e 633e f383 31be a175 153e 04b6 4cbe
00000040: ff1a 2c3e 1328 3bbe c681 14be 4534 00be
00000050: 32ee 4b3e 24bf 6d3e 946f 18be 0be0 2bbe
00000060: e5aa 083d 39b6 33be 801e 333e b819 ffba
00000070: 9c11 16be b908 b43d f008 e3bd 176a 093e
00000080: 49cf 13be 7253 41be 2fa7 7bbd d664 07be
00000090: 318b e3bd c614 023e 0422 41be 566e 3f3e
000000a0: 7414 e93d ff56 1fbe 3ee5 37be e5fa 253e
000000b0: 3085 cc3c 3032 1bbe 380f 043e f12d 133c
000000c0: 256a bdbd 2743 de3d 3130 8cbd e9bf 123e
000000d0: 57b4 24be b343 123e becc 02be b0b6 c8bd
000000e0: c836 1c3d fa6f 2fbe 1f8e 99bd 5665 2c3e
000000f0: 9d65 4f3e 3b05 c33d abf6 b8bd 2e66 26be
00000100: c1fc e8bd 3a37 1a3e ed85 fabd b2d9 c3bd
00000110: a925 19be ada2 08be 2371 09be 7e0a 2abe
00000120: 8809 463c c20b 213e bad1 14be 5717 233e
00000130: dc27 49be 8371 d73d c933 febd be62 fbbd
00000140: e8d5 4cbe 4f8a febd 3a25 3dbe e0f0 9fbd
00000150: 6a50 1dbe 8d81 29be ab2e 283e af66 053e
00000160: 42a3 713e 9925 dfbd 6883 663e fd1f 0abe
00000170: 2e63 40be eb9a 7e3d 8f06 733e 72e8 2abe
00000180: 0ef4 153e d3e6 15be d447 f8bd 3846 123e
00000190: 1eab 06be 5651 38be 13fe f6bd 3e32 dbbd
000001a0: c446 683e 165e 06be 152a 09be 0d20 2bbe
000001b0: 7326 08be c00b 2b3e d380 8ebd 94f2 683e
000001c0: 5932 dd3d d8a3 c2bc 13fb 38be e83b 193e
000001d0: 5817 10be a086 5f3e 7740 47be 4299 ec3d
000001e0: a692 623d 614f ccbd a76f 58bd bf7c ae3d
000001f0: 83fd 1d3e 2b15 1bbe 8c0d 353d 1a14 07be
-0.08445718 0.092349626 0.056520138 -0.18644182 -0.040695705 0.12054811 0.19676954 -0.1849172
-0.14531365 -0.1486241 -0.13739987 -0.13972314 0.22185618 -0.17335491 0.14595653 -0.19991308
0.16807173 -0.18277006 -0.1450263 -0.12519939 0.19915083 0.23217446 -0.14886314 -0.16784684
0.033366103 -0.17549981 0.17492104 -0.0019462621 -0.14655155 0.08790726 -0.11085689 0.13419376
-0.14434542 -0.18879488 -0.061438736 -0.1322206 -0.11110533 0.12703237 -0.18860632 0.18694434
0.11380854 -0.1556053 -0.17958543 0.1620899 0.024965852 -0.15155864 0.1289643 0.008983121
-0.09248761 0.10852652 -0.06845129 0.1433102 -0.16084419 0.14283638 -0.12773415 -0.0980047
0.03813818 -0.1713256 -0.074978106 0.16835532 0.20253606 0.09522482 -0.09031423 -0.16249916
-0.11376334 0.1506013 -0.122325756 -0.095630065 -0.14955772 -0.13343306 -0.13422064 -0.16605565
0.012087233 0.15727141 -0.1453313 0.15926872 -0.19644111 0.105196975 -0.12412221 -0.12274693
-0.20003474 -0.12428724 -0.18471232 -0.07809615 -0.15362707 -0.16553326 0.16424052 0.13027452
0.23597434 -0.10895843 0.22511065 -0.13488765 -0.18787834 0.06215946 0.2373297 -0.16690233
0.1464388 -0.14638834 -0.12123075 0.14284599 -0.13151214 -0.17999777 -0.120601796 -0.10702942
0.22683245 -0.13121828 -0.1339496 -0.16711445 -0.13295917 0.16703701 -0.06958165 0.22748786
0.10800619 -0.023759767 -0.18064527 0.14964259 -0.14071405 0.21828699 -0.19458185 0.11552669
0.055315636 -0.09976078 -0.052840855 0.08519887 0.15428738 -0.15144794 0.044202372 -0.13191262

action_model._discrete_distribution.branches.0.weight f4 [3, 128]
00000000: cf51 a5bd 33f0 003d fbfa 2f3d d08a f0bd
00000010: 8c14 86bd 22a0 503d 3dfa e23d e231 0abe
00000020: 6781 dfbd e97d fdbd a778 0dbe 851b 09be
00000030: 7927 533e 80e4 12be 5b15 7c3d fcf3 1abe
00000040: e018 d03d c81f 2fbe a2b8 07be e077 a3bd
00000050: f8ae 123e bfb1 2b3e 10be f9bd feca 1abe
00000060: fc0b ef3c 4f5a b3bd f5d4 be3d b888 b6bc
00000070: 9c1b c5bd 6229 ab3c a93b dfbd 0286 463d
00000080: a44b e3bd c80d 1abe 8ea0 83bd e7ce e2bd
00000090: ad76 78bd d883 603d e1fc 11be ccd9 ca3d
000000a0: b721 413d 132b 2abe 0d1e 18be 1453 6d3d
000000b0: 28f0 df3b 7f78 26be b123 2d3d 599a 45bc
000000c0: b22b 06be 0410 523d 0eba 5bbc a7a4 913d
000000d0: 1105 27be 4afd ab3d 8790 1dbe 8e50 0fbe
000000e0: f8e3 6ebc e35b 10be 0408 c1bd 0976 d33d
000000f0: 66d3 273e 51dc 523d 8ce7 99bd bf6d 45be
00000100: fcd2 86bd 76f8 c63d 652d 9bbd 9839 6abd
00000110: 6a91 14be d3ab cbbd 2590 d8bd dad5 00be
00000120: 1c51 a3bb 8c1b 983d 90fb f4bd be0f a03d
00000130: a94e 13be 9d06 d63c 9833 f5bd 3dbb 92bd
00000140: f3d0 12be b163 a7bd 067d 0bbe 64f4 69bd
00000150: fef6 cbbd c4ec dbbd d4f0 9d3d f400 8d3d
00000160: de12 383e 234e c8bd 8b51 343e 71bf 3fbe
00000170: bfc4 02be 6170 be3c d01b 4a3e cede 01be
00000180: cd03 9a3d fcd3 23be 9d58 87bd 1f4c 953d
00000190: 138f 17be 5f85 1abe 0008 f1bd 6434 27bd
000001a0: 01fc 353e 4458 17be 7302 0fbe d8c9 fcbd
000001b0: 9318 f4bd dc50 953d f59b bdbd 658f 213e
000001c0: cc31 2a3d 9c98 edbc 3099 fabd c701 be3d
000001d0: ca32 fbbd 42cf 313e d15f 1cbe 8b09 143d
000001e0: 33bd 653d c308 afbd f398 8dbd 1cbc fe3c
000001f0: 6189 ab3d 6ba4 3bbe fe7f bd3d 3127 bfbd
00000200: 6dbb 08bd 8435 98bd aa2a 9e3d 2fce bdbc
00000210: 01bc c6bd 143b 7dbd 8a13 4abc f43c 813d
00000220: 4b99 1bbc 1ebf 593d babe 27bd 20ad 95bd
00000230: 3276 06be 5eb9 2b3d bfe8 3dbd 3393 963d
00000240: 8f34 24be 8859 d73d c5c6 2a3d 61ac 85bc
00000250: f9e9 97bd 5f88 1bbe 048c 603d 435f ef3d
00000260: 5578 07be 8392 933d 8a5a 03bd 5ab9 17bd
00000270: 2b16 7c3d 950c 28bd bc3e fabc 8752 09bd
00000280: 7da2 6abc 086b 983d 59b9 3b3e 23ab 6e3c
00000290: 4e56 043e 63a9 07bd 9d3e a0bb f1fd a6bd
000002a0: 021f 873c 066d 893d a8b6 653d 066a a2bd
000002b0: cbde 4ebc 6dea 3a3c e186 0abd e035 3dbd
000002c0: 7173 20bd e991 e9bc 8859 b13c f421 25bd
000002d0: cd7c 3f3d 95e1 f23d 71c8 cfbc 3af9 a4bd
000002e0: 22c1 19bd e8b6 bebc 7208 02be 6ad8 12be
000002f0: 777c 6ebe 8dc1 793d 3e67 babc e638 863d
00000300: e4b3 b5bc 9f61 60bc 38c6 84bc 59b3 b33d
00000310: cbd0 193d 355e 2c3d 822a b33d 0856 163d
00000320: bb27 0f3c 8227 aebc dd18 123c 01d2 f7bc
00000330: c638 913d 5afe e2bc 33c6 063e f75c b63d
00000340: 5ba5 873d a28a 6abc 3c72 673d e654 b5bd
00000350: 3cf0 f9bc a283 9a3d 84fd 58bd 272f 3a3d
00000360: b5c6 62be 3bfa 0abd 9074 2cbe c580 8fbc
00000370: 4964 853c 30c0 1dbd f061 2cbe 52bc 113d
00000380: fb02 f8bd 1d9a 4cbc 2424 84bc 86e1 33bd
00000390: c826 83bd d016 9e3d 865f c5bb 8384 aebc
000003a0: b2db 56be 8061 acbd be1e 3bbd 4d46 5c3d
000003b0: 861d d73c 19ee 7abd 17b7 633e 9755 16be
000003c0: 78da 02bd f050 27bd 5d5b 5a3d fdf9 a4bd
000003d0: 0025 21bd 8bbb 41be 9caa ad3d 23f3 eabc
000003e0: 8b82 04be 0a86 cd3d 626a 35bd 44b2 e5bc
000003f0: cf76 97bd 0ff1 0d3c 5d00 21be 11a2 613c
-0.080722444 0.03147907 0.042963963 -0.117452264 -0.06546888 0.050933965 0.110828854 -0.13495591
-0.109133534 -0.12377531 -0.13815556 -0.13389404 0.20620526 -0.14344978 0.061543804 -0.15132135
0.101609945 -0.17101967 -0.13254026 -0.07981849 0.14324558 0.16767024 -0.12194455 -0.15116498
0.02918052 -0.08757459 0.09317962 -0.02228199 -0.09624407 0.020893756 -0.10900051 0.048467644
-0.11098412 -0.1504432 -0.06427108 -0.1107462 -0.060660053 0.054813236 -0.14256622 0.09904823
0.047151294 -0.16617994 -0.14855213 0.057940558 0.006834049 -0.16256903 0.042270366 -0.012060725
-0.13102606 0.051284805 -0.013411058 0.07111483 -0.16310526 0.083979204 -0.15387164 -0.13995573
-0.014580719 -0.14097552 -0.09425357 0.10325248 0.16389236 0.05147964 -0.07514867 -0.19280146
-0.06583211 0.09715359 -0.07577018 -0.057183832 -0.14508596 -0.09944882 -0.105743684 -0.12581578
-0.004984034 0.07427129 -0.11962044 0.078155026 -0.14385475 0.0261262 -0.11972731 -0.07164619
-0.1433752 -0.081733115 -0.13621911 -0.057117835 -0.099592194 -0.10738519 0.0771195 0.068849474
0.17975947 -0.097805284 0.17609231 -0.18725373 -0.12770365 0.023246946 0.19737172 -0.1268265
0.07520256 -0.15998834 -0.066086985 0.072899096 -0.14800672 -0.1508994 -0.11769104 -0.040821448
0.17771913 -0.14779764 -0.13965778 -0.12343186 -0.1191875 0.07290813 -0.09258262 0.15777357
0.041551396 -0.029003434 -0.122362494 0.09277683 -0.122655466 0.17364219 -0.15270926 0.036141913
0.056088638 -0.08546593 -0.069139384 0.031095557 0.08375812 -0.18324439 0.09252928 -0.09333647
-0.03338187 -0.07432082 0.07722981 -0.023169605 -0.09703828 -0.06182392 -0.01233376 0.06310454
-0.009496997 0.05316078 -0.040953375 -0.073084116 -0.13131025 0.041924827 -0.046364542 0.07352295
-0.16035675 0.105151236 0.041693468 -0.016317548 -0.074176736 -0.1518874 0.05482103 0.116880916
-0.13229497 0.07205679 -0.032068767 -0.037042 0.06154458 -0.041027624 -0.030547492 -0.03352597
-0.014320967 0.074422896 0.18332423 0.014567169 0.12923548 -0.033120524 -0.0048902766 -0.08153904
0.016494278 0.06710248 0.056082398 -0.079303786 -0.01262636 0.0114084305 -0.033820037 -0.046193957
-0.039172594 -0.028511958 0.021649137 -0.040315583 0.04674988 0.118594326 -0.025364133 -0.08055349
-0.0375377 -0.023280576 -0.12698534 -0.14340368 -0.23289667 0.0609756 -0.022754308 0.06553821
-0.022180505 -0.01369515 -0.0162078 0.08774442 0.037552636 0.04208203 0.08748342 0.03670314
0.0087375 -0.021259073 0.008917061 -0.030251505 0.07090907 -0.027709175 0.13161545 0.089044504
0.06623336 -0.014315279 0.056505427 -0.08854084 -0.03051006 0.07544638 -0.052976146 0.045455124
-0.22146113 -0.033930045 -0.1684134 -0.017517457 0.016283171 -0.038513362 -0.16834235 0.035579987
-0.121099435 -0.012487915 -0.016130514 -0.043916248 -0.06403881 0.07719195 -0.00602335 -0.02130342
-0.20982245 -0.08417034 -0.045683615 0.05377798 0.026259195 -0.061262224 0.22237812 -0.14681087
-0.03194663 -0.040848672 0.053309787 -0.08055494 -0.039341927 -0.18919198 0.08479807 -0.02868039
-0.12940423 0.100353315 -0.044290908 -0.028039105 -0.07395708 0.00866343 -0.15722795 0.01377155

action_model._discrete_distribution.branches.0.bias f4 [3]
00000000: 03d7 2a3e 8a83 c9bd f930 e7bd
0.16683583 -0.09839542 -0.11288638

exp_avg f4 [128, 2]
00000000: ae9e b537 9be9 fab5 9cbf a1b7 a343 9037
00000010: bf54 4ab7 a8ab 8636 f3bd 9eb4 4738 a936
00000020: 9ad6 b336 1627 82b7 3791 36b7 d9c6 af35
00000030: 9980 9736 b22b 9cb7 4d54 19b6 29ce e636
00000040: 2368 7f36 3a1e 2cb7 959d b6b7 0189 2738
00000050: 3ee9 9d36 0603 ccb6 68b9 21b7 f815 4936
00000060: b8be 2b36 5e6a d3b6 5be4 d836 3dfd c436
00000070: 6477 0bb6 c6a4 7636 c05f b735 4da8 04b8
00000080: 3e1c 4036 1aca a4b7 a957 d635 20cd c638
00000090: 70a2 deb7 e04c 0038 4ce5 c436 eaa1 cab7
000000a0: c50c 8a36 bdb1 2036 5d30 8a36 b372 77b6
000000b0: 66dd a736 f049 75b7 619a e036 e6c7 eab7
000000c0: db8a b937 9575 1a37 be9e b334 bf7c 75b8
000000d0: ce03 4035 b64f 5837 0e13 ac36 3c61 3b37
000000e0: 447c ecb5 2b1e 43b8 d252 9f36 b145 47b6
000000f0: 5d7c 06b7 41a4 cc37 bd25 1e38 b888 33b9
00000100: 8b86 2c35 a250 9236 6ef1 6735 c0d5 abb7
00000110: 03c8 95b7 f579 28b7 0ab8 f235 1e9a ad38
00000120: 2c98 0135 8e6d 0ab7 2b97 98b7 6966 8d37
00000130: 7186 7db4 bdc3 73b8 ba9a 89b7 4f6f 4437
00000140: fce3 4836 c8cd 6336 d892 52b4 cdad 9db8
00000150: cd36 2f37 a7eb c733 6d52 b536 ff22 90b6
00000160: 9288 a436 c5b9 e837 ed5b 8536 8f31 9435
00000170: 2090 91b7 3f54 c237 56bf 2f36 b455 e1b7
00000180: dbfc 9c36 d0d0 9838 054b 2a36 cc89 9f38
00000190: d353 0cb7 a0af ef37 2b86 9ab7 202e 9138
000001a0: 836d 3eb4 a42a a4b8 8a89 60b7 e48b 76b6
000001b0: 0f4a a434 fd90 7eb5 0477 0133 68f4 4fb8
000001c0: 28db c2b6 83d8 d5b7 f26d 5ab7 53e2 1538
000001d0: fbc5 3bb7 d593 0138 2435 8fb5 a48c 1fb6
000001e0: 900c 87b7 227a 2d38 9d1e 9cb7 e8e2 7f38
000001f0: 9cf9 7036 d539 59b7 742d 8036 d8f4 4036
00000200: 383d c936 a1fc c336 5a2a 12b5 24cc ccb8
00000210: 9613 cdb6 48e4 80b7 4ca7 72b6 c756 99b6
00000220: a0c7 1737 e5c7 84b3 46e9 b936 f845 d7b6
00000230: 877f 36b7 5eb2 a637 3c98 a836 5e92 76b7
00000240: e1a3 f7b1 18cb 5136 eae0 7337 2c96 e036
00000250: 8e84 8537 a107 13b8 65b2 c5b6 620a 4336
00000260: e209 a733 7191 63b8 5a10 df35 0a40 e1b7
00000270: a9e0 deb7 f787 9338 946b 8535 eb61 beb7
00000280: 5212 15b5 c61e 1db8 5828 d4b6 0ca6 0238
00000290: 14b8 45b4 f2ef 26b7 3e0a f7b2 bf10 66b7
000002a0: 6a00 98b6 3242 67b5 3855 80b7 3cc6 12b7
000002b0: bde4 b9b4 1c48 0b37 3116 02b7 a203 9c37
000002c0: b7fa 9535 5b37 88b7 3de0 8eb7 ec2b 4138
000002d0: 3aa8 2936 cee0 2a36 12ab 63b7 4ff2 9d37
000002e0: 0ced 9fb7 3aa7 4838 eade 51b7 62b4 e7b7
000002f0: 33bc 64b6 0afc e737 9893 84b7 7906 4a37
00000300: e40e 4b37 0a37 3b33 23cc fcb6 6fd5 34b8
00000310: 5983 08b7 a773 cb37 7bcc d9b7 a59c a738
00000320: 05c3 09b8 553d a338 8ca5 beb5 1d93 3b38
00000330: ec60 45b7 1c84 b8b7 53ce 79b6 c9e0 e236
00000340: 7e4a 6fb7 d4c9 ea36 f044 b4b7 2699 4638
00000350: 1daa 9737 a4af deb8 e016 9737 3ba0 a7b8
00000360: 2cee e2b6 c626 d7b7 a021 b0b7 dde7 0ab6
00000370: 228d aeb6 2843 aa37 85f1 9836 3a64 ca37
00000380: 670a 5d35 95a8 4737 1a3c c835 ea1f f137
00000390: ed16 5236 6868 19b7 daa5 d5b4 50bb c8b8
000003a0: 774b 44b7 b41d c438 3991 7c37 de99 a736
000003b0: 68fa a436 24b1 94b7 7ec1 2eb7 369d 8037
000003c0: 0973 76b7 c1ac 9035 1bf2 6e37 c28a 7636
000003d0: 4a58 13b4 5d95 b4b7 fc85 c2b7 c992 5a38
000003e0: 242e 3437 9ec5 ecb5 0570 4637 a811 5ab6
000003f0: 7e5a e235 785b e236 d14e 9b36 cbc1 8cb7
2.1650772e-05 -1.869444e-06 -1.928192e-05 1.7197633e-05 -1.205987e-05 4.0134946e-06 -2.9568e-07 5.043144e-06
5.3595986e-06 -1.5515408e-05 -1.0881856e-05 1.3096388e-06 4.5151214e-06 -1.8616996e-05 -2.2847846e-06 6.8785344e-06
3.8058577e-06 -1.0259037e-05 -2.176947e-05 3.9943498e-05 4.7061176e-06 -6.0800257e-06 -9.639516e-06 2.9964121e-06
2.5591999e-06 -6.300673e-06 6.4638857e-06 5.870736e-06 -2.0782109e-06 3.6752767e-06 1.3662429e-06 -3.1627995e-05
2.8626669e-06 -1.9644434e-05 1.5969755e-06 9.479583e-05 -2.6540103e-05 3.0589174e-05 5.867949e-06 -2.4155674e-05
4.114207e-06 2.3945315e-06 4.1183507e-06 -3.6872632e-06 5.002762e-06 -1.4620353e-05 6.6936923e-06 -2.7988059e-05
2.2118378e-05 9.206492e-06 3.3456848e-07 -5.852873e-05 7.153111e-07 1.2893162e-05 5.1282177e-06 1.1168708e-05
-1.7619536e-06 -4.651972e-05 4.748211e-06 -2.9693877e-06 -8.015978e-06 2.4395182e-05 3.7705282e-05 -0.00017121702
6.427078e-07 4.360526e-06 8.640553e-07 -2.0484324e-05 -1.7855322e-05 -1.0041976e-05 1.8083967e-06 8.2779894e-05
4.8277684e-07 -8.250949e-06 -1.8190205e-05 1.6856198e-05 -2.361137e-07 -5.811801e-05 -1.6403723e-05 1.1708426e-05
2.9935027e-06 3.3945416e-06 -1.9611196e-07 -7.518716e-05 1.0443572e-05 9.3095245e-08 5.403816e-06 -4.2956085e-06
4.9034797e-06 2.774306e-05 3.9744104e-06 1.1041283e-06 -1.735246e-05 2.3165832e-05 2.6188404e-06 -2.6861999e-05
4.6785985e-06 7.286819e-05 2.5375641e-06 7.6073775e-05 -8.364167e-06 2.8572802e-05 -1.8420707e-05 6.92273e-05
-1.7734969e-07 -7.828072e-05 -1.3383464e-05 -3.6738284e-06 3.0601265e-07 -9.483336e-07 3.0143397e-08 -4.9580267e-05
-5.8071637e-06 -2.54924e-05 -1.3019411e-05 3.573515e-05 -1.11921645e-05 3.0893676e-05 -1.0669796e-06 -2.377471e-06
-1.6099104e-05 4.136016e-05 -1.8610905e-05 6.100806e-05 3.5908079e-06 -1.2947673e-05 3.8199887e-06 2.8752747e-06
5.9973936e-06 5.8408627e-06 -5.445087e-07 -9.765502e-05 -6.111756e-06 -1.536509e-05 -3.615819e-06 -4.5698575e-06
9.04678e-06 -6.1830896e-08 5.5405862e-06 -6.4156447e-06 -1.0877738e-05 1.98718e-05 5.0245126e-06 -1.4696821e-05
-7.207277e-09 3.1261643e-06 1.4536296e-05 6.6932025e-06 1.5916561e-05 -3.5054636e-05 -5.8918254e-06 2.9063308e-06
7.778341e-08 -5.425647e-05 1.6619554e-06 -2.685191e-05 -2.6569078e-05 7.034832e-05 9.940582e-07 -2.2695362e-05
-5.5533485e-07 -3.7460377e-05 -6.322789e-06 3.114906e-05 -1.8414022e-07 -9.950238e-06 -2.8759242e-08 -1.3712967e-05
-4.530001e-06 -8.615053e-07 -1.5298472e-05 -8.748433e-06 -3.4625364e-07 8.301835e-06 -7.753771e-06 1.859834e-05
1.1174333e-06 -1.623824e-05 -1.7032138e-05 4.605569e-05 2.5280883e-06 2.5462828e-06 -1.3570085e-05 1.8828692e-05
-1.906466e-05 4.7839458e-05 -1.2509272e-05 -2.7621343e-05 -3.4084194e-06 2.765471e-05 -1.5804355e-05 1.2041645e-05
1.210321e-05 4.3589388e-08 -7.53395e-06 -4.311412e-05 -8.136813e-06 2.425334e-05 -2.5963634e-05 7.992358e-05
-3.284497e-05 7.78387e-05 -1.4204284e-06 4.4721284e-05 -1.1764681e-05 -2.1996027e-05 -3.7223988e-06 6.7614933e-06
-1.4262854e-05 6.9972393e-06 -2.1489774e-05 4.734951e-05 1.8079818e-05 -0.000106185005 1.8011255e-05 -7.993026e-05
-6.7630517e-06 -2.5648053e-05 -2.0996493e-05 -2.0698565e-06 -5.202034e-06 2.0296851e-05 4.5580696e-06 2.4126948e-05
8.2344053e-07 1.1900575e-05 1.4918653e-06 2.87443e-05 3.1305783e-06 -9.14382e-06 -3.9795015e-07 -9.571633e-05
-1.1700081e-05 9.351541e-05 1.5054183e-05 4.9949003e-06 4.916732e-06 -1.7725462e-05 -1.0416259e-05 1.5331996e-05
-1.4689526e-05 1.0779114e-06 1.4242275e-05 3.6737624e-06 -1.3722561e-07 -2.1527225e-05 -2.3188994e-05 5.2111955e-05
1.0739579e-05 -1.7640884e-06 1.1827801e-05 -3.2494809e-06 1.6864649e-06 6.745973e-06 4.6285354e-06 -1.6779542e-05

exp_avg_sq f4 [128, 2]
00000000: 3766 d338 aedb 2934 6dff 8938 d5e0 dd36
00000010: 86d4 cd37 36dc 8e36 9268 8335 e68f db32
00000020: 0c18 b036 da98 2435 fab9 9237 73b7 f634
00000030: a113 7636 08c1 2235 36d5 7435 8234 1735
00000040: 95fa 2e36 f69f 8534 889a ac38 f53b 2136
00000050: f4ff 8736 8cb7 ae34 80bc a637 695a 1034
00000060: bb4e b335 93d0 d434 b79b 7337 1623 4133
00000070: 0f8b 2a35 35e1 1e34 0a08 ee34 cdc1 4735
00000080: 26dd d535 0c07 3335 52eb 5235 ec6f 8936
00000090: 48d8 0239 5e12 9436 21c1 dc36 7275 2535
000000a0: 8819 a736 6344 b735 aba4 4d36 e588 6034
000000b0: 375f 9836 83b8 0b35 cde5 1a37 8aa5 5c35
000000c0: 0a4f fb38 a567 b935 8191 a334 b35e 5035
000000d0: 21f5 9034 dae9 ba34 4650 a636 ea8b 9234
000000e0: ec08 4335 39dc 0635 5148 8836 08ee 7534
000000f0: 4fb8 5537 a5a9 8936 24a7 9439 e469 1d38
00000100: 1c3e 9834 3256 5434 9eeb d234 ae74 6d36
00000110: c4a6 7738 c0d0 3e34 78c5 5735 6819 2636
00000120: db5e c634 6c2f a736 4dd3 6e38 69fc 7c34
00000130: c9d4 f434 52d6 8535 96b5 4138 2713 4b36
00000140: 39da dc35 18c7 1134 7a57 a034 2eab bb36
00000150: eff0 e637 1789 9b35 95e8 bb36 43fb 8e34
00000160: 2843 ae36 393f 8e35 4ca4 4536 ef94 f033
00000170: bce4 5538 708a 3a35 1699 1a36 c96e 0434
00000180: 68de 8e36 c542 6036 9186 ac35 9c7f 6234
00000190: 1c1f 3d37 c09e 8835 5b13 8138 78f5 1237
000001a0: d36b c634 f344 0736 fc42 0938 586b cf32
000001b0: ec69 e534 16f9 cb36 5fdc 1334 46d6 0936
000001c0: 43d1 c936 139f a335 4f7e fb37 4a97 4337
000001d0: 49c6 b637 c766 f436 ec36 a035 594d 0035
000001e0: c534 3c38 ac52 e336 56c6 8238 7785 0537
000001f0: 852a 1c36 b3a8 e834 caa9 2737 70c8 9633
00000200: 3235 e836 8782 9634 4c0f e435 9121 b037
00000210: ff20 f636 03e8 5b36 7225 5b36 0542 7b36
00000220: ac5f ac37 0bbb cb33 bb89 cc36 b81c de34
00000230: fac5 a237 f559 0735 1697 9e36 3be8 e634
00000240: 6024 da34 45cc 8032 38de 4e38 14a2 8a33
00000250: 92f1 5738 066c 6d35 26b3 a436 70ca 7c35
00000260: eb83 5634 faf8 0736 095c 6435 bac8 2234
00000270: 32c8 0439 b71a 6137 cdf1 8434 88a6 e935
00000280: 408f cf34 395f 0236 5ed3 0737 898f 3436
00000290: 692e 0a35 5fea 4337 7985 8a33 56da 7934
000002a0: aeed 4336 4f73 8032 852f 2b38 e287 8833
000002b0: e815 8c34 3a28 f734 d084 4a37 544f ae36
000002c0: 7af9 1635 524b f134 5ea4 5a38 c939 6a37
000002d0: 14a4 1236 7af8 8032 9ab6 0538 bcfd da36
000002e0: e8d3 8f38 3b9f 9c36 7abb da37 3d78 0a37
000002f0: 1ca1 3b36 670a b935 7f52 3938 4384 ce34
00000300: 2c49 0d38 ad78 d034 a847 1c37 1888 2336
00000310: d0f2 5b37 5ecc 3036 ad49 fd38 b843 2737
00000320: fffb 5339 95d5 c336 9c66 8735 63b1 ac35
00000330: 1e47 d837 9669 c936 a70f ed35 15ee 4734
00000340: aef2 1138 b4b9 2c34 c592 af38 0b99 0937
00000350: e3c9 8738 abd9 0337 7b78 8638 05f2 bf36
00000360: dcf1 f036 6afb 4e36 908e ae38 f0fa 8d34
00000370: d375 cd36 1bfb 8636 5f09 8336 0f5c 9135
00000380: 8b59 5534 b5c4 b835 2884 0d35 47af bf33
00000390: f23d ef35 f9c6 d134 155a ae34 fe65 8935
000003a0: ab49 da37 5112 2936 78e8 5e38 07e7 9933
000003b0: ce0a 9536 9944 3835 46fb 9337 4451 af34
000003c0: 57a1 1738 8beb 8e33 6cb9 5d38 11bf ed34
000003d0: 21ff c834 380d 4a36 5767 ca38 490c 2e37
000003e0: e164 f237 761a ee33 df59 0c38 68a1 7535
000003f0: 6f32 bb36 7b11 3433 897c 8336 a99a ea34
0.00010080303 1.581927e-07 6.580246e-05 6.612487e-06 2.4536868e-05 4.2575657e-06 9.790695e-07 2.5560393e-08
5.248008e-06 6.131719e-07 1.7491158e-05 4.5954548e-07 3.6668282e-06 6.06306e-07 9.1207346e-07 5.632829e-07
2.6073878e-06 2.4889567e-07 8.230383e-05 2.402577e-06 4.0531104e-06 3.2543574e-07 1.987652e-05 1.3443936e-07
1.3359453e-06 3.9639835e-07 1.4520184e-05 4.4968225e-08 6.353229e-07 1.4796827e-07 4.4336804e-07 7.4415294e-07
1.5934099e-06 6.669295e-07 7.857353e-07 4.0959476e-06 0.00012478337 4.412882e-06 6.578994e-06 6.1638195e-07
4.97996e-06 1.3654466e-06 3.064323e-06 2.0911428e-07 4.5410375e-06 5.2050035e-07 9.23262e-06 8.219728e-07
0.00011983335 1.3813739e-06 3.0466984e-07 7.7623844e-07 2.7000445e-07 3.481535e-07 4.9565306e-06 2.729642e-07
7.2656144e-07 5.0239356e-07 4.0615346e-06 2.2903998e-07 1.2738702e-05 4.1026674e-06 0.0002835329 3.7530335e-05
2.8357397e-07 1.9775396e-07 3.9286982e-07 3.5383669e-06 5.90447e-05 1.7771072e-07 8.0381096e-07 2.4750716e-06
3.694939e-07 4.9825085e-06 5.694041e-05 2.3561155e-07 4.5603363e-07 9.971648e-07 4.61839e-05 3.0260505e-06
1.6454788e-06 1.3576607e-07 2.986597e-07 5.592962e-06 2.753033e-05 1.1588298e-06 5.6001104e-06 2.6632378e-07
5.193422e-06 1.0598225e-06 2.945092e-06 1.1202962e-07 5.0996183e-05 6.949185e-07 2.3036896e-06 1.2333761e-07
4.2578213e-06 3.3417466e-06 1.2854163e-06 2.1094314e-07 1.1272521e-05 1.0178992e-06 6.1548046e-05 8.759431e-06
3.6958826e-07 2.0156701e-06 3.272573e-05 2.4146786e-08 4.2731642e-07 6.078869e-06 1.3770612e-07 2.0539314e-06
6.014628e-06 1.2190743e-06 2.9980349e-05 1.16581305e-05 2.1788424e-05 7.2837315e-06 1.1936913e-06 4.779627e-07
4.487184e-05 6.7747515e-06 6.235826e-05 7.9584925e-06 2.327056e-06 4.3336112e-07 9.993508e-06 7.021379e-08
6.9203315e-06 2.8034648e-07 1.6991776e-06 2.0996466e-05 7.3352126e-06 3.2768592e-06 3.265534e-06 3.7440343e-06
2.0548548e-05 9.486947e-08 6.0957077e-06 4.1371618e-07 1.9404095e-05 5.0422324e-07 4.7263557e-06 4.3009808e-07
4.063213e-07 1.4994052e-08 4.9321185e-05 6.4556076e-08 5.1484974e-05 8.8446575e-07 4.9084365e-06 9.41719e-07
1.9978295e-07 2.026149e-06 8.507055e-07 1.516045e-07 0.0001266308 1.3417265e-05 2.476285e-07 1.740832e-06
3.8660983e-07 1.9426936e-06 8.09584e-06 2.6905639e-06 5.147654e-07 1.16774745e-05 6.450404e-08 2.3269362e-07
2.9195612e-06 1.4953597e-08 4.0813833e-05 6.3577104e-08 2.609297e-07 4.6036604e-07 1.2071061e-05 5.194839e-06
5.624239e-07 4.494455e-07 5.212833e-05 1.3960941e-05 2.1851201e-06 1.5014155e-08 3.1879732e-05 6.526445e-06
6.858242e-05 4.667699e-06 2.6074926e-05 8.253436e-06 2.795895e-06 1.3786602e-06 4.4184268e-05 3.8466723e-07
3.3685166e-05 3.8830822e-07 9.315008e-06 2.436811e-06 1.3109951e-05 2.6345e-06 0.00012077703 9.969743e-06
0.00020216404 5.836317e-06 1.0088147e-06 1.2866625e-06 2.5782323e-05 6.0025586e-06 1.7662431e-06 1.8619933e-07
3.4796707e-05 1.6086307e-07 8.371988e-05 8.201469e-06 6.474906e-05 7.858888e-06 6.412059e-05 5.7204184e-06
7.1807135e-06 3.0842734e-06 8.323521e-05 2.6445878e-07 6.1231926e-06 4.0227437e-06 3.905195e-06 1.0830134e-06
1.9869746e-07 1.3766318e-06 5.2718906e-07 8.926013e-08 1.7824916e-06 3.9074055e-07 3.247557e-07 1.0236979e-06
2.602193e-05 2.5193624e-06 5.3145428e-05 7.166641e-08 4.441804e-06 6.8645164e-07 1.7640774e-05 3.265542e-07
3.6151465e-05 6.655235e-08 5.2863194e-05 4.428371e-07 3.7438534e-07 3.010804e-06 9.651359e-05 1.0374069e-05
2.8895623e-05 1.1087552e-07 3.34623e-05 9.150449e-07 5.5789055e-06 4.1925414e-08 3.918602e-06 4.3698427e-07

exp_avg f4 [128]
00000000: b6e5 92b4 ef2b 4c36 9511 65b5 b634 a3b5
00000010: 4276 e4b5 a4a3 3cb6 e53e 7bb6 fc17 aa35
00000020: 588c 03b5 ddf4 5c37 5231 0336 22e6 8eb6
00000030: b934 11b6 cfdd cc34 7007 a9b4 10ed 84b7
00000040: 65ce 96b6 48e9 5738 a12e 0e37 c311 a6b6
00000050: 2f62 0c36 096d 5b36 a4be d1b5 e68f bcb6
00000060: aef2 b636 86e9 f1b7 ac06 3537 eca1 4037
00000070: 077a c1b7 12ef 7236 9838 4537 6efa adb8
00000080: 63c3 f336 6192 1cb7 82a6 29b7 10c9 4138
00000090: 922d 8db6 ee06 4036 a005 f1b7 61ce 9835
000000a0: b240 9e36 47b4 25b8 6349 f8b1 f078 8e36
000000b0: 2a73 ad37 d9f0 8b36 e772 f136 29fa 95b7
000000c0: 0b9f 3138 9813 2d38 7da7 4737 d2a7 f637
000000d0: da3d 2bb8 55a6 94b6 2bbd 00b5 e116 c9b7
000000e0: 05f8 68b7 0bf0 7037 2f40 5337 4832 8fb6
000000f0: de0c 8937 e6cb e837 b683 d3b5 82ed 75b5
00000100: 3027 1c37 29dd 56b8 fd80 10b7 fe6e eab4
00000110: e6a7 abb3 3021 5636 8d4b db36 f0dd deb5
00000120: c959 9fb5 f976 3a36 9799 9cb7 6fb9 abb5
00000130: 9674 e6b7 1afa 85b7 8d2f f237 d165 43b7
00000140: e3ee 9cb7 7808 8337 cc4e c2b6 fbf8 e5b6
00000150: 3658 72b6 28ac 19b7 e45a 9936 d2be 1637
00000160: 4cdb 06b7 9b3d 9937 c5a2 f7b5 bae6 c836
00000170: 21f0 9c37 fe37 95b7 b96d 7d37 2fd9 e235
00000180: 45d9 5f35 36ba c8b7 be21 5137 e6e1 0c38
00000190: d086 fa37 686f db37 261b 61b7 fc59 d235
000001a0: 98aa 9fb5 372a 9537 d237 5cb8 1f3c 2eb8
000001b0: 0a05 6fb7 c042 14b7 f1bd 3637 1cfd 8f37
000001c0: 84b3 e836 2127 8e37 b5e8 67b5 76da 46b8
000001d0: 4c68 3938 2601 2436 6f20 2eb6 5639 9336
000001e0: 2024 7bb6 90c0 9235 c2db 3db7 fd6a b537
000001f0: 127e e6b5 c6b7 53b5 ed14 6cb5 5757 1eb6
-2.7361756e-07 3.0423942e-06 -8.5334733e-07 -1.2159787e-06 -1.7021741e-06 -2.8109434e-06 -3.7438524e-06 1.2672967e-06
-4.900553e-07 1.31700335e-05 1.954923e-06 -4.2587208e-06 -2.1637372e-06 3.8159348e-07 -3.1484115e-07 -1.5846017e-05
-4.494376e-06 5.1477255e-05 8.474716e-06 -4.9492533e-06 2.0918776e-06 3.269701e-06 -1.5627197e-06 -5.6195886e-06
5.4522743e-06 -2.8838182e-05 1.0789994e-05 1.1481792e-05 -2.3064216e-05 3.6199967e-06 1.1755292e-05 -8.295929e-05
7.2647103e-06 -9.332406e-06 -1.0111953e-05 4.620204e-05 -4.2074325e-06 2.8614263e-06 -2.8732058e-05 1.1384947e-06
4.7162985e-06 -3.9506962e-05 -7.226093e-09 4.2460088e-06 2.0676835e-05 4.170561e-06 7.195736e-06 -1.7878674e-05
4.234821e-05 4.1264662e-05 1.1900321e-05 2.9403633e-05 -4.082718e-05 -4.4301073e-06 -4.795899e-07 -2.3971721e-05
-1.3886024e-05 1.4361004e-05 1.2591524e-05 -4.2675856e-06 1.6337664e-05 2.7751503e-05 -1.5759058e-06 -9.161523e-07
9.307449e-06 -5.1227547e-05 -8.613101e-06 -4.3666654e-07 -7.9933486e-08 3.1907803e-06 6.535504e-06 -1.6604881e-06
-1.1872554e-06 2.778541e-06 -1.866817e-05 -1.2794461e-06 -2.7472426e-05 -1.5971298e-05 2.887079e-05 -1.1646612e-05
-1.870789e-05 1.562036e-05 -5.7908237e-06 -6.853717e-06 -3.6112156e-06 -9.159594e-06 4.5703364e-06 8.9851255e-06
-8.038081e-06 1.8267709e-05 -1.8450306e-06 5.9873246e-06 1.8708468e-05 -1.7788258e-05 1.5105522e-05 1.6901521e-06
8.339014e-07 -2.392857e-05 1.2465227e-05 3.3588985e-05 2.98651e-05 2.6158712e-05 -1.3417366e-05 1.5672408e-06
-1.1896072e-06 1.7781842e-05 -5.2504074e-05 -4.1540825e-05 -1.4246683e-05 -8.837029e-06 1.08922695e-05 1.7164792e-05
6.935037e-06 1.694594e-05 -8.639284e-07 -4.7410336e-05 4.420457e-05 2.4438573e-06 -2.59469e-06 4.387616e-06
-3.7422942e-06 1.0933891e-06 -1.1316444e-05 2.1626702e-05 -1.7173027e-06 -7.887105e-07 -8.79473e-07 -2.3594673e-06

exp_avg_sq f4 [128]
00000000: 6c36 9e37 0435 3337 8de9 9436 dfbe 9e35
00000010: 2e6a 6336 912e 2636 ebac 4f36 7588 1f35
00000020: aafb fd35 a4f9 4237 e222 1a36 fad9 6e36
00000030: 5941 f434 d673 9d36 1444 d134 01a9 9434
00000040: 3f1d 4c36 826a 3736 0011 9837 1ea4 9536
00000050: 96ab 9235 a549 2d36 f440 5a36 dcac e036
00000060: d119 d237 a943 af34 7da6 2936 597b 5c36
00000070: ec5f 9a34 cd71 3536 3a4a 5b36 82ed 8438
00000080: 5133 5c36 b1d1 8035 76d7 0837 98c0 5336
00000090: f956 ad35 92bb 0137 784b e734 5c36 ec36
000000a0: 966b 8935 cd1d f335 a88f db36 bd31 8836
000000b0: 986a a336 6edb b135 7e8b ee36 f44e 5336
000000c0: 5c7b 8a36 3b77 7135 4fd8 f635 496e 3937
000000d0: 88fa 7d35 32df a636 6469 cd35 d43f 1e35
000000e0: 0b6e 9b35 7290 f036 6544 a936 175d 9d35
000000f0: 86ee 0237 7fdb 4937 3151 2736 2278 5736
00000100: 0df1 8536 704b c936 32a6 0036 e841 1d36
00000110: af1f 8c36 37f5 8936 212b 3636 e9b8 4436
00000120: e3f9 3835 0eef 2d37 87c4 5137 7880 8435
00000130: eb02 1b35 9342 8f35 8c27 b037 d065 0635
00000140: 1b57 2435 b3c4 1636 d3ec 4d36 e0df b533
00000150: eb10 3135 acc6 b336 7240 7634 41a2 6836
00000160: a47e 6934 214c 3237 b71d e835 5983 c536
00000170: a9c8 3b37 c17c b336 fa2e c735 7849 da36
00000180: 3dc8 d336 c414 f835 4f96 6236 8576 a037
00000190: d682 f737 b949 4136 53db ab36 bd35 be34
000001a0: 97eb a236 3373 6a37 3ea5 7b37 1dc5 9437
000001b0: e314 ea35 1ed5 3e37 3811 2636 8874 3a36
000001c0: 559a dd34 04b0 0e35 fe6e d435 e899 c834
000001d0: c87a 9c36 2946 3337 f40d 7236 25da 2536
000001e0: 66d3 a336 8a93 4d37 43eb 6835 16a7 8c37
000001f0: e47b df36 31da df36 6545 5036 0603 5736
1.886041e-05 1.0681575e-05 4.4379326e-06 1.1827468e-06 3.388744e-06 2.4763033e-06 3.0946055e-06 5.9430687e-07
1.8923213e-06 1.1621425e-05 2.2968093e-06 3.5591643e-06 4.5496088e-07 4.6924497e-06 3.8978817e-07 2.7690115e-07
3.0415392e-06 2.733112e-06 1.8127728e-05 4.459652e-06 1.0927786e-06 2.5821876e-06 3.252234e-06 6.6958437e-06
2.5045973e-05 3.264552e-07 2.5279871e-06 3.2854352e-06 2.8754528e-07 2.7037343e-06 3.2676749e-06 6.33849e-05
3.2812425e-06 9.597771e-07 8.156398e-06 3.1553554e-06 1.2914817e-06 7.732671e-06 4.3082014e-07 7.0396763e-06
1.0238607e-06 1.8113584e-06 6.5434324e-06 4.058906e-06 4.8701877e-06 1.325139e-06 7.1091918e-06 3.1487407e-06
4.1270814e-06 8.9953e-07 1.8391382e-06 1.1052537e-05 9.4614416e-07 4.973169e-06 1.5304363e-06 5.895247e-07
1.1580427e-06 7.169373e-06 5.0445547e-06 1.1724504e-06 7.804139e-06 1.2031639e-05 2.4932199e-06 3.2107423e-06
3.991771e-06 5.999049e-06 1.9170225e-06 2.3433186e-06 4.1760136e-06 4.111465e-06 2.7145218e-06 2.9313908e-06
6.8908975e-07 1.0367263e-05 1.2503128e-05 9.872156e-07 5.7746246e-07 1.0673706e-06 2.099925e-05 5.0067047e-07
6.1221516e-07 2.2466236e-06 3.068523e-06 8.469192e-08 6.596226e-07 5.357744e-06 2.293398e-07 3.4665138e-06
2.1745888e-07 1.0627352e-05 1.7293995e-06 5.8863484e-06 1.1192788e-05 5.349139e-06 1.4840327e-06 6.505459e-06
6.311601e-06 1.8483483e-06 3.3764115e-06 1.9128676e-05 2.950562e-05 2.8802153e-06 5.12173e-06 3.5429358e-07
4.8554025e-06 1.3974309e-05 1.4999239e-05 1.7734763e-05 1.7440437e-06 1.1374503e-05 2.474595e-06 2.778399e-06
4.127675e-07 5.315526e-07 1.5827534e-06 3.7364885e-07 4.663456e-06 1.0685567e-05 3.6068932e-06 2.4713893e-06
4.8823886e-06 1.2253304e-05 8.6769086e-07 1.6767106e-05 6.6603407e-06 6.6713187e-06 3.1034808e-06 3.2039256e-06
