PFG-GAME/config/results/train05/DifAgent/checkpoint.pt (torch, 430123 bytes, 33 tensors)

network_body._body_endoder.seq_layers.0.weight f4 [128, 1]
000000 66 3b 68 bd 2c d3 0c 3d e5 bd c2 be a9 8d 89 bf
       -0.05669727 0.034381077 -0.38035503 -1.0746356
000010 92 86 42 bf 27 7d 8f 3f e9 17 62 bf 98 25 d6 3f
       -0.7598659 1.1210068 -0.88317734 1.6730223
000020 97 8b 79 3f aa 78 b3 bf 07 c8 83 3f 0c 76 51 bf
       0.9747862 -1.4021199 1.0295419 -0.8182075
000030 df ca 18 3e a6 fe 94 be ce 41 03 40 b5 3c 8a bf
       0.14921139 -0.2910053 2.0508914 -1.0799776
000040 6b 38 be bf 01 bd 08 40 07 3c a7 3f d0 37 fa be
       -1.4860967 2.136536 1.3065194 -0.48870707
000050 0c f9 0a 3f d8 bc 48 bf 58 32 1b 3f d5 19 85 3e
       0.54286265 -0.7841315 0.60623693 0.2599627
000060 70 f2 76 bf 64 e4 a9 bf 3c ef 3a 3f 68 3a e1 3f
       -0.9646368 -1.3272824 0.7302129 1.7595949
000070 b5 ba e4 bd ff 06 b5 3f df ce ba 3f 26 86 e3 3f
       -0.11168424 1.414276 1.4594382 1.7775314
000080 ee 22 ef be 0b 8b 1a 3f 35 c1 65 3f d3 77 4f 3f
       -0.46706337 0.6036841 0.89747936 0.8104221
000090 34 31 89 bf ab d0 94 bf a1 f3 ae 3f 67 f7 fa 3f
       -1.0718141 -1.162618 1.36681 1.9606751
0000a0 53 35 86 3f 13 54 83 bf 8d 20 d9 bd b1 5d 20 bf
       1.0485023 -1.0260032 -0.10601912 -0.6264296
0000b0 a1 b5 5a bf 08 13 2f bf 14 a2 02 c0 11 69 27 3b
       -0.85433394 -0.68388414 -2.0411425 0.0025544802
0000c0 98 7e ef bf c6 a2 87 bf 69 68 86 be de 0a 43 bf
       -1.8710508 -1.059655 -0.26251534 -0.76188457
0000d0 ec be 76 3e ab 57 38 3f a0 26 2f bf 93 45 33 bf
       0.24096268 0.7200877 -0.6841831 -0.70028037
0000e0 0b 55 e6 3e f9 81 72 3e 0c 43 81 3e 42 4c bd 3f
       0.44986758 0.23682393 0.25246465 1.4788897
0000f0 b0 81 8d 3f 6f e3 7a bf 7f 69 3b bf 9a 53 69 3f
       1.1055202 -0.98003286 -0.7320785 0.9114319
000100 02 f6 b0 bc d0 da 12 3f ad 44 ca 3e ce 63 00 3f
       -0.02160168 0.5736513 0.3950552 0.5015229
000110 e3 ef 21 bf d7 b8 22 be 48 64 94 3d 6e ec c8 bf
       -0.63256663 -0.15890823 0.0724569 -1.5697153
000120 b2 92 1b bf 2f 7f 16 bf fc ed 9f bf 0f c6 10 3f
       -0.60770714 -0.58787817 -1.2494502 0.56552213
000130 19 60 50 3f 17 f7 dc 3d 2f c2 b0 bf 23 13 9b bf
       0.81396633 0.10789316 -1.380926 -1.2115215
000140 c0 f7 90 3b ce 10 30 bf d4 e2 14 3e 8d a1 04 bc
       0.0044240654 -0.6877564 0.14539653 -0.008095157
000150 50 22 31 be cb e1 0b bc 49 5b f3 bf 3f e4 5b 3e
       -0.17298245 -0.00853772 -1.9012233 0.21473788
000160 74 79 07 40 cc 68 00 40 4d e5 00 bf a7 c5 0f c0
       2.116788 2.0063963 -0.50349885 -2.2464387
000170 b4 5a 55 bf 0d 8f 25 3f 63 72 cb bf e9 54 08 3e
       -0.83341527 0.64671403 -1.5894283 0.1331364
000180 ec bc 53 3f cb 2a 6d 3f 78 21 24 bf 1c 8b 9c be
       0.82710147 0.9264342 -0.6411357 -0.30574882
000190 04 d6 56 3f 8b e9 93 3d 57 1a 93 3e 21 2d 9c 3e
       0.8392031 0.07222279 0.28731033 0.3050318
0001a0 aa 41 24 3e fb 14 dc bd 1c 29 50 3f c7 21 13 3f
       0.16040674 -0.10746189 0.8131273 0.57473415
0001b0 ee c9 75 3f 38 1e 33 bf 7c c3 3c 3e 2e 33 42 bf
       0.96011245 -0.69967985 0.18433946 -0.75859344
0001c0 65 38 55 3e f6 5a 73 be 5c 4c c1 bf dc 35 5e 3f
       0.20822294 -0.23765168 -1.5101428 0.8680093
0001d0 95 58 17 3e e5 dc 2b 3f 68 2c bd 3f 25 9c ad 3f
       0.14779885 0.67133933 1.4779177 1.3563277
0001e0 19 10 e2 3e c1 03 c8 3e 9c 9a 8e bf ef ee cc 3e
       0.44152907 0.39065364 -1.1140933 0.40026042
0001f0 35 87 30 bf f7 1e 8a bf d3 08 b9 bc e3 5d ad bd
       -0.6895631 -1.07907 -0.022587216 -0.08465173

network_body._body_endoder.seq_layers.0.bias f4 [128]
000000 0f d1 2e 3e f0 4e 36 3e 12 d0 3a 3d ed 92 1c 3c
       0.17071937 0.1780355 0.045608588 0.009556514
000010 5a 07 16 be b8 f9 1c be b6 db 9c bb 8e 58 f3 bd
       -0.14651242 -0.15329635 -0.004786934 -0.11882125
000020 2b 87 bb 3d 72 d2 c0 3d 99 a3 1f be d5 63 db bd
       0.091566406 0.09415139 -0.15589751 -0.10712401
000030 a0 8a 36 3e 7b e6 69 be d9 7b 94 3e 04 33 4d 3d
       0.17826319 -0.22841828 0.29000738 0.05009748
000040 90 55 bf 3d 2e 24 30 bd 85 ad e5 3c 5b 9c 76 be
       0.093424916 -0.043003254 0.028036842 -0.24083082
000050 9d cc b9 3d d0 f5 fd bd fe e9 27 be 89 4b 2b be
       0.0907223 -0.12400401 -0.16397855 -0.16728033
000060 14 b2 27 bd e9 0f 6d 3d bf d9 f2 bd 83 db 4c bd
       -0.040941313 0.0578765 -0.11857938 -0.05001403
000070 af 01 13 3e 22 02 19 3d ca 4e 53 3e 89 c7 1b 3e
       0.14356111 0.03735555 0.20635524 0.15212835
000080 b2 fb 79 be 89 0e 4a be c9 04 2f bd 1e 92 29 3e
       -0.2441242 -0.19732107 -0.042729173 0.16559646
000090 2f 28 4e bd 6d 0f 0b 3d 39 ee 30 be b5 b7 86 bd
       -0.05033129 0.033950258 -0.17278375 -0.06578008
0000a0 ef 84 6d bd 1a 67 9d bc f0 fc 24 3e 91 fd 67 be
       -0.057988103 -0.019214202 0.16112113 -0.22655322
0000b0 11 4a 83 bd 22 47 bf bd e1 86 a2 3d 23 b3 40 be
       -0.064106114 -0.093397394 0.07935882 -0.18818335
0000c0 0d c5 da 3d 18 89 cd 3c a8 78 93 3d 5c 0e 0e be
       0.10682116 0.025089785 0.07200748 -0.13872665
0000d0 70 c7 41 3e e8 59 d1 bd cc 33 1e be 4b 2d 88 3c
       0.18923736 -0.102222264 -0.15449446 0.01662316
0000e0 d4 28 2e bd 3c 14 16 3e 10 56 0c 3e b0 19 e3 bd
       -0.042519405 0.14656156 0.13704705 -0.11088884
0000f0 16 94 06 be 6e cb 99 bd 94 c7 1e be 7b 57 1a be
       -0.13142428 -0.07509504 -0.1550582 -0.15072434
000100 16 90 41 be df bf d0 3d 31 01 a4 bd 3c 13 86 bd
       -0.1890262 0.101928465 -0.0800804 -0.065466374
000110 f8 cb 66 be b6 f1 48 3e 01 a0 2b 3e cf dd cf 3d
       -0.22538745 0.19623455 0.16760255 0.101497285
000120 00 88 88 be c1 9c 89 be 2d 9d 43 3d 79 ae 8b bd
       -0.2666626 -0.26877406 0.047757316 -0.068203874
000130 9b 68 83 3d ff a2 24 be c6 0d 9e 3d 2e 90 b5 3d
       0.06416436 -0.16077803 0.07717471 0.08865391
000140 40 f5 1b be 61 f9 e7 bd 8f 56 07 3e d4 3b 4b 3e
       -0.15230274 -0.11326862 0.13216613 0.19847041
000150 5e cb 43 be c7 3a 3c 3e 53 eb c3 3d 18 94 17 be
       -0.19120547 0.18381797 0.09566369 -0.14802587
000160 23 27 7f 3e b0 24 7e 3e ec e5 44 be 2a 34 a3 3d
       0.24917273 0.24818683 -0.19228333 0.07968934
000170 c3 05 0a be ca 39 19 be 04 12 d4 3d d3 36 2b 3e
       -0.1347876 -0.14963451 0.10354999 0.16720133
000180 02 a0 7d 3d a2 1c e5 bc 0d 77 57 be 32 ea 81 bd
       0.061920173 -0.027967755 -0.21041508 -0.06343497
000190 ca 73 54 be 75 c3 2a be 93 3e 17 be 95 3a 18 be
       -0.20747295 -0.16676123 -0.14769964 -0.14866097
0001a0 23 7f 13 be 9f 24 c3 3d 0c 79 43 be ba 96 fe bd
       -0.14403968 0.09528469 -0.19089144 -0.124310926
0001b0 26 1a 4d bd 5e 24 54 be 13 29 e0 bd ae 8a 39 be
       -0.050073765 -0.20716998 -0.10945334 -0.18119308
0001c0 e9 a3 15 be b6 0a 78 be 4b 76 df 3d e9 6b 40 be
       -0.14613308 -0.24222836 0.109112345 -0.18791164
0001d0 da 5b c7 bd 5c a4 71 bd 2f 43 2a be ba 41 65 be
       -0.09734316 -0.058994636 -0.16627191 -0.22388354
0001e0 3d 25 3a bc 9f 3c a7 bc 3c 8d b1 3c 8e e6 1f 3e
       -0.011361417 -0.020414649 0.021673791 0.15615293
0001f0 15 e5 bb bd 30 1b 8c bc f6 cf 38 3e dc bc 44 3e
       -0.09174553 -0.017102808 0.18048081 0.19212669

network_body._body_endoder.seq_layers.2.weight f4 [128, 128]
000000 13 01 90 bd 2c 1c 7a be 80 d6 10 3d cd 40 25 be
       -0.07031455 -0.24424809 0.035360813 -0.16138001
000010 c1 2c 23 bc d3 c4 ab 3c fa e2 a2 bc 5e 2a fd bc
       -0.009959401 0.020967877 -0.019883621 -0.030903991
000020 f9 18 01 3d 18 c8 15 3d fa a2 13 3d 19 70 d8 3d
       0.031517956 0.036567777 0.0360441 0.10568256
000030 29 ca 19 3d 18 f1 4c bc dc 78 02 3e f1 ca 76 3d
       0.03754631 -0.012508653 0.12741417 0.060252134
000040 50 fb c9 bc 3e a9 a1 3d 29 2a fe bd bb 5f 26 3e
       -0.024655968 0.078936085 -0.12410385 0.16247456
000050 88 3b 02 ba 34 f8 da bd 60 64 ba 3d 0d 86 16 3e
       -0.00049679773 -0.10691872 0.09101176 0.14699574
000060 67 92 5c bb ff 01 d6 3d 89 87 32 3e 4c 41 da bc
       -0.0033656599 0.104495995 0.17434515 -0.026642464
000070 23 39 d6 bd 32 3f 25 3e 84 2b bd 3d 38 04 78 3d
       -0.10460117 0.16137388 0.092368156 0.0605509
000080 be f2 8e 3d 4d 57 da 3d bf 34 b7 3d f8 49 d4 3c
       0.06979893 0.106611826 0.089456074 0.025914177
000090 49 58 21 3e 3a 3c 5e bd 99 80 9e bd 63 f8 db 3d
       0.15756334 -0.054256655 -0.07739372 0.107407354
0000a0 44 9c a3 bd ac 47 f3 3c 5b ac 84 bc d2 3b 98 bd
       -0.0798879 0.029697262 -0.016195467 -0.07433285
0000b0 80 92 c9 bd de 67 31 bd 41 e4 98 3c 02 7a 82 3d
       -0.09842396 -0.043311946 0.018663527 0.063709274
0000c0 9c af 1e 3d f3 6e 69 3e 34 f7 09 3d 5e b8 25 bd
       0.038741693 0.2279623 0.033683017 -0.04045903
0000d0 b0 3b 05 b9 36 61 56 bd 5b ad e9 bd 38 ed c8 3a
       -0.00012706104 -0.0523388 -0.11410018 0.0015329486
0000e0 79 08 46 3d 22 c3 e9 3c 8d 92 d3 bd 2f 56 5a 3d
       0.048347924 0.02853543 -0.10330687 0.053304847
0000f0 a6 16 98 3d 92 7a fc 3d a7 c8 37 bd e3 96 df 3b
       0.07426195 0.12328066 -0.04486909 0.006823407
000100 80 e0 fe 3d e5 88 2c 3d 22 d9 d0 bc 93 70 c7 3c
       0.12445164 0.04212274 -0.025494162 0.024345672
000110 1c b6 f3 3d 99 53 35 bd ca 3b 53 3b 63 93 a5 3d
       0.11899969 -0.044269178 0.0032231682 0.080847524
000120 74 dc 31 3e cc 1f 03 3c 6f 14 c4 3d f7 d5 a6 3d
       0.17369252 0.008003186 0.0957421 0.08146279
000130 d5 3d 9e 3d a3 fe 50 3e 56 45 46 3e 89 53 6f 3e
       0.07726637 0.20409636 0.19362387 0.2337171
000140 48 97 8f 3d c4 c5 30 3e 12 33 9a 3d c8 e0 79 be
       0.070112765 0.17262942 0.07529272 -0.24402153
000150 fd 7e c1 3d 50 52 89 be 3a da c3 bd 26 c2 36 bd
       0.09448049 -0.26820612 -0.09563108 -0.044618748
000160 a6 52 0a bd 38 a8 1d be 86 3f 1a 3e 9d 81 31 bd
       -0.033770226 -0.15396202 0.15063295 -0.0433365
000170 17 e9 12 3e 2b dd 6f 3b 84 cf 6e 3d a9 7b 01 be
       0.14346729 0.0036600332 0.05830337 -0.12644829
000180 ad 3c c9 3d 91 e0 ff 3d d1 1a db 3c 79 d8 02 bd
       0.09826026 0.124940045 0.026746185 -0.031944726
000190 5f 36 84 bd 19 29 15 3e 4f 87 79 3e 73 e5 27 3e
       -0.06455683 0.14566459 0.24368022 0.16396122
0001a0 df a3 06 be bb c8 bb bd 0b 69 a6 3d bf 99 a9 ba
       -0.1314845 -0.09169146 0.08125504 -0.0012939497
0001b0 ca 02 21 3e 84 14 05 3d 97 3f 9f 3d 5e 54 c0 3d
       0.1572372 0.03249027 0.07775801 0.09391092
0001c0 f7 18 99 bc 77 cc e9 bd 77 56 3a 3b 2d 05 0b bd
       -0.018688662 -0.11415952 0.0028432885 -0.033940483
0001d0 77 86 1c 3d 90 ce e8 3d 16 b3 2e 3d 84 bd 07 bd
       0.038214173 0.11367524 0.04265126 -0.03313972
0001e0 dd f4 af bd 28 ca bf 3d cd 7a 38 bc 6a 96 b0 bd
       -0.08591626 0.0936473 -0.011259747 -0.08622439
0001f0 3b 24 7a 3c e4 f3 aa 3d 78 7f 3a be 9f 6b c1 bd
       0.015267427 0.083473 -0.18212688 -0.09444355
000200 ca 1f 83 3d 0c 63 29 3e 8c c2 79 3c 49 91 0e bd
       0.06402548 0.1654169 0.0152441375 -0.034806523
000210 c8 b3 38 3c 27 c0 f4 bd c5 7f 0c bd e8 cc e2 3c
       0.011273332 -0.11950713 -0.034301538 0.027685598
000220 1a e8 ac 3c 78 2b 40 ba 9e 44 27 be 2d aa 15 3e
       0.021106768 -0.0007330696 -0.16334769 0.14615698
000230 20 11 28 3e 14 b1 15 bd e2 39 02 bd 5d d5 c7 bd
       0.16412783 -0.036545828 -0.031793483 -0.09757493
000240 cd c7 6a 3d 5f 8a 9d bd 69 45 43 3d 08 b3 ae 3d
       0.05731945 -0.07692408 0.047673617 0.08530241
000250 79 5a aa 3d 38 5a 08 bd e6 66 75 3b 32 e3 90 bd
       0.083180375 -0.033289164 0.0037445365 -0.07074584
000260 84 55 83 bd e9 c9 92 3c 87 9b fb bd 02 db ee bc
       -0.06412795 0.017918544 -0.12285524 -0.029157165
000270 84 9e 38 bd 34 4e fd ba fb ac 1e 3e c9 e0 73 bc
       -0.045073047 -0.0019325675 0.15495674 -0.014885136
000280 0b 5d ce 3c ab 0a d7 bd 59 e1 0e 3e 1a 4b 0a be
       0.02519085 -0.10500082 0.13953151 -0.13505211
000290 9f 36 86 bd 1c bc bd bd df 44 e1 3c 0f c2 80 bd
       -0.06553387 -0.09264395 0.02749866 -0.06287014
0002a0 72 0d 51 3d 54 17 20 bc c5 ed 04 3e 4a 6e 58 be
       0.051038213 -0.009771187 0.12981327 -0.21135822
0002b0 70 dd 93 bd d0 48 af 3c e3 da bb 3d c2 b0 ce be
       -0.0721997 0.021397024 0.09172609 -0.4036923
0002c0 e5 52 cf 3d e2 28 8d 3c cb e8 75 3d 77 89 80 bc
       0.10123233 0.017231409 0.06003646 -0.015690548
0002d0 1c 85 00 3e ef d1 1a bb 07 f6 05 3d 57 28 cf bd
       0.12550777 -0.0023623665 0.032705333 -0.10115116
0002e0 4f d9 e7 bd e9 b9 18 3d 61 69 c3 bc 3d 3e 02 3e
       -0.11320745 0.037286673 -0.02385396 0.12719055
0002f0 fb 2c 16 3e 3e c1 79 bd f3 14 87 3b 12 d4 49 3d
       0.14665596 -0.060975306 0.0041223704 0.04927451
000300 6c e2 b7 bd f5 4c cf bd 10 3a 0d 3d 89 4e 02 3e
       -0.089787334 -0.101221 0.0344792 0.12725271
000310 f1 55 4a bd 29 35 1a 3e b7 c4 d4 3b 42 36 21 3e
       -0.049398366 0.15059341 0.006493177 0.15743354
000320 62 90 67 bd dc b1 8c be 58 27 69 bd 06 da 74 3d
       -0.05653418 -0.27479446 -0.056922287 0.059778236
000330 e3 12 1b be fa d0 65 be 7b 01 98 bc 47 57 5d 3d
       -0.15143923 -0.22443 -0.018555393 0.054038312
000340 fb 76 3f be 3d e8 44 3d 01 42 e5 3c 4d b1 23 3e
       -0.18697731 0.048073042 0.027985575 0.15985604
000350 fa 4c 76 be 77 f7 43 3e 36 d2 95 3d a5 07 a0 3c
       -0.24052802 0.19137369 0.07315485 0.019534895
000360 e6 ec c2 3c d0 37 43 bd 3d 23 e1 bd d0 2c fe 3b
       0.023794603 -0.04766065 -0.10993049 0.007756807
000370 c5 3e 13 be 5b 1c 5a be f7 30 14 bd 6c ad 0c bc
       -0.14379413 -0.21299879 -0.03617951 -0.008586269
000380 a8 69 08 3d f7 39 f1 bc 4c 52 91 bc 09 30 d3 b9
       0.033303887 -0.029446585 -0.017739438 -0.00040280845
000390 b2 31 41 bb 58 c8 76 be a3 f1 80 bd 4a 6e db 3d
       -0.0029479084 -0.24099863 -0.062960885 0.10714395
0003a0 b9 05 6d bd 9d 5b bc 3c 16 0f 33 be ec 3a 6f 3d
       -0.057866786 0.022992903 -0.17486224 0.0584058
0003b0 5a a7 e4 3d 2f c3 0f be 76 d2 b7 bd 03 96 2d be
       0.11164732 -0.140393 -0.08975689 -0.16951756
0003c0 c3 1c 12 3e 05 3d 42 be 39 bd 95 bd e2 f6 2e be
       0.14268784 -0.1896859 -0.07311482 -0.17086366
0003d0 6c 31 8f 3d e2 17 5b 3d 99 e1 6a bc d0 d6 8c 3d
       0.06991848 0.053489573 -0.014336013 0.0687691
0003e0 9f 92 b8 3d d7 11 f0 3d 6d 99 64 be 05 a0 01 be
       0.09012341 0.11722153 -0.22324152 -0.12658699
0003f0 36 0d 80 3d 08 3f 1e 3e 35 f4 54 3e 31 cd 4b 3d
       0.0625252 0.15453732 0.20796283 0.049756233

network_body._body_endoder.seq_layers.2.bias f4 [128]
000000 8b de f1 bd 8d 85 21 3e 17 5b 3c 3e e6 76 1e be
       -0.11810025 0.15773602 0.18394123 -0.15475044
000010 f3 58 a9 bd af 49 26 be 35 75 a1 3d e4 f0 d2 bd
       -0.08268919 -0.16239046 0.078836836 -0.102998525
000020 f0 ec 94 bd 1e 25 1f be 5f f9 43 be ce 5b 48 3e
       -0.07271755 -0.15541503 -0.19138096 0.1956627
000030 47 f8 20 bd 41 50 a7 bd 13 28 73 bd be 50 e7 bd
       -0.039299276 -0.08169604 -0.05936439 -0.11294697
000040 99 22 f5 bd 0c 5f 1b be 06 e6 76 bd ae fa d8 bd
       -0.119694896 -0.15172976 -0.06027796 -0.10594688
000050 45 40 d2 3c 16 20 34 3e 5d 5d 0f 3e 02 17 ba bd
       0.025665412 0.17590365 0.14000459 -0.0908642
000060 99 75 1e be 96 45 88 3d 9e 79 2b be 1e ed 0c be
       -0.15474547 0.066538975 -0.16745612 -0.13762328
000070 a8 29 30 be 14 f7 33 3e dd 0a 38 3e 2e ab 25 3e
       -0.1720339 0.17574722 0.17972894 0.16178581
000080 56 53 ec bd b9 cd d7 bd 8b 54 09 3e 19 55 f8 3d
       -0.115393326 -0.10537285 0.13411157 0.12125606
000090 bf 10 4a bd 17 60 ad bd 58 79 37 be 90 08 2b 3e
       -0.049332377 -0.08465593 -0.17917383 0.16702485
0000a0 88 9a 37 be b3 ac d2 3d 40 ae a2 3d c9 da ee bd
       -0.17930043 0.10286846 0.07943392 -0.11662824
0000b0 29 bd e0 bd cb 1b ae 3d 9f 81 e3 bd 4e d1 07 3e
       -0.109735794 0.08501395 -0.11108708 0.13263437
0000c0 aa 53 ec bd c0 6d a4 bd d4 f8 ae bd 71 48 1a be
       -0.11539395 -0.08028746 -0.08543554 -0.15066697
0000d0 5c 12 a5 bd 79 40 d8 bd 94 7d aa bd c6 d8 ff bd
       -0.080601424 -0.10559172 -0.083247334 -0.12492518
0000e0 46 b0 0c 3e a1 28 37 3e 13 d8 3a be 13 61 fb 3d
       0.13739118 0.17886592 -0.18246488 0.12274375
0000f0 e0 02 b2 3d 8b 97 37 3e 7b d2 20 be db c9 39 be
       0.086919546 0.17928903 -0.15705292 -0.18143408
000100 1d ac 5f 3e fa 5f f4 bd fb c2 bf 3d a7 80 b7 bd
       0.21843 -0.119323686 0.093633614 -0.08960085
000110 a6 30 dd bd f4 d6 8c 3d 43 2f 58 3e aa 0f ec bd
       -0.108002946 0.068769366 0.21111779 -0.11526425
000120 37 66 af 3d 8f d9 a2 3d 67 cb e8 3c c3 35 21 be
       0.08564418 0.07951652 0.028417302 -0.15743165
000130 99 26 40 3e 6e eb d0 bd 70 f2 22 be d9 f0 e5 bd
       0.18764724 -0.10201155 -0.15912795 -0.11227579
000140 4c 77 8f 3d b4 1a 2f 3e 4b 5a c1 bd 09 53 62 3e
       0.07005176 0.1710003 -0.0944105 0.22101988
000150 d0 6d 9a 3d ef 22 bf bd d6 a2 48 3e 03 ad fb bd
       0.07540476 -0.09332835 0.19593367 -0.12288859
000160 1c d8 cf bd 81 76 ec bd 29 43 18 3e 00 57 e4 bd
       -0.101486415 -0.1154604 0.1486937 -0.111494064
000170 f4 fe d3 bd 75 54 9d 3d 3c f3 3d be 9c 75 40 3e
       -0.10351363 0.076821245 -0.18549818 0.18794864
000180 62 2b 06 be 17 88 f8 bd 4d ce 3b 3e 05 56 03 be
       -0.13102487 -0.12135332 0.18340416 -0.12825783
000190 0a 18 10 be ba 3c e9 bd bf 61 2c 3e b1 41 81 3e
       -0.1407167 -0.11388536 0.16834162 0.2524543
0001a0 6f b7 33 3e a6 12 2f be c8 49 e3 bd 65 92 43 3e
       0.17550443 -0.17096958 -0.11098057 0.19098814
0001b0 c6 de 0e 3e b8 7c 2e be 5d d7 fd bd f4 da e2 3d
       0.13952169 -0.17039764 -0.12394593 0.11076918
0001c0 87 cb e1 3d 07 87 78 bd 19 18 46 3e d5 44 5d 3e
       0.11025148 -0.060675647 0.1934513 0.21608289
0001d0 b7 08 f8 bd 2d 73 27 be c8 36 d2 bd 23 45 60 bd
       -0.12111037 -0.1635253 -0.10264355 -0.054753434
0001e0 6b 51 a6 bd 03 4d 0a be 53 dd fa bd a7 79 48 3e
       -0.08120998 -0.1350594 -0.122492455 0.19577657
0001f0 a2 1d 0a 3e eb 52 f2 bd 8d ec ff 3d 90 57 3c be
       0.13487867 -0.118322216 0.1249629 -0.18392777

action_model._discrete_distribution.branches.0.weight f4 [3, 128]
000000 c6 3c fb bc 32 f0 8a 3d c2 a5 d6 3d ab 0c 54 bd
       -0.030668627 0.06784095 0.104808345 -0.051769894
000010 61 e6 55 be 5f 97 b9 bd ee ef 7e 3d e5 0c 63 be
       -0.20888664 -0.09062075 0.062240534 -0.22172888
000020 a8 4e 35 be 45 12 8e bd 44 b5 27 be e3 5a 15 3e
       -0.17705786 -0.069370784 -0.16377741 0.14585452
000030 8d ab 1d bd 3d 15 ca bd 41 cb 1b be ba 18 5c be
       -0.03849368 -0.09867332 -0.15214254 -0.21493807
000040 5a 05 31 be 93 87 c3 bc 57 69 c7 bc b6 e4 66 be
       -0.17287198 -0.023868358 -0.024342222 -0.22548184
000050 8f 97 6b 3b 50 97 c7 3d 66 8f 4d 3d 0c f6 63 be
       0.003594849 0.097456574 0.050185584 -0.22261828
000060 39 d0 e8 bd d5 7c 56 3d ce 30 9c bd f8 bc 1b be
       -0.1136784 0.052365143 -0.07626496 -0.15208805
000070 78 7e 79 bd 43 b5 9d 3d bb 31 99 3d 6b 53 ba 3d
       -0.060911626 0.077005886 0.074801885 0.09097942
000080 5a a0 5c be 95 19 6d be bb 96 af 3d 9c 50 45 3d
       -0.21545544 -0.2315429 0.085736714 0.04817258
000090 01 3b a8 bc 81 fd 67 be 5c 40 f4 bd d1 a3 af 3d
       -0.020535948 -0.22655298 -0.11926338 0.085761674
0000a0 1d 10 0a be d6 b7 53 3d 1c 96 8e 3d 9c 2e 5a be
       -0.13482709 0.05168899 0.06962225 -0.21306843
0000b0 11 fc 38 be b3 41 b5 3d f7 42 70 be 22 55 8b 3d
       -0.18064906 0.08850422 -0.23463045 0.06803347
0000c0 c1 2f 6b be 62 18 f8 bd 86 1b 62 be b8 69 b2 bd
       -0.22967435 -0.12114026 -0.22080812 -0.087115705
0000d0 18 8f 29 be b3 c7 56 be 5b 3b 62 be 5c 28 95 bd
       -0.16558492 -0.20974617 -0.22092955 -0.072830886
0000e0 9a f6 83 3d ed 70 0a 3e b2 8f 27 bd a6 15 6e 3d
       0.0644352 0.1351964 -0.040908523 0.058126114
0000f0 e1 ce b2 3d ab eb e6 3d a5 7a 87 bd 1f 7d 9d bd
       0.08730865 0.11275419 -0.066151895 -0.076898806
000100 60 bb 1f 3e 0a 49 6a be 19 23 f5 3c 8b 3a a5 bd
       0.15598822 -0.22879425 0.029923962 -0.08067807
000110 13 df 63 be 29 93 35 3c 73 03 f0 3d 0b c9 60 be
       -0.22253065 0.011082449 0.11719408 -0.21951692
000120 57 00 ac 3d 69 8c 8c 3d e0 db a6 3b 65 d7 3b bd
       0.08398502 0.068627186 0.005092129 -0.045859713
000130 5f ad cb 3d 78 76 15 bd af 3b 81 bd 28 14 68 be
       0.09945177 -0.036489934 -0.06310212 -0.22663939
000140 ba 7e 8c 3d 40 23 ba 3d fe 67 6e bd 17 d5 02 3e
       0.06860109 0.09088755 -0.058204643 0.127766
000150 68 c3 49 3d 7a 15 63 be 14 cc c1 3d 89 06 62 be
       0.04925862 -0.22176161 0.09462753 -0.22072805
000160 f8 82 77 be 4c 4e 4f be ad 3a 80 3d 32 2d 71 be
       -0.24171054 -0.20244712 0.062611915 -0.23552397
000170 da 9e 60 be 0f 94 31 3c 15 de c0 bd b0 6b 06 3e
       -0.21935597 0.010838523 -0.09417359 0.13127017
000180 f8 0e 41 bd c3 95 d4 bd 31 48 b0 3d 57 21 40 bd
       -0.047133416 -0.10380127 0.086075194 -0.046906795
000190 0c e3 43 bd 3a c8 6a be d8 45 af 3d ae 6c 2b 3e
       -0.04782395 -0.22927943 0.085582435 0.16740677
0001a0 9e f2 ca 3d 63 fb 1e be 35 c8 71 be 9d cd c3 3d
       0.09909557 -0.15525584 -0.23611529 0.09560702
0001b0 ef 1e 7d 3c 46 6e b9 bd 0f d1 1c bd bf 22 88 3d
       0.01544927 -0.09054236 -0.03828531 0.06647252
0001c0 5d d7 f8 3c 36 1c 1f be 85 ce 04 3e cf 99 06 3e
       0.03037613 -0.15538105 0.12969406 0.13144611
0001d0 49 a4 6c be c7 72 a1 bd f5 26 68 be b0 5f 48 be
       -0.23109545 -0.0788322 -0.22671111 -0.19567752
0001e0 2a fd 6e be 71 c0 67 bd 8b fa 64 be 2c 57 0d 3e
       -0.23338762 -0.05658001 -0.223612 0.13802785
0001f0 50 98 63 3d 28 2e 53 be b2 d3 5e 3d cf 40 1b be
       0.05556518 -0.20623076 0.054401107 -0.15161441
000200 5e 88 75 bc 93 ae 85 bd c1 56 d4 bd 2e 5b b0 bc
       -0.014986126 -0.06527438 -0.103681095 -0.021527853
000210 b5 42 13 3e 86 d2 32 bc 6a 22 47 bd c9 ed f6 3d
       0.14380915 -0.0109144505 -0.048616804 0.12057073
000220 f9 2b a6 3d 02 17 71 bc ae 5a b1 3c 5c 15 08 be
       0.08113856 -0.014714958 0.021649685 -0.13289398
000230 aa 88 9c 3c 36 11 7d 3d d0 1c 71 3d 73 f0 00 3e
       0.019108135 0.06178399 0.05886537 0.12591724
000240 4a be e5 3d e6 e2 eb bc e4 d3 71 bd f2 d3 04 3e
       0.112179354 -0.028794717 -0.059039965 0.12971476
000250 ce 66 f6 bc be fe cf bd dd bb 4e bd eb 3f 01 3e
       -0.030078318 -0.1015601 -0.05047213 0.12622039
000260 00 fa aa bb 4f a5 27 bd 4e 9f a1 bc a3 44 a7 3b
       -0.0052177906 -0.040929135 -0.019729283 0.0051046177
000270 cb 09 14 bd 7f 92 9b bd 45 09 83 bd 6a 1d 8d bd
       -0.03614215 -0.07596301 -0.063982524 -0.06890376
000280 d4 6f f9 3d 01 d1 db 3d 05 f7 1a bd a3 22 11 bd
       0.12179533 0.10733224 -0.037833232 -0.035433423
000290 c2 8d f7 3b d4 03 05 3e bc 47 21 bc e0 15 a7 bd
       0.0075547406 0.12989742 -0.009843763 -0.08158469
0002a0 d3 52 d2 38 62 47 20 bd 66 e1 24 bd 2c 67 f3 3d
       0.000100290075 -0.039130576 -0.04025402 0.11884913
0002b0 c7 cf b8 3d 10 c0 54 bd 1e 1f 07 3e 59 81 67 bc
       0.090240054 -0.051940978 0.13195464 -0.01412996
0002c0 2b 50 f0 3d 7f 3b aa 3d 7d 7a 11 3e 38 10 90 bc
       0.11734041 0.08312129 0.14206882 -0.017585859
0002d0 9e 41 c3 3d c0 c5 f0 3d d7 0d 01 3e 2f 15 61 bc
       0.09534 0.11756468 0.12602936 -0.013737961
0002e0 30 e5 51 bd 68 02 c9 bd e3 12 d8 bc 1c 6e 56 bc
       -0.05124396 -0.09814912 -0.026376193 -0.013087776
0002f0 36 1f 6d bd 31 06 a9 bd c6 0b 6f bc 19 70 29 3b
       -0.057891093 -0.08253134 -0.014590209 0.002585417
000300 68 d9 03 be 16 0e f4 3d 21 49 c2 bc 37 e7 a2 bc
       -0.12875903 0.11916749 -0.023716511 -0.019885642
000310 87 35 f9 3d cc 69 43 bc 1d 18 b4 bd 90 a0 08 3e
       0.12168413 -0.011927079 -0.08793662 0.133425
000320 44 b1 72 bd 77 54 20 bd 24 30 6a bd 86 9f 02 bd
       -0.059251085 -0.039143052 -0.057174817 -0.031890415
000330 93 84 b4 bd 38 ca 0d bd 8d ac 5b bc 26 4f f3 3d
       -0.08814349 -0.03461668 -0.0134078385 0.11880331
000340 6c e1 24 bd 0c 8f 90 bd 07 2d 1b bd 58 dd c5 bd
       -0.04025404 -0.07058534 -0.03788474 -0.096613586
000350 45 93 55 bd 33 34 08 3e 48 cf a7 bd be 6d f2 3d
       -0.0521424 0.13301162 -0.08193833 0.11837338
000360 07 e9 0b 3e 8f f8 06 3e d6 60 2f bd 37 b7 0a 3e
       0.13663112 0.13180755 -0.04281696 0.13546453
000370 4e 05 04 3e c3 7d 43 bd a3 6b 59 bc f8 ad 01 be
       0.12892649 -0.047727358 -0.0132702915 -0.1266402
000380 e7 b4 07 bd e9 e5 94 3d 1c 05 7e bd 9b ca 04 bd
       -0.033131506 0.072704144 -0.06201659 -0.032419782
000390 47 bc de bc e8 e5 e2 3d 4e 45 be bd 5b 89 f4 bd
       -0.027189387 0.110790074 -0.092905626 -0.11940261
0003a0 87 0d b5 bd e8 eb 15 3b 2e f8 e9 3d 1c 12 a8 bd
       -0.08840471 0.0022876207 0.1142429 -0.08206579
0003b0 97 fc af bc 62 b5 ff bc f6 97 f2 bc b6 ed 1d bd
       -0.021482749 -0.03121442 -0.029613476 -0.038556777
0003c0 03 6f 36 bd a4 78 c5 3d 7a 47 c6 bd f3 3b bf bd
       -0.044539463 0.09642151 -0.09681602 -0.09337606
0003d0 9e 49 f1 3d 97 ba e4 bc e2 fc 07 3e 2f e8 b8 3d
       0.117816195 -0.027921004 0.13280061 0.090286605
0003e0 fe 7e 04 3e 24 8a 1d bd 36 8d fc 3d fb 7e ce bd
       0.12939069 -0.03846182 0.12331621 -0.10082813
0003f0 95 64 4b bd e2 ef 07 3e 38 c6 5b bd 94 9c 51 3c
       -0.04965647 0.13275102 -0.053655833 0.012793679

action_model._discrete_distribution.branches.0.bias f4 [3]
000000 6a a9 27 3e c7 e6 ec bd e0 8d cd bd
       0.1637322 -0.11567455 -0.10036826

exp_avg f4 [128, 1]
000000 58 58 a3 36 27 e4 7e 36 62 7e 07 35 12 e2 7b 33
       4.868063e-06 3.7981752e-06 5.047533e-07 5.86461e-08
000010 78 99 cc b4 7b 52 7a b5 9a d7 34 b4 ab 2e 96 b4
       -3.8109624e-07 -9.325228e-07 -1.6842242e-07 -2.7973633e-07
000020 c4 5a 71 b4 96 04 17 35 f2 d1 81 b5 e9 87 ab b5
       -2.2477894e-07 5.6258557e-07 -9.672351e-07 -1.2780048e-06
000030 0f f7 37 35 cb c7 10 b6 23 21 9e 34 8c 8e 41 b3
       6.853233e-07 -2.1573967e-06 2.9453903e-07 -4.506596e-08
000040 24 c0 a3 35 50 1d 9a b0 d2 9f 36 b4 fe 48 92 b5
       1.2200367e-06 -1.1213306e-09 -1.7008213e-07 -1.0899091e-06
000050 85 96 f1 b4 66 dc 58 b5 e7 eb a1 b5 70 51 d9 b5
       -4.4999265e-07 -8.078699e-07 -1.2064091e-06 -1.6191461e-06
000060 a7 6a 96 b3 24 e4 9a b2 f3 01 9c b5 e8 2a 25 b4
       -7.004319e-08 -1.8031706e-08 -1.1623473e-06 -1.5382432e-07
000070 0c e0 49 36 ad ad a3 b4 50 29 b7 b3 30 57 2e 33
       3.0081746e-06 -3.0487482e-07 -8.529116e-08 4.059183e-08
000080 0b 6f b0 b5 e9 7a 92 b5 dc 71 3e b5 b6 7b e3 b4
       -1.314534e-06 -1.0913619e-06 -7.0946203e-07 -4.2372056e-07
000090 8a ca 7d b4 4c a1 99 31 17 f6 09 b5 ca 22 04 b4
       -2.3636144e-07 4.4712234e-09 -5.1394585e-07 -1.2306114e-07
0000a0 9d 40 21 b5 49 db f9 b4 59 1e 56 36 63 44 05 b6
       -6.00712e-07 -4.6539415e-07 3.190615e-06 -1.985835e-06
0000b0 90 23 6a b5 17 69 f3 b4 39 2d 19 36 08 22 81 b6
       -8.7223543e-07 -4.533874e-07 2.28251e-06 -3.8484613e-06
0000c0 17 92 37 36 f4 e9 15 34 42 bd 89 35 4c 3f 43 b5
       2.735416e-06 1.3961818e-07 1.0262377e-06 -7.273527e-07
0000d0 d1 11 5b 35 58 ca 29 b5 d2 2d 9d b5 b8 1a 97 33
       8.1609784e-07 -6.3251855e-07 -1.1710747e-06 7.0363456e-08
0000e0 d2 14 a2 b5 85 8d 12 35 bc 60 85 34 e5 2c 1d b5
       -1.2076e-06 5.4595176e-07 2.4843564e-07 -5.855239e-07
0000f0 13 bf 21 b5 43 88 7e b5 3f 58 00 b5 32 46 58 b5
       -6.0255223e-07 -9.482066e-07 -4.781213e-07 -8.056842e-07
000100 b1 37 4a b6 52 eb 0a b5 bd 7f 97 b5 6e e5 8c b5
       -3.0132762e-06 -5.175144e-07 -1.1287553e-06 -1.0497586e-06
000110 5d be af b5 35 9c 4e 36 bc 00 26 36 36 c4 12 36
       -1.3093919e-06 3.0787317e-06 2.4736355e-06 2.1869905e-06
000120 e4 d4 03 b6 c5 ff 0e b6 4b 96 c0 b2 f8 d1 53 b5
       -1.964444e-06 -2.1308526e-06 -2.2420087e-08 -7.890917e-07
000130 23 1f d4 b4 ec 01 3a b6 31 3d 15 35 7c 45 99 35
       -3.9510732e-07 -2.7717278e-06 5.559587e-07 1.1419611e-06
000140 4b e5 5a b6 6f a0 89 b4 4b 7d 21 35 66 d0 be 36
       -3.2617997e-06 -2.563497e-07 6.01595e-07 5.686702e-06
000150 9d 48 17 b6 a6 ab bd 36 ff 14 42 36 cb 79 d2 b5
       -2.254302e-06 5.6526214e-06 2.8920474e-06 -1.5681666e-06
000160 88 e9 47 34 2a 64 da 34 c0 cb f1 b5 f9 5d 36 36
       1.8618277e-07 4.0678543e-07 -1.8015198e-06 2.7174813e-06
000170 03 d2 4b b5 93 49 9c b5 64 23 f1 35 b2 fd 8e 35
       -7.5929e-07 -1.1644319e-06 1.7966199e-06 1.065366e-06
000180 c4 86 03 b5 a9 f7 4b b5 79 09 9d b5 4a 1f 9a 33
       -4.899741e-07 -7.5983786e-07 -1.1700168e-06 7.176875e-08
000190 1f d9 9a b5 47 a8 4c b6 67 db e6 b5 72 93 d1 b5
       -1.1537085e-06 -3.049632e-06 -1.720019e-06 -1.5614626e-06
0001a0 80 1f fa b5 9e 1a d9 35 2d a6 b2 b5 4a 40 df b5
       -1.8635619e-06 1.6175507e-06 -1.3310397e-06 -1.6633505e-06
0001b0 fa 7e e0 b4 93 1a 70 b5 5e ec c6 b5 38 a7 c1 b5
       -4.181564e-07 -8.944564e-07 -1.4820941e-06 -1.4428288e-06
0001c0 a2 7e c2 b5 e7 e9 fc b5 4a 60 cf 35 f3 12 a7 b5
       -1.4490981e-06 -1.8843538e-06 1.5450726e-06 -1.2447985e-06
0001d0 2d 84 88 b5 57 46 85 b5 6a 9a e4 b4 e0 9f 37 b5
       -1.0171258e-06 -9.929744e-07 -4.258066e-07 -6.840546e-07
0001e0 c4 b8 4c b5 6c a3 4a b5 9d 10 00 b5 d7 7d 39 b4
       -7.626479e-07 -7.5488674e-07 -4.770789e-07 -1.7275248e-07
0001f0 e7 af 3b b2 64 f2 ad b4 8f 0f c3 36 ca de 97 36
       -1.0924828e-08 -3.2400123e-07 5.813264e-06 4.5260867e-06

exp_avg_sq f4 [128, 1]
000000 5c d7 e3 36 9b 50 b1 36 7f 6e 81 33 41 91 bc 33
       6.7901983e-06 5.284395e-06 6.02713e-08 8.780854e-08
000010 f9 13 4f 33 86 49 51 36 68 0d 88 33 ac c5 7d 35
       4.821411e-08 3.1186223e-06 6.335432e-08 9.4537495e-07
000020 ae 57 b5 33 95 54 7d 33 2e 0d 2b 36 42 bb 16 34
       8.444418e-08 5.898308e-08 2.5488657e-06 1.4037963e-07
000030 9a ee a6 34 de c1 bb 34 db 32 b5 34 fa 79 45 33
       3.1093515e-07 3.497252e-07 3.375088e-07 4.5978574e-08
000040 ac cd 95 33 f9 d8 23 33 62 cd 2e 34 c9 ad a4 33
       6.975765e-08 3.814873e-08 1.627973e-07 7.6684564e-08
000050 2b 00 fb 33 99 b7 b2 33 ce 4d 18 36 3c 6e 12 36
       1.1688129e-07 8.322167e-08 2.2695053e-06 2.181986e-06
000060 b3 74 82 33 17 d8 99 33 f7 64 38 36 5e f9 76 34
       6.074824e-08 7.163924e-08 2.7476906e-06 2.3001255e-07
000070 05 ad 85 35 32 ca a6 34 5c d5 0e 33 45 35 af 31
       9.959628e-07 3.1067026e-07 3.3256e-08 5.0992264e-09
000080 f3 8d be 33 98 56 1e 36 9d 10 31 35 c5 a9 ac 32
       8.873385e-08 2.359424e-06 6.5961814e-07 2.0100638e-08
000090 06 32 02 34 e7 7e a9 33 a0 d9 ac 35 a6 71 67 34
       1.2125392e-07 7.892759e-08 1.2878336e-06 2.1554897e-07
0000a0 25 08 33 35 cf e3 9b 33 03 0e 03 36 2f f1 6c 34
       6.669455e-07 7.259188e-08 1.9528677e-06 2.2066955e-07
0000b0 d2 59 bd 33 b6 05 14 33 3e 39 73 34 7b f9 af 36
       8.8173365e-08 3.446413e-08 2.2651963e-07 5.2444498e-06
0000c0 f6 19 ac 34 c3 7e 9c 33 cc ea 4c 33 9d 58 9f 33
       3.2056386e-07 7.287374e-08 4.7710998e-08 7.420133e-08
0000d0 2c 1f 66 34 f2 3c ae 35 3b 61 e1 33 9b aa d2 32
       2.143176e-07 1.2981748e-06 1.0495065e-07 2.45248e-08
0000e0 eb 59 1d 35 46 cf 96 34 f7 29 d6 33 3b bf 49 36
       5.8617906e-07 2.8090489e-07 9.972785e-08 3.0062645e-06
0000f0 7a 53 9e 35 63 fc 24 34 db 21 33 33 93 74 22 36
       1.1796212e-06 1.5365508e-07 4.1707477e-08 2.4207736e-06
000100 8e 27 50 36 41 a8 2b 34 50 d1 9f 35 c3 0a a4 35
       3.101744e-06 1.5986826e-07 1.1907341e-06 1.2222084e-06
000110 87 45 08 34 3d f1 ae 35 00 90 f9 35 ef 45 5c 34
       1.2691281e-07 1.303422e-06 1.8593855e-06 2.0514538e-07
000120 60 27 7d 34 62 05 8c 34 3f 0b 93 33 ed c8 e3 34
       2.3576786e-07 2.608095e-07 6.8472666e-08 4.2428238e-07
000130 4b 84 74 34 c3 03 73 36 f5 ae 37 33 09 85 bd 33
       2.2772399e-07 3.6212011e-06 4.276713e-08 8.825197e-08
000140 a0 4d 92 36 34 ef c9 32 d9 64 28 34 74 f4 6b 37
       4.360176e-06 2.3508257e-08 1.5682907e-07 1.4064008e-05
000150 02 ad 25 35 4f 55 31 37 4d d2 c0 34 85 98 3e 35
       6.171905e-07 1.0569885e-05 3.59158e-07 7.100246e-07
000160 fc db 29 34 12 e8 2f 35 96 78 30 34 07 2f ac 34
       1.5819381e-07 6.5530287e-07 1.6435146e-07 3.2071713e-07
000170 03 a8 ed 33 ba e6 15 36 9f 06 20 34 69 55 2a 35
       1.1066734e-07 2.233703e-06 1.490357e-07 6.3454223e-07
000180 c9 e7 a1 34 20 7b 9b 35 bb b5 fc 33 30 c0 23 33
       3.0157233e-07 1.1584234e-06 1.1767721e-07 3.812619e-08
000190 e1 f1 60 36 b0 c0 b1 36 a9 06 31 36 9a a9 07 36
       3.3519393e-06 5.297443e-06 2.6378932e-06 2.0215289e-06
0001a0 f0 a1 c4 35 7b e8 02 34 5c cf d3 36 ba 6a 91 36
       1.4650268e-06 1.219177e-07 6.31243e-06 4.3337614e-06
0001b0 7c 9a f6 34 4a 8f ad 33 83 c6 a5 35 96 9a 47 34
       4.5933473e-07 8.0820044e-08 1.2351232e-06 1.8589557e-07
0001c0 a2 54 e7 35 ff 16 b4 34 76 89 f9 33 db b4 71 36
       1.7235473e-06 3.3544345e-07 1.161997e-07 3.601707e-06
0001d0 ef 05 66 34 a4 14 16 36 21 27 54 35 a4 3a 36 36
       2.1422578e-07 2.2363756e-06 7.9033094e-07 2.7154247e-06
0001e0 34 5f 2c 35 d0 26 16 35 5b ec d0 33 22 dd f5 32
       6.421353e-07 5.5935834e-07 9.7287476e-08 2.8622313e-08
0001f0 0d 11 c2 32 5b 49 b9 33 7e a9 29 37 13 28 ba 36
       2.2592326e-08 8.628077e-08 1.0112648e-05 5.547897e-06

exp_avg f4 [128]
000000 37 d2 cc b6 f8 7a 94 b6 e1 4b 9d b5 1b 6a 12 b3
       -6.104146e-06 -4.425059e-06 -1.1719495e-06 -3.4089776e-08
000010 68 87 15 35 08 14 de 34 9e fc 90 34 65 ac 27 b3
       5.570387e-07 4.1365297e-07 2.7005893e-07 -3.903951e-08
000020 e0 0d f3 34 54 15 5d b5 ee 6b 13 35 55 76 19 36
       4.5272373e-07 -8.235995e-07 5.4918826e-07 2.2867655e-06
000030 81 c6 e5 b4 1f 0f 49 36 69 e4 50 35 a4 59 2a 34
       -4.2799005e-07 2.9960136e-06 7.781842e-07 1.5865095e-07
000040 a3 f9 0f b6 f7 10 11 34 3e 28 bf 34 da ea cd 35
       -2.1453968e-06 1.3510349e-07 3.5605802e-07 1.5342041e-06
000050 11 a3 61 35 fd 1e ba 35 ad 98 92 35 7b ef e5 35
       8.4056325e-07 1.3867099e-06 1.0922282e-06 1.7131528e-06
000060 ce f6 fd 33 bc 34 7f 34 0f 9b 85 35 14 5b 31 34
       1.1826124e-07 2.376791e-07 9.9544e-07 1.6517544e-07
000070 b8 57 93 b6 dd 49 f4 34 6b 3e 49 35 2a a0 da 34
       -4.391153e-06 4.5502284e-07 7.4969165e-07 4.07222e-07
000080 d6 2f 03 36 09 34 62 35 b1 b2 55 35 11 ef 87 35
       1.9548365e-06 8.426728e-07 7.9608714e-07 1.0127861e-06
000090 56 93 0a 35 d5 88 06 34 6a 2e c8 33 5e 84 68 34
       5.162341e-07 1.2529502e-07 9.3216684e-08 2.1654839e-07
0000a0 30 ef 2b 35 4d 97 78 35 a4 c1 8b b6 a7 4e 60 36
       6.405053e-07 9.260737e-07 -4.1650655e-06 3.3424383e-06
0000b0 6e 33 d2 35 49 fc 35 35 fa 74 8e b6 7d 47 99 36
       1.5661187e-06 6.779488e-07 -4.2455476e-06 4.5680777e-06
0000c0 04 af a6 b6 5d 6e 63 b4 1e 6c fa b5 cf 87 a3 35
       -4.96756e-06 -2.1181172e-07 -1.8657918e-06 1.2183972e-06
0000d0 da 1d 37 b5 54 22 b3 34 cc 89 fb 35 7f 3d 88 b4
       -6.821625e-07 3.3366325e-07 1.8741061e-06 -2.5376718e-07
0000e0 ac db e7 35 5f c9 b5 b4 86 2f 78 b3 19 e1 90 b2
       1.7274774e-06 -3.3860394e-07 -5.7785222e-08 -1.6866169e-08
0000f0 ad 44 de 34 74 7a f1 35 fc a8 48 35 0f 63 cb 34
       4.140069e-07 1.7991538e-06 7.475171e-07 3.788377e-07
000100 15 5a 67 36 dc 71 7f 35 15 0a ba 35 92 a4 aa 35
       3.4474117e-06 9.516059e-07 1.3861014e-06 1.2713883e-06
000110 c7 45 0f 36 11 d5 8d b6 19 99 41 b6 5c 90 84 b6
       2.1349276e-06 -4.2269317e-06 -2.8848356e-06 -3.950712e-06
000120 64 9c 5b 36 d6 73 6a 36 25 7c 7d 34 3e 6e 82 35
       3.2724574e-06 3.4936143e-06 2.3607625e-07 9.71784e-07
000130 1c f9 20 35 20 57 5c 36 23 92 6a b5 18 b4 06 b6
       5.9967147e-07 3.2833268e-06 -8.738445e-07 -2.0072384e-06
000140 5a 44 7c 36 c2 81 b3 34 96 76 e3 b4 a7 81 d7 b6
       3.7590712e-06 3.343576e-07 -4.2368328e-07 -6.422593e-06
000150 d1 70 46 36 6e fe e4 b6 ac c5 b2 b6 39 f5 07 36
       2.9569967e-06 -6.824549e-06 -5.3278254e-06 2.0259306e-06
000160 2c ca 0a 35 f3 1b d2 34 d1 fa 3c 36 51 34 a9 b6
       5.1703205e-07 3.9135884e-07 2.8160177e-06 -5.042683e-06
000170 84 6c b1 35 23 dc 92 35 54 80 56 b6 ea 35 59 b5
       1.321911e-06 1.0941916e-06 -3.1963182e-06 -8.0917255e-07
000180 d8 56 47 35 e8 c1 5e 35 55 3d f4 35 8b f6 ef b4
       7.425965e-07 8.2983615e-07 1.8197267e-06 -4.4696603e-07
000190 dc 4a 30 35 28 e3 5f 36 3e 39 08 36 36 4e f1 35
       6.5674044e-07 3.3361812e-06 2.0298899e-06 1.7978662e-06
0001a0 ea ca 1c 36 05 3e 2e b6 2d d1 07 35 aa 50 de 35
       2.3363923e-06 -2.596412e-06 5.059581e-07 1.6563765e-06
0001b0 c0 69 8d 34 b9 d6 c3 35 c3 90 01 36 5a 6c 28 36
       2.634024e-07 1.4591125e-06 1.930676e-06 2.509702e-06
0001c0 48 90 d1 35 27 23 28 36 9d 1e 35 b6 42 27 46 35
       1.5613705e-06 2.5054412e-06 -2.698892e-06 7.3817876e-07
0001d0 80 7d b8 35 60 02 88 35 32 10 3e 34 49 16 aa b3
       1.3745594e-06 1.0133481e-06 1.7701021e-07 -7.9202955e-08
0001e0 36 cc 87 35 e3 53 8a 35 11 68 87 35 30 22 48 35
       1.0117717e-06 1.0306215e-06 1.0088571e-06 7.4555555e-07
0001f0 1e f0 29 b4 0c fc 38 35 02 f0 f0 b6 bb 55 bc b6
       -1.5826706e-07 6.891212e-07 -7.180498e-06 -5.612817e-06

exp_avg_sq f4 [128]
000000 6f 30 84 36 e5 c1 2c 36 d1 e9 95 33 65 c0 2f 33
       3.939545e-06 2.5742859e-06 6.980884e-08 4.0920344e-08
000010 c7 2c 0c 33 12 78 62 35 39 28 25 33 fe 97 8c 34
       3.2637015e-08 8.4366286e-07 3.845364e-08 2.618762e-07
000020 00 71 01 33 96 e1 79 33 41 8f 3b 35 92 dc 9a 34
       3.0137926e-08 5.818e-08 6.987139e-07 2.884522e-07
000030 33 6f d6 33 3e 7e 1f 35 d5 20 be 33 fe 72 ab 32
       9.9853786e-08 5.941582e-07 8.8535366e-08 1.9959312e-08
000040 4e 30 5b 34 5c 3a 50 32 1e a8 58 33 71 48 25 34
       2.0413538e-07 1.2120463e-08 5.044432e-08 1.5393177e-07
000050 89 13 72 33 ec 4b 08 34 9d d7 2d 35 a5 66 43 35
       5.6362783e-08 1.2693607e-07 6.476128e-07 7.279253e-07
000060 de d3 de 32 8b 3b 41 33 9b 55 4d 35 0b 02 8f 33
       2.5940547e-08 4.499047e-08 7.6493023e-07 6.659328e-08
000070 69 d3 a5 35 dc 2c cb 33 44 02 98 32 b2 8b 49 31
       1.2354986e-06 9.461084e-08 1.769616e-08 2.9328757e-09
000080 ad 20 6e 34 42 5e 2b 35 56 9c 61 34 a2 70 21 33
       2.2177365e-07 6.383963e-07 2.1011633e-07 3.7588173e-08
000090 f2 1f aa 33 31 f8 28 33 16 16 be 34 c5 62 87 33
       7.922053e-08 3.9341277e-08 3.5406327e-07 6.3043935e-08
0000a0 7f 2e 5a 34 39 6c 9f 33 55 4a c7 35 f5 b3 1a 35
       2.0319747e-07 7.4237e-08 1.4848289e-06 5.763134e-07
0000b0 20 5e 19 34 d9 26 24 33 eb 39 54 35 dc b5 32 36
       1.4283478e-07 3.8219557e-08 7.9060436e-07 2.6629923e-06
0000c0 a0 72 93 35 19 a8 47 33 e7 b5 24 34 72 f3 cd 33
       1.0985714e-06 4.6486182e-08 1.5339866e-07 9.590339e-08
0000d0 c2 d6 c9 33 34 31 b8 34 cc ff 5d 34 f8 0e a0 32
       9.398856e-08 3.430847e-07 2.0675287e-07 1.8633258e-08
0000e0 fd 1e 9f 34 d8 6e af 33 62 d3 d2 32 e1 67 5b 35
       2.9638605e-07 8.169235e-08 2.4543343e-08 8.173502e-07
0000f0 3a 00 b1 34 53 f6 6d 34 51 a5 3e 33 14 2d 2c 35
       3.2968984e-07 2.2161957e-07 4.4388177e-08 6.414059e-07
000100 50 54 d5 35 c4 f5 a4 33 56 7e d7 34 cb f3 d2 34
       1.5894275e-06 7.6815496e-08 4.0138792e-07 3.929293e-07
000110 bd 47 8b 34 fe 82 af 35 a4 bb 84 35 60 15 3c 35
       2.5942964e-07 1.307664e-06 9.889377e-07 7.006656e-07
000120 11 1b 18 35 c0 6a 2d 35 56 48 5b 33 95 7a 2e 34
       5.66638e-07 6.4602864e-07 5.10557e-08 1.6249608e-07
000130 cb fb a8 33 93 90 d1 35 c6 90 5f 33 c0 53 5c 34
       7.8689105e-08 1.561379e-06 5.2052904e-08 2.0519565e-07
000140 04 84 08 36 4d 24 88 32 33 50 76 33 a9 16 d4 36
       2.0342422e-06 1.5848991e-08 5.734928e-08 6.3207303e-06
000150 ec 74 36 35 84 18 bb 36 87 8a a7 35 d9 71 db 34
       6.7970427e-07 5.5758883e-06 1.2482786e-06 4.0874764e-07
000160 41 f1 2c 33 b9 65 35 34 7d cd ec 34 0a 15 96 35
       4.026629e-08 1.6893945e-07 4.4107938e-07 1.1181994e-06
000170 a8 d7 fa 33 25 8b 2a 35 34 fe fb 34 94 cd 72 34
       1.168076e-07 6.3532417e-07 4.693735e-07 2.2612795e-07
000180 ff 66 de 33 9e 46 b8 34 32 13 5d 34 23 8f a0 32
       1.03564155e-07 3.4324052e-07 2.0589212e-07 1.8691543e-08
000190 06 07 70 35 93 89 09 36 80 5d 6e 35 35 df 39 35
       8.941719e-07 2.049467e-06 8.879797e-07 6.924268e-07
0001a0 e0 1f 37 35 8a 19 b4 34 3f 37 da 35 9a c8 a7 35
       6.8219197e-07 3.3546195e-07 1.6258344e-06 1.2500852e-06
0001b0 e8 9c 0b 34 5f f6 07 34 ae 19 09 35 21 e0 bc 34
       1.3002466e-07 1.2662484e-07 5.1073846e-07 3.5180804e-07
0001c0 5d 0e 1c 35 a5 68 f2 34 1f 16 bb 34 4a b6 83 35
       5.813543e-07 4.5152152e-07 3.484756e-07 9.813314e-07
0001d0 4b 56 26 34 e6 e0 27 35 53 82 70 34 00 7e 44 35
       1.5491348e-07 6.253962e-07 2.2399153e-07 7.3199044e-07
0001e0 0b 3d 66 34 f3 3e 4e 34 6d fe c8 33 dc 25 9d 32
       2.1442627e-07 1.9208146e-07 9.3595055e-08 1.8294422e-08
0001f0 17 ad 16 32 ed d7 67 33 5a 0c be 36 c8 b2 5d 36
       8.770505e-09 5.3980262e-08 5.663879e-06 3.303563e-06

exp_avg f4 [128, 128]
000000 9d 86 10 33 3e 21 b5 32 cf 47 7c 33 c7 e5 1d 34
       3.3650043e-08 2.108629e-08 5.873863e-08 1.4705357e-07
000010 5a b4 94 33 d8 d6 11 b4 86 86 fb 33 43 1c 4f b4
       6.924593e-08 -1.3582337e-07 1.1712568e-07 -1.9288659e-07
000020 1c b4 fb b3 a4 d9 6a 34 72 95 07 b4 46 37 b6 33
       -1.172086e-07 2.1872125e-07 -1.2627223e-07 8.4850896e-08
000030 6d 5b 89 31 9a af 1d 31 fb fe 84 b4 f7 57 2a 34
       3.9976187e-09 2.2946325e-09 -2.477244e-07 1.5864485e-07
000040 75 67 78 34 14 d4 80 b4 87 3e 2a b4 b3 bb b5 32
       2.3134437e-07 -2.3996165e-07 -1.5855231e-07 2.1156529e-08
000050 b2 25 82 b3 0e 47 a5 33 77 a9 b1 b3 d3 ac 4d b3
       -6.0604535e-08 7.696336e-08 -8.27303e-08 -4.7887465e-08
000060 8f f2 ff 33 2b 3d 53 34 a5 41 ca b3 00 d0 5b b4
       1.1918484e-07 1.9673159e-07 -9.418299e-08 -2.0471634e-07
000070 26 7b 20 33 0d b0 37 b4 a4 b8 3e b4 95 17 66 b4
       3.7364906e-08 -1.710725e-07 -1.7762301e-07 -2.1428998e-07
000080 c8 9e 9d 32 04 af b3 b3 80 81 ee b3 df 69 c5 b3
       1.834941e-08 -8.367172e-08 -1.11062946e-07 -9.192785e-08
000090 88 bd 0c 34 99 47 32 34 65 35 2c b4 1e 49 6f b4
       1.3107467e-07 1.6603589e-07 -1.6038173e-07 -2.228521e-07
0000a0 0d 07 0a b4 43 af 0e 34 c7 a3 29 33 c5 ae 24 33
       -1.2854817e-07 1.328854e-07 3.9497333e-08 3.8343178e-08
0000b0 50 07 d5 33 68 be 98 33 0d bb a9 34 41 c8 c8 b2
       9.9199156e-08 7.112686e-08 3.16148e-07 -2.337413e-08
0000c0 b1 6d 9f 34 d4 10 20 34 b6 8f 49 33 31 bf 98 33
       2.969587e-07 1.4907283e-07 4.6929664e-08 7.112829e-08
0000d0 bb d6 0a b2 ff d5 c6 b3 5b f7 7b 33 86 b9 d0 33
       -8.081481e-09 -9.259019e-08 5.866546e-08 9.719501e-08
0000e0 d9 bf 7d b3 68 3b 5e b2 82 3f 8c b2 10 d2 3a b4
       -5.9080637e-08 -1.2935608e-08 -1.6327025e-08 -1.739902e-07
0000f0 ff 66 10 b4 f5 47 f2 33 97 d3 89 33 31 b0 f4 b3
       -1.3448515e-07 1.1282092e-07 6.4180476e-08 -1.13941844e-07
000100 01 e9 b3 b2 ba 14 89 b3 0b bb 6e b3 a6 ee 8e b3
       -2.09443e-08 -6.38333e-08 -5.5583808e-08 -6.6558e-08
000110 2d 75 28 33 6f 31 67 33 56 63 6d 32 f7 83 84 34
       3.922212e-08 5.382884e-08 1.3817802e-08 2.4682933e-07
000120 6d ba fa 32 b3 03 e6 32 c8 db 43 34 ed d1 9e b3
       2.9188607e-08 2.6777206e-08 1.8240746e-07 -7.3956336e-08
000130 4c 72 d1 b3 89 77 07 b3 83 f0 61 34 b8 6b 4a 34
       -9.7531114e-08 -3.1540853e-08 2.1042256e-07 1.8851904e-07
000140 60 f0 a7 b2 d0 e7 90 33 9c 31 f7 b0 2d 47 04 33
       -1.9550669e-08 6.747689e-08 -1.7985715e-09 3.079838e-08
000150 68 cb b0 b1 69 b5 f4 32 a2 1e a0 34 f1 98 32 b3
       -5.1453988e-09 2.8487834e-08 2.982461e-07 -4.1582954e-08
000160 ac 01 88 b4 a6 cb 81 b4 41 e8 04 33 a8 ab bc 34
       -2.533319e-07 -2.4176296e-07 3.094488e-08 3.5142625e-07
000170 1b 15 ad 33 51 74 b9 b3 84 85 86 34 60 3a a5 31
       8.059779e-08 -8.635892e-08 2.505659e-07 4.8087685e-09
000180 ff 40 d5 b3 6a 24 f5 b3 6b 68 38 33 9c 3b fc 32
       -9.930408e-08 -1.1415325e-07 4.2935806e-08 2.9363768e-08
000190 e5 9f e5 b3 ef dd f3 b2 db 14 53 b3 41 51 5b b3
       -1.0692728e-07 -2.8389847e-08 -4.9146234e-08 -5.106381e-08
0001a0 ea 54 18 b3 05 fe f6 32 fd c4 df b3 23 10 a7 b3
       -3.5467487e-08 2.8753684e-08 -1.0420079e-07 -7.779479e-08
0001b0 53 46 fe b3 7c f2 56 33 1f 28 15 b3 01 ef 84 33
       -1.18405886e-07 5.0046296e-08 -3.4728256e-08 6.1902035e-08
0001c0 29 ee 2e b3 46 b3 af b1 92 cd 80 34 10 89 eb b3
       -4.0729137e-08 -5.1135514e-09 2.399143e-07 -1.0967972e-07
0001d0 6c d7 fc b2 d3 a9 b7 b3 2d 4b 38 b4 b1 f8 28 b4
       -2.9434624e-08 -8.5524924e-08 -1.7163684e-07 -1.5736693e-07
0001e0 50 7f 6f b3 00 70 58 b3 98 4d 27 34 ef 74 16 b3
       -5.5762314e-08 -5.0393282e-08 1.5581315e-07 -3.5030947e-08
0001f0 ad 00 9b 33 4c 07 17 34 d0 32 01 33 76 6c 32 33
       7.217873e-08 1.4065625e-07 3.0081367e-08 4.15425e-08
000200 73 fd ff b3 64 01 b9 b3 a1 23 38 b4 eb d2 f0 b4
       -1.1920465e-07 -8.614987e-08 -1.7149297e-07 -4.4856947e-07
000210 e0 3e 4c b4 97 37 b7 34 55 35 bb b4 4a 14 e7 34
       -1.9021854e-07 3.4126853e-07 -3.4870268e-07 4.3041865e-07
000220 c1 1a 90 34 3b 89 39 b5 ac 09 ae 34 95 c9 81 b4
       2.6841556e-07 -6.9117567e-07 3.2417063e-07 -2.4174793e-07
000230 27 8a 2c b3 11 11 b5 32 b8 5a 02 35 34 af 02 b5
       -4.017252e-08 2.1078934e-08 4.8560787e-07 -4.868373e-07
000240 ec 53 45 b5 89 57 04 35 1d f9 c0 34 d7 74 13 b3
       -7.351034e-07 4.930121e-07 3.594404e-07 -3.433237e-08
000250 5a b7 17 34 3c a2 67 b4 17 23 7d 34 73 89 22 34
       1.4129674e-07 -2.1572572e-07 2.3575227e-07 1.513743e-07
000260 e3 e5 be b4 ce a0 25 b5 c0 8f 88 34 90 55 ee 34
       -3.5557522e-07 -6.170129e-07 2.5436566e-07 4.439321e-07
000270 ce 29 06 b4 c9 6a cc 34 98 49 c6 34 f9 9b ed 34
       -1.2494931e-07 3.8075657e-07 3.693392e-07 4.4258175e-07
000280 83 72 db b2 b7 44 82 34 c9 57 95 34 17 5d 56 34
       -2.554703e-08 2.4264384e-07 2.7817285e-07 1.9964169e-07
000290 22 92 d4 b4 b5 8e 09 b5 c0 82 ce 34 b6 a5 fc 34
       -3.9594403e-07 -5.1244143e-07 3.8465623e-07 4.7059228e-07
0002a0 2d 46 a9 34 f0 73 d7 b4 f8 93 0f b4 38 87 be b3
       3.1529763e-07 -4.0131226e-07 -1.3371744e-07 -8.8721606e-08
0002b0 77 4c 9b b4 1f 56 54 b4 b5 71 8a b5 bd f3 be 33
       -2.8926635e-07 -1.9775369e-07 -1.0314894e-06 8.8919e-08
0002c0 f6 40 81 b5 cf 4b f4 b4 97 5d 17 b4 a8 f7 52 b4
       -9.630155e-07 -4.55037e-07 -1.4097019e-07 -1.9647871e-07
0002d0 bc 70 2f b2 72 5b 85 34 58 5f 27 b4 cd 1d 99 b4
       -1.02119735e-08 2.4839716e-07 -1.5587773e-07 -2.8520154e-07
0002e0 f0 c0 2c 34 80 4e 33 32 63 d9 b4 32 eb 54 d7 34
       1.6088939e-07 1.043702e-08 2.1053614e-08 4.0108657e-07
0002f0 f4 82 b4 34 dc af b3 b4 64 6a 3a b4 e0 ff a0 34
       3.3622894e-07 -3.3469303e-07 -1.7361305e-07 2.9988496e-07
000300 ff e8 b0 33 ba c9 1d 34 da e1 29 34 f0 3e 44 34
       8.2380204e-08 1.4695152e-07 1.5821516e-07 1.8276819e-07
000310 8a 9d c4 b3 a0 80 40 b4 23 cb 8a b3 f8 ab 53 b5
       -9.1556174e-08 -1.7928187e-07 -6.463076e-08 -7.885387e-07
000320 7d 6c 7a b3 00 3f 59 b3 5a 7c 18 b5 99 94 57 34
       -5.830633e-08 -5.0581548e-08 -5.680537e-07 2.0077495e-07
000330 dd 4f 78 34 22 f1 e6 33 75 12 32 b5 ce a4 1d b5
       2.3125854e-07 1.07540714e-07 -6.6337026e-07 -5.872688e-07
000340 3c 1c 9f 33 3f 0f 47 b4 90 84 8d b2 b8 84 f9 b3
       7.40915e-08 -1.8538866e-07 -1.6474843e-08 -1.16191075e-07
000350 92 44 26 33 07 75 e6 b3 a8 f4 81 b5 9a 25 0e 34
       3.871225e-08 -1.0731497e-07 -9.682453e-07 1.323846e-07
000360 61 df 05 35 a1 ba 00 35 db 5d 90 b3 3b d0 9a b5
       4.987142e-07 4.7955297e-07 -6.722595e-08 -1.1534497e-06
000370 7a 58 74 b4 28 d3 81 34 0a 22 57 b5 20 44 2d b3
       -2.2756458e-07 2.418176e-07 -8.0143275e-07 -4.034166e-08
000380 40 e7 7c 34 f9 7d 97 34 0b 0f df b3 bc 87 9e b3
       2.3553457e-07 2.82176e-07 -1.0386983e-07 -7.382138e-08
000390 49 98 9d 34 73 71 d6 33 37 1e 23 34 cc 86 28 34
       2.935433e-07 9.985788e-08 1.519155e-07 1.5695258e-07
0003a0 29 9d f8 33 e7 b5 c8 b3 da 74 99 34 46 a3 6a 34
       1.1576987e-07 -9.3463136e-08 2.8583491e-07 2.1852347e-07
0003b0 a2 f4 9d 34 a7 23 08 b4 62 32 ea 33 15 fe 31 b4
       2.9421523e-07 -1.2678957e-07 1.0905639e-07 -1.6576844e-07
0003c0 89 79 0b 34 5f dd 3b 33 2f 11 4d b5 c9 28 9f 34
       1.2989598e-07 4.3740666e-08 -7.6393457e-07 2.9645733e-07
0003d0 15 78 c8 33 91 82 72 34 1d a6 d7 34 c6 1f ce 34
       9.3350685e-08 2.2585506e-07 4.0167734e-07 3.8393608e-07
0003e0 1e 76 1e 34 23 bd 11 34 50 4f 00 b5 84 e9 8c 33
       1.4757867e-07 1.3572985e-07 -4.779913e-07 6.561734e-08
0003f0 4b fb 57 b4 4c 8e e5 b4 f5 90 ee b3 eb 39 1b b4
       -2.0114855e-07 -4.2758109e-07 -1.1109106e-07 -1.445657e-07
