PFG-GAME/config/results/train03/DifAgent/checkpoint.pt (torch, 430123 bytes, 33 tensors)

network_body._body_endoder.seq_layers.0.weight f4 [128, 1]
0	0x3f068794	0.52550626
1	0x3efd8190	0.4951291
2	0xbf83c136	-1.0293338
3	0xbf5cd08e	-0.8625573
4	0xbf493776	-0.7860025
5	0x3f5b7e80	0.857399
6	0x3f3bd549	0.7337232
7	0xbf2ba57b	-0.6704938
8	0xbfbd27c6	-1.4777763
9	0xbf807ae5	-1.0037504
10	0xbf6dd5b4	-0.9290421
11	0x3f19f147	0.60133785
12	0x3f623427	0.8836083
13	0x3f66f6a1	0.90220076
14	0xbf9a1753	-1.2038368
15	0x3ff0e139	1.8818733
16	0xbfad102a	-1.3520558
17	0xbd0f8bf9	-0.035045598
18	0x3fe52c54	1.7904153
19	0x40194d6c	2.3953505
20	0x3f15e9c1	0.58559805
21	0x3e49cf52	0.19707993
22	0xbf09bdce	-0.53805244
23	0x3fcb091e	1.5862157
24	0x3ded7777	0.11595052
25	0x3ff99054	1.949717
26	0xbfa527a5	-1.2902724
27	0x3f7a82f6	0.9785608
28	0x3f566c10	0.8375864
29	0xbf2df67f	-0.6795425
30	0xbec0e9f9	-0.37678507
31	0xbeb1538e	-0.3463406
32	0x3f835f79	1.0263511
33	0x3dc8dcca	0.09807737
34	0xbf962b32	-1.1731932
35	0x3cfebb11	0.03109506
36	0x3dd7f4cb	0.105447374
37	0xbf3e1255	-0.7424672
38	0x3de3cbbc	0.111228436
39	0x3ffe713c	1.9878306
40	0x3f5dba8b	0.86612767
41	0x3e1e73b5	0.15473826
42	0xbf40e7dd	-0.75353795
43	0xbec9113c	-0.3927096
44	0x3e0d7f70	0.13818145
45	0xbf83bca6	-1.0291946
46	0xbe59abec	-0.21256989
47	0xc007e6cb	-2.1234615
48	0x3ed35736	0.41277474
49	0xbf14849e	-0.5801486
50	0x3f6408a4	0.89075685
51	0xbed68563	-0.4189864
52	0x401996fb	2.39984
53	0xbfb2b758	-1.3962202
54	0xbff37372	-1.9019606
55	0xc007353f	-2.112625
56	0xbf4a6f16	-0.79075754
57	0x3dc2e9a0	0.09517217
58	0xbd114408	-0.03546527
59	0x3fe33f96	1.775378
60	0xbde22215	-0.11041657
61	0x3f2d1525	0.6761039
62	0x3f9545e7	1.1661958
63	0x3d513538	0.051076144
64	0x3f297504	0.66194177
65	0xbd808d7d	-0.06276987
66	0x3ef65490	0.4811139
67	0x3ecf6ac0	0.4051113
68	0xbf5b6788	-0.8570485
69	0xbee3e417	-0.44509956
70	0xbf8f7ef1	-1.1210614
71	0x3b99ebd8	0.004697304
72	0xbff40dc6	-1.9066703
73	0xbf536566	-0.82576597
74	0xbf612852	-0.8795215
75	0x3f50d0c6	0.81568563
76	0xbf8bf88d	-1.0935227
77	0xbebda124	-0.37037003
78	0x3f852916	1.0403163
79	0xbfffd013	-1.9985374
80	0x3d03ad1a	0.032147504
81	0xbff6d5ea	-1.9284031
82	0xbfb5465e	-1.4162099
83	0x3e0ab12d	0.1354415
84	0xbf95c6a3	-1.1701244
85	0x3ed91197	0.42396232
86	0xbf3af5c8	-0.7303128
87	0xbfca047c	-1.5782619
88	0xbf83a4ba	-1.0284646
89	0xbf5974e8	-0.8494401
90	0xbe6fa039	-0.23400964
91	0x3f994164	1.1973081
92	0xbebe0b7a	-0.3711813
93	0x3fad5031	1.3540097
94	0xbf1d2458	-0.6138358
95	0x3f873717	1.0563687
96	0xbe772892	-0.2413657
97	0xbf86877e	-1.0510099
98	0xbf64e209	-0.894074
99	0xbfa05f13	-1.2529014
100	0xbf39ae26	-0.72531354
101	0x40280349	2.6252005
102	0x3f8cce38	1.1000433
103	0x3e9f9977	0.31171772
104	0xbf88808f	-1.0664233
105	0x3f3e80fb	0.7441556
106	0xbf3601e4	-0.71096635
107	0xbf6be087	-0.92139477
108	0xbf474f5e	-0.7785548
109	0x3e64638f	0.22303604
110	0xbfaa0443	-1.328255
111	0xbefce460	-0.49392986
112	0xbfabd689	-1.3424846
113	0x4022b2ac	2.5421553
114	0x3f9bb912	1.2165854
115	0xbd966e82	-0.073452964
116	0x3ee3d310	0.44496965
117	0xbef102af	-0.4707236
118	0xbdb3bf04	-0.08776668
119	0xbfdd7fda	-1.7304642
120	0xc012a2bc	-2.2911825
121	0x3ea6abaf	0.3255286
122	0x3f13731d	0.57597524
123	0x3ca91a6b	0.02064248
124	0xbfa7f1bf	-1.312065
125	0x3f8f4abb	1.1194681
126	0xbf8c7318	-1.0972624
127	0xbfa8af35	-1.3178469

network_body._body_endoder.seq_layers.0.bias f4 [128]
0	0xbe0643de	-0.13111827
1	0xbe06d0be	-0.13165566
2	0x3cd2312b	0.02565821
3	0xbc372a97	-0.011179588
4	0x3c89bcf5	0.016813735
5	0xbe1111b6	-0.14166912
6	0xbe30f04c	-0.17279166
7	0xbe3d9d6c	-0.18517083
8	0x3de98196	0.1140167
9	0x3cde3bd6	0.027128141
10	0xbdddcc24	-0.10829952
11	0xbe0f2672	-0.1397951
12	0xbe236ab0	-0.15958667
13	0xbe4da927	-0.20084058
14	0x3d19716c	0.037461683
15	0x3c9885d3	0.0186185
16	0x3dcd8084	0.10034278
17	0x3e3fbeab	0.18725078
18	0x3d38ea5c	0.045145378
19	0x3e844211	0.25831655
20	0xbd4fa8ee	-0.050698213
21	0xbe08c73f	-0.13357256
22	0xbe8d90d1	-0.2764955
23	0xbe0aa26d	-0.13538523
24	0xbe19c9e2	-0.15018418
25	0x3c537d8c	0.012908351
26	0x3dc408cd	0.09571991
27	0xbcf8baed	-0.03036257
28	0xbe008098	-0.12549055
29	0x3c2d591e	0.010580329
30	0xbe4fca9a	-0.2029213
31	0x3de78a26	0.113056466
32	0xbe121f27	-0.14269696
33	0x3e29424b	0.16529195
34	0x3d25497d	0.040353287
35	0xbe44eca6	-0.19230899
36	0x3e3ac564	0.18239361
37	0xbe430b72	-0.19047335
38	0xbe1b6531	-0.1517532
39	0xbda6c5a0	-0.08143163
40	0xbd4653ad	-0.048419643
41	0xbe24d485	-0.16096695
42	0xbceec93d	-0.029148692
43	0xbe73c294	-0.23804694
44	0xbe1d5608	-0.1536485
45	0xbe0c1977	-0.13681589
46	0x3dd80f53	0.10549798
47	0x3dcdfa64	0.10057524
48	0xbdc73f59	-0.097288795
49	0x3da1e6bd	0.07905338
50	0xbe0707bf	-0.13186549
51	0xbe203f65	-0.15649183
52	0x3e90293b	0.28156456
53	0x3d952a79	0.07283492
54	0x3dddc734	0.108290106
55	0x3db799a3	0.08964851
56	0xbe1be410	-0.15223718
57	0xbdfe2c9d	-0.12410853
58	0x3e5e34a2	0.21699765
59	0x3d2462ea	0.040133394
60	0xbe2fcb82	-0.17167476
61	0xbdeec5e2	-0.11658837
62	0xbd6be760	-0.057593703
63	0xbe2e27d1	-0.17007376
64	0xbd8cf8da	-0.06883402
65	0xbe2ff847	-0.17184554
66	0x3d30748a	0.04307989
67	0x3db88c38	0.090111196
68	0xbdf1b073	-0.11801233
69	0xbe6a40df	-0.22876309
70	0x3d62377e	0.055228703
71	0x3e1bd951	0.15219618
72	0x3de69fba	0.11260934
73	0xbd523843	-0.051323187
74	0xbe4d3bfc	-0.20042413
75	0xbe37c5b4	-0.17946512
76	0xbddce9e4	-0.107867986
77	0xbde747bc	-0.11292979
78	0x3c48ef75	0.012264122
79	0x3dbb4290	0.09143555
80	0xbe365b02	-0.17808154
81	0x3dd33365	0.10312537
82	0x3dd9ce5b	0.10635062
83	0x3e112609	0.14174666
84	0x3d5ec7fd	0.054389942
85	0xbe19d879	-0.15023984
86	0xbe5029ed	-0.20328493
87	0x3df1fe59	0.11816091
88	0xbdc260e2	-0.09491135
89	0xbd9c1655	-0.07621447
90	0x3dcdda6b	0.100514255
91	0xbde0166a	-0.10941775
92	0xbe61779b	-0.22018282
93	0xbdbe0656	-0.09278552
94	0xbe9245ea	-0.28568965
95	0x3ccda715	0.025104085
96	0xbe367747	-0.17818938
97	0xbc6a97b1	-0.014318393
98	0xbd715250	-0.05891639
99	0x3d3b1d39	0.045682166
100	0xbe4ab98b	-0.19797342
101	0x3e5b7bcf	0.21433948
102	0xbd61f23e	-0.05516266
103	0x3d5d6bcc	0.05405788
104	0xbdc7dd45	-0.09759001
105	0x3c54db83	0.012991789
106	0x3d09bd46	0.03362777
107	0xbc92e4fe	-0.017931458
108	0xbd08215e	-0.033234946
109	0xbe048683	-0.12941937
110	0x3db0e5d7	0.086375885
111	0xbe8d437a	-0.27590543
112	0x3d7b3315	0.061328012
113	0x3e8387d5	0.2568957
114	0xbd26cc52	-0.0407222
115	0x3e42c9fa	0.1902236
116	0xbe0f8a29	-0.14017548
117	0x3de5a91e	0.11213897
118	0x3e406d12	0.18791607
119	0x3dcd7f90	0.10034096
120	0x3d9e61cc	0.07733497
121	0xbd994007	-0.07482915
122	0xbde3f6f3	-0.11131086
123	0x3e37e88a	0.179598
124	0x3d810740	0.06300211
125	0xbda0a8cd	-0.07844696
126	0x3d20cd12	0.03925807
127	0x3db16003	0.08660891

network_body._body_endoder.seq_layers.2.weight f4 [128, 128]
0	0x3c7486fb	0.01492476
1	0xbdca8cc0	-0.09890127
2	0x3e2012f8	0.15632236
3	0x3dd0f64f	0.1020323
4	0x3d0c1744	0.034201875
5	0x3cae02e6	0.021241616
6	0x3e17cd28	0.14824355
7	0xbd8fcb8c	-0.07021245
8	0xbc943566	-0.018091869
9	0x3de7bbdb	0.113151275
10	0x3d2cd26c	0.04219286
11	0x3e0851bb	0.13312428
12	0x3e6fc386	0.2341443
13	0x3e0ac16d	0.13550349
14	0xbaefcbaa	-0.001829495
15	0x3dc63795	0.0967857
16	0xbdee073d	-0.11622474
17	0xbdfe33b0	-0.12412202
18	0xba703dc5	-0.0009164478
19	0x3d8000ef	0.06250178
20	0x3e40b5b8	0.1881932
21	0x3e3de63d	0.1854486
22	0x3e4e2068	0.2012955
23	0x3df464df	0.11933302
24	0x3e0f0b01	0.13969041
25	0x3d402bc1	0.046916727
26	0xbe32de0a	-0.17467514
27	0xbc57ba39	-0.013166958
28	0xbe2666f6	-0.16250214
29	0x3e04eaa9	0.12980141
30	0x3d448cd9	0.047985885
31	0xbe77199e	-0.24130866
32	0x3a94a2d1	0.0011340027
33	0x3d49fd09	0.04931358
34	0x3c150dee	0.009097559
35	0x3dcc4901	0.09974862
36	0xbe01dfe2	-0.12683061
37	0x3e08917e	0.13336751
38	0x3e063a96	0.13108286
39	0xbccce2d4	-0.025010504
40	0x3e152adb	0.1456713
41	0x3e7d7583	0.24751858
42	0x3c9cbc8b	0.019132873
43	0xbd8b6925	-0.06807164
44	0xbc50d630	-0.012746379
45	0x3da6a1c0	0.0813632
46	0xbdb2d695	-0.087323345
47	0xbc8c83d3	-0.017152702
48	0x3cb82a66	0.022481155
49	0xbd882b61	-0.06648899
50	0x3e35ec6f	0.17765974
51	0x3e1a1b39	0.15049447
52	0xbda3090d	-0.07960711
53	0x3ce71a72	0.028210852
54	0xbd2f3189	-0.04277185
55	0xbaded8ef	-0.0017001907
56	0x3d935b02	0.07195093
57	0x3d9f7c1d	0.077873446
58	0xbe59b39e	-0.21259925
59	0x3da25879	0.07927031
60	0xbcd0a346	-0.02546848
61	0x3caa6857	0.020801706
62	0x3d8aaed7	0.06771629
63	0x3e205a94	0.15659553
64	0xbc284924	-0.010271344
65	0x3ea255c7	0.31706068
66	0x3e642477	0.22279535
67	0xbdf11571	-0.11771668
68	0x3dbc9432	0.092079535
69	0x3d438daa	0.047742523
70	0x3dbfc8f1	0.093644984
71	0xbe93d03d	-0.2886981
72	0xbdc513bc	-0.09622905
73	0x3e03509a	0.12823716
74	0x3e290bd1	0.16508414
75	0x3e233260	0.15937185
76	0xbb17ae1c	-0.0023144549
77	0xbd83c5a7	-0.064341836
78	0x3be22158	0.0069009475
79	0x3df7de0a	0.121028975
80	0x3ead4879	0.33844355
81	0x3cc68eef	0.024238078
82	0x3e29efa4	0.16595322
83	0xbb4e5d04	-0.0031488547
84	0x3e36d8f9	0.17856206
85	0x3da9fdca	0.083003595
86	0x3e06d9b2	0.13168982
87	0x3c17505e	0.00923547
88	0x3dcafc75	0.099114336
89	0x3e3ed0f2	0.18634394
90	0xbd25b2dd	-0.04045378
91	0x3d6d90a9	0.057999287
92	0xbbb16e27	-0.0054147425
93	0x3e47553f	0.19466113
94	0x3df40be4	0.119163305
95	0x3ddc7789	0.10764987
96	0x3e0eb489	0.13936056
97	0x3dae46dd	0.0850961
98	0x3d96ef19	0.07369823
99	0x3d9e9374	0.07742968
100	0xbd046601	-0.03232384
101	0xbdec8304	-0.11548427
102	0x3e13e158	0.1444143
103	0x3d6c651d	0.057713617
104	0x3ddbac15	0.107261814
105	0x3d0b1f11	0.033965174
106	0x3b6cbd92	0.0036123735
107	0x3c79e5e9	0.015252569
108	0x3d2cc975	0.042184312
109	0x3dcc6f8b	0.09982213
110	0xbdd03967	-0.10167199
111	0xbd9a288d	-0.07527266
112	0x3d5c459f	0.053777333
113	0x3d17a4d5	0.03702243
114	0xbd57bbfb	-0.052669507
115	0xbd6bdc70	-0.057583272
116	0x3d0dc7f9	0.034614537
117	0x3d2f03a9	0.0427281
118	0xbe4cab0a	-0.19987121
119	0x3ca1aaed	0.019734824
120	0xbe2636ab	-0.16231792
121	0xbbf2a7c0	-0.0074052513
122	0x3de6cb5d	0.11269257
123	0x3e20017b	0.15625565
124	0x3e53ea85	0.20694931
125	0x3d9c22c9	0.07623822
126	0x3dd97b8b	0.10619267
127	0x3dbd7a01	0.09251786
128	0xbdfb4f09	-0.12270934
129	0xbd881d4a	-0.066462114
130	0x3dacf43d	0.08445022
131	0xbe049670	-0.12948012
132	0xbd923271	-0.07138527
133	0x3d5a76e9	0.053336058
134	0x3e2059f6	0.15659317
135	0x3e259916	0.16171679
136	0xbd74dd76	-0.059781514
137	0xbd290e85	-0.041273613
138	0xbde9eb2a	-0.11421807
139	0x3c716864	0.014734361
140	0xbb3ecd2d	-0.0029113994
141	0x3da8e831	0.08247412
142	0x3d4dfa87	0.05028775
143	0xbd81812e	-0.06323467
144	0x3e1db848	0.15402329
145	0x3de40835	0.11134378
146	0x3e414b41	0.18876363
147	0xbe288d5f	-0.16460179
148	0xbcd3f057	-0.025871439
149	0x3d619aaf	0.05507916
150	0x3d88d79e	0.06681751
151	0x3c41323e	0.011791764
152	0x3d7adae4	0.061243907
153	0x3e1d1701	0.15340807
154	0xbdbdc3a4	-0.09265831
155	0xbe0e484e	-0.1389477
156	0x3e5151d6	0.20441374
157	0x3d89428a	0.067021444
158	0xbd5e4bd3	-0.05427153
159	0x3e39159d	0.18074651
160	0x3da9b351	0.08286155
161	0xbd271c38	-0.040798396
162	0x3dc9dcab	0.09856542
163	0x3e6de21b	0.23230784
164	0x3cd0d096	0.025490087
165	0xbc8c72a2	-0.017144505
166	0xbe0021e5	-0.1251293
167	0xbd4dddff	-0.05026054
168	0xbd2a963c	-0.04164718
169	0xbd083e65	-0.03326263
170	0x3d200aa9	0.039072666
171	0x3d430baa	0.047618546
172	0xbd214ac6	-0.03937795
173	0x3d1eac65	0.038738627
174	0xbde08a74	-0.10963908
175	0xbd8c9c0b	-0.068657
176	0x3e03e3b5	0.12879832
177	0xbd5e84fb	-0.05432604
178	0xbc85ee2d	-0.016348923
179	0x3e1c2940	0.1525011
180	0x3e7909cd	0.24320145
181	0x3ca16593	0.019701755
182	0x3d7eafaa	0.062179245
183	0x3e2dd1da	0.16974583
184	0xbd27d10c	-0.040970847
185	0x3e2af75c	0.16695923
186	0xbe6e8e69	-0.23296513
187	0x3d2a08e1	0.041512374
188	0x3e570562	0.20998147
189	0xbdde75aa	-0.108622864
190	0xbd229494	-0.039692476
191	0x3e2f7eaa	0.17138162
192	0x3dccc618	0.09998721
193	0xbd8a372d	-0.06748805
194	0x3cbfbbf3	0.02340505
195	0x3d1a71db	0.037706237
196	0x3c542bc8	0.012949891
197	0x3d6b21c0	0.057405233
198	0xbced9d1b	-0.029005578
199	0x3d6c04dc	0.05762182
200	0xbe45edf4	-0.19329053
201	0xbcbb9216	-0.022896808
202	0x3d409eb3	0.047026347
203	0xbda8acb1	-0.08236063
204	0x3d9bdfd7	0.076110534
205	0xbce742f3	-0.028230166
206	0x3e201e20	0.15636492
207	0x3ccec6dd	0.02524131
208	0x3d7755bf	0.06038451
209	0x3ccc585a	0.024944473
210	0x3d976c23	0.07393672
211	0xbde5a2b7	-0.11212676
212	0x3d94d48e	0.07267104
213	0xbd2c63ba	-0.042087294
214	0xbd0e34a4	-0.03471817
215	0xbc814b7d	-0.015783066
216	0x3d0957ab	0.033530872
217	0xbcd93d9c	-0.026518635
218	0x3e079379	0.1323985
219	0x3e10635e	0.14100406
220	0x3e06ce57	0.1316465
221	0x3cca787e	0.024715658
222	0x3e445dac	0.19176358
223	0x3cec680a	0.028858203
224	0x3cad14ef	0.021128146
225	0x3d9235ab	0.071391426
226	0xbd806a31	-0.062702544
227	0x3b472f00	0.0030393004
228	0x3c713e57	0.014724336
229	0xba2b7f0e	-0.0006542065
230	0x3b37ae37	0.0028027424
231	0x3e5adb44	0.21372706
232	0xbd61fb9c	-0.055171594
233	0x3dba2006	0.09088139
234	0x3e0f8f30	0.14019465
235	0xbce66e07	-0.028128637
236	0xbe1e37c9	-0.15450968
237	0xbcb538a7	-0.02212174
238	0x3dffc0e6	0.12487964
239	0x3e180a08	0.14847577
240	0xbd2e3a88	-0.04253629
241	0xbde8081c	-0.11329672
242	0xbabda538	-0.0014468795
243	0xbe0fd7ab	-0.14047115
244	0x3e477f7a	0.19482222
245	0xbc2d37eb	-0.010572414
246	0xbe0bf319	-0.13666953
247	0x3df2e454	0.118599564
248	0x3da4752c	0.08030161
249	0x3e37aed5	0.17937787
250	0x3da963a1	0.08270956
251	0xbe16d03c	-0.14727873
252	0xbbe4ec5c	-0.006986184
253	0x3db3c106	0.08777051
254	0x3e10917e	0.14118001
255	0x3d4f5700	0.05062008

network_body._body_endoder.seq_layers.2.bias f4 [128]
0	0xbe25502f	-0.16143869
1	0xbd936bdf	-0.07198309
2	0x3e15f01e	0.14642379
3	0xbe04172d	-0.12899466
4	0xbdedc5c9	-0.1160999
5	0x3db11ac9	0.08647687
6	0x3e27cde8	0.16387141
7	0x3e183661	0.14864494
8	0xbe0fb0c5	-0.14032276
9	0x3e44004d	0.1914074
10	0xbe1fae40	-0.15593815
11	0x3daf9787	0.085738234
12	0xbdabc3b3	-0.08386936
13	0x3e32055e	0.1738486
14	0x3e37671f	0.17910431
15	0xbe1978eb	-0.14987533
16	0xbe17195d	-0.14755769
17	0xbdfa17f4	-0.122116
18	0x3e09dc2c	0.13462895
19	0xbdc6856b	-0.09693416
20	0xbdeab560	-0.11460376
21	0xbe0263f8	-0.12733448
22	0xbd9be920	-0.076128244
23	0x3e0735af	0.13204072
24	0xbde837e5	-0.11338786
25	0xbd960d78	-0.07326788
26	0xbdf83e8d	-0.121213056
27	0x3d7f8c81	0.062389854
28	0xbe08c445	-0.13356121
29	0x3e3d5251	0.18488432
30	0x3e3f2128	0.18664992
31	0x3e1f4cb5	0.15556605
32	0xbe091561	-0.13387062
33	0x3dd5d91b	0.104418
34	0xbe267657	-0.1625608
35	0xbddfffce	-0.10937463
36	0xbe0c742f	-0.13716196
37	0xbde5b654	-0.11216417
38	0xbdcdc61f	-0.10047554
39	0xbdc7685b	-0.09736701
40	0xbd9dc91c	-0.07704374
41	0x3e1177f7	0.14205919
42	0x3df34e3a	0.11880155
43	0x3e0a88af	0.13528703
44	0xbdf0950e	-0.1174718
45	0xbe221cb5	-0.15831263
46	0x3ded16eb	0.11576637
47	0x3c7961ef	0.015221103
48	0x3e226a6a	0.15860906
49	0x3ce62f61	0.028098764
50	0x3e35c1ff	0.17749785
51	0xbe0f6ffb	-0.14007561
52	0x3e115aba	0.14194766
53	0x3e519e5c	0.20470566
54	0xbdf0a68c	-0.11750516
55	0xbdcfb67b	-0.10142227
56	0x3daefb00	0.08543968
57	0xbdeca645	-0.11555151
58	0xbdec8e25	-0.115505494
59	0xbe21e5af	-0.15810274
60	0x3e0d3adb	0.13791983
61	0x3e1428d3	0.14468698
62	0x3e0b5d71	0.13609864
63	0xbdfa30a5	-0.122163095
64	0xbdc3d53e	-0.09562157
65	0xbdb238bc	-0.087022275
66	0x3e1c8490	0.15284944
67	0xbe044bdc	-0.12919563
68	0xbe170670	-0.1474855
69	0xbe29bd17	-0.16576038
70	0x3df6c395	0.12049023
71	0xbe26a095	-0.16272195
72	0x3e58848a	0.2114431
73	0xbdf34209	-0.118778296
74	0xbde0bc51	-0.109734185
75	0xbe06d82f	-0.13168405
76	0xbdec04fb	-0.115243874
77	0x3df330f5	0.11874572
78	0x3d77d0bf	0.06050181
79	0x3de0980f	0.10966503
80	0xbd866cb4	-0.06563702
81	0xbe0b26f6	-0.13589081
82	0xbe1be547	-0.15224181
83	0xbe0cf2bc	-0.13764471
84	0x3df28626	0.11841993
85	0xbd91bef9	-0.07116503
86	0xbe0518af	-0.12997697
87	0xbd8cbf0f	-0.06872379
88	0x3d9f732e	0.07785641
89	0x3ddf67f7	0.109085016
90	0xbe214c73	-0.1575182
91	0x3e3b9115	0.18317063
92	0x3e23dfbb	0.16003315
93	0xbdb060ba	-0.08612199
94	0xbde8772c	-0.11350855
95	0xbda3be95	-0.07995335
96	0xbdeb5e0c	-0.114925474
97	0x3e3f4e0f	0.1868212
98	0x3e2564e3	0.16151766
99	0x3e07b3c1	0.13252164
100	0xbe00cf6b	-0.12579124
101	0x3e0b01b4	0.13574868
102	0xbdce1459	-0.10062475
103	0x3dae97ee	0.08525072
104	0x3e182a76	0.14859948
105	0x3dbb2798	0.09138411
106	0xbe01a47d	-0.12660404
107	0x3e36ca61	0.17850639
108	0x3e25f49a	0.1620659
109	0xbdd91abe	-0.10600804
110	0xbe1aa821	-0.15103199
111	0x3dbbc9e0	0.09169364
112	0x3e06672c	0.13125294
113	0x3dae4ed8	0.08511132
114	0x3e19e293	0.15027837
115	0x3e128470	0.14308333
116	0x3e3ebdef	0.18627141
117	0xbdeea761	-0.11653019
118	0xbdfa60f9	-0.12225527
119	0x3df3ea7b	0.11909958
120	0x3e220d5a	0.15825406
121	0xbdd1e7ae	-0.102492675
122	0xbe2cd944	-0.16879755
123	0xbdb867c1	-0.090041645
124	0x3e10ddc4	0.14147097
125	0xbe04e877	-0.12979303
126	0xbe122210	-0.14270806
127	0x3e39f625	0.18160303

action_model._discrete_distribution.branches.0.weight f4 [3, 128]
0	0xbdb0fe14	-0.086422116
1	0xbc94f9b6	-0.018185478
2	0x3d80bd62	0.06286122
3	0xbd7f17c0	-0.06227851
4	0xbe57e173	-0.21082096
5	0x3d380180	0.044923306
6	0x3d474160	0.04864633
7	0x3d3ad63a	0.04561446
8	0xbd50f5a0	-0.051015496
9	0x3e25328e	0.16132566
10	0xbd8bf37c	-0.0683355
11	0x3d97cc75	0.07412044
12	0xbe3daa96	-0.18522105
13	0x3dd339d1	0.10313762
14	0x3e0db654	0.13839084
15	0xbd371f95	-0.044707853
16	0xbda35e75	-0.079770006
17	0xbe4b1f40	-0.1983614
18	0x3d6eeb50	0.05832988
19	0xbe3fbc24	-0.18724114
20	0xbe49de78	-0.19713771
21	0xbe541f9f	-0.20715187
22	0xbcc2d923	-0.02378518
23	0x3d0b3d95	0.033994276
24	0xbe44068a	-0.1914312
25	0xbe0db4bb	-0.13838474
26	0xbe621381	-0.22077753
27	0x3d7b7323	0.0613891
28	0xbe4e4591	-0.20143725
29	0x3de90905	0.113786735
30	0x3e1f3c26	0.15550289
31	0x3d96e3f8	0.073677
32	0xbd195f45	-0.03744437
33	0x3cee5863	0.02909488
34	0xbd8528f6	-0.06501953
35	0xbe3e58b2	-0.18588522
36	0xbd4c4762	-0.049872763
37	0xbd7eb6a0	-0.062185884
38	0xbe4a8ba8	-0.19779837
39	0xbe599969	-0.21249928
40	0xbe384a11	-0.17997004
41	0x3d9c809d	0.076417185
42	0x3d944b90	0.07240975
43	0x3d9369a0	0.07197881
44	0xbe44cc44	-0.19218546
45	0xbda68828	-0.081314385
46	0x3dad3a1d	0.0845835
47	0x3a2c8033	0.00065803825
48	0x3e03fe2b	0.12889926
49	0xbb809bc4	-0.0039248187
50	0x3d2baf07	0.041914966
51	0xbd890192	-0.06689753
52	0x3d93a8bd	0.07209919
53	0x3db0fce5	0.08641986
54	0xbe504d1f	-0.2034192
55	0xbe50c041	-0.20385839
56	0x3db0d9c1	0.08635283
57	0xbe5aa5ef	-0.21352361
58	0xbe377775	-0.17916663
59	0xbd81c8b1	-0.06337107
60	0x3d9ccc28	0.07656127
61	0x3dcb0841	0.09913684
62	0x3d77247d	0.060337532
63	0xbde62863	-0.11238172
64	0xbe37248a	-0.17885032
65	0xbe384cad	-0.17998
66	0x3e020107	0.12695704
67	0xbe3d7ad3	-0.18503885
68	0xbdcec5ac	-0.10096297
69	0xbdc555af	-0.096354835
70	0x3d0fce12	0.035108633
71	0xbd41c3e8	-0.04730597
72	0x3e0ef30e	0.13959906
73	0xbe680a19	-0.22660102
74	0xbe42e1ba	-0.1903142
75	0xbd3ed3e6	-0.0465888
76	0xbe51dab0	-0.20493579
77	0x3d8d824d	0.069096185
78	0xbb9f0910	-0.0048533753
79	0x3d90975a	0.07060118
80	0xbe127720	-0.14303255
81	0xbe4fdd67	-0.20299302
82	0xbd88c821	-0.066787966
83	0xbd54866d	-0.05188601
84	0x3d7c7b6e	0.06164115
85	0xbd19a660	-0.037512183
86	0xbe481230	-0.19538188
87	0xbc14195c	-0.009039249
88	0x3d02ad0d	0.031903315
89	0x3d17011c	0.036866292
90	0xbd6316ce	-0.05544167
91	0x3dfa0bb3	0.12209263
92	0x3dd8841b	0.10572072
93	0xbd7d3199	-0.061814878
94	0xbd9d8a07	-0.07692342
95	0xbd339d8d	-0.043851424
96	0xbd5ef445	-0.054432172
97	0x3e161f1e	0.14660308
98	0x3da7c11d	0.0819113
99	0x3d9cdbab	0.07659086
100	0xbe63ea1b	-0.22257273
101	0x3da00aa3	0.07814529
102	0xbe5a8e43	-0.21343331
103	0x3d3f0ff7	0.046646085
104	0x3dc87854	0.09788576
105	0x3dc9ae6e	0.09847723
106	0xbcc11c17	-0.023572965
107	0x3dbf42fa	0.09338947
108	0x3dd1acc0	0.102380276
109	0xbe60a766	-0.21938857
110	0xbd5244aa	-0.051335014
111	0x3db15f28	0.08660728
112	0x3d77a2d4	0.06045802
113	0x3d9adbea	0.075614765
114	0x3dcd605d	0.100281455
115	0x3dae3fd2	0.085082665
116	0x3e24b058	0.16082895
117	0xbe453d80	-0.19261742
118	0xbe5a9f02	-0.21349719
119	0x3d2ca4b9	0.04214928
120	0x3e08c9c4	0.13358217
121	0xbe451a70	-0.19248366
122	0xbdb8188c	-0.08989057
123	0xbe34fbbf	-0.17674159
124	0x3dcbcc1b	0.099510394
125	0xbe305c97	-0.1722282
126	0xbd1b3a8d	-0.037897635
127	0x3e3f4308	0.18677914
128	0x3be34536	0.006935741
129	0xbc90ae6c	-0.017661296
130	0xbd302393	-0.043002676
131	0xbd111df1	-0.035428945
132	0x3de6435d	0.11243317
133	0xbd223acd	-0.039606858
134	0xbad02358	-0.0015879674
135	0xbd586d1a	-0.052838422
136	0xbc47af43	-0.012187782
137	0xbd982065	-0.07428054
138	0xbca8eae4	-0.020619817
139	0xbd866d7d	-0.06563852
140	0x3dceb487	0.100930266
141	0xbd411e6b	-0.04714815
142	0xbd896c6e	-0.067101344
143	0xbc0be54e	-0.008538557
144	0xbca566b9	-0.020190584
145	0x3dfcbd80	0.12340832
146	0xbca53c6a	-0.02017041
147	0x3df63bd7	0.12023132
148	0x3de87b6d	0.113516666
149	0x3de8e2df	0.11371397
150	0xbd3085cc	-0.04309635
151	0xbd876a7b	-0.066121064
152	0x3e02445d	0.12721391
153	0x3d74aa33	0.059732627
154	0x3e061300	0.13093185
155	0xbcf3751c	-0.029718928
156	0x3de1d2c0	0.110265255
157	0xbd7a9d3f	-0.061185118
158	0xbdcb572c	-0.09928736
159	0xbd0dfa6e	-0.034662656
160	0xbc3279f4	-0.010893334
161	0xbd1de506	-0.038548492
162	0xbb6c9829	-0.0036101437
163	0x3deaa002	0.114563
164	0xbc878a67	-0.016545488
165	0xbcc4b1ad	-0.024010504
166	0x3dcf0824	0.101089746
167	0x3df109f3	0.11769476
168	0x3de6ea10	0.11275113
169	0xbd83020f	-0.06396877
170	0xbd41346d	-0.047169138
171	0xbd79f6cc	-0.06102638
172	0x3de6818a	0.11255176
173	0xbc273176	-0.0102046635
174	0xbd881512	-0.06644644
175	0xbd2df514	-0.042470053
176	0xbd55ce45	-0.052198667
177	0xbd622d53	-0.055219006
178	0xbd335818	-0.043785185
179	0xbbd38ce1	-0.006456003
180	0xbd08f628	-0.033437878
181	0xbd79ec67	-0.061016466
182	0x3df503c7	0.11963611
183	0x3e05b4de	0.13057277
184	0xbd2b022c	-0.041750118
185	0x3e037403	0.12837224
186	0x3d9ee7d6	0.07759063
187	0xbcb791dd	-0.02240842
188	0xbd5c4129	-0.05377308
189	0xbd235f61	-0.039885882
190	0xbc92970d	-0.017894292
191	0x3d711493	0.05885751
192	0x3dc76870	0.09736717
193	0x3ddbf030	0.107391715
194	0xbd5ada6e	-0.053430967
195	0x3dedbb8e	0.11608039
196	0x3ab47c11	0.0013769885
197	0xbbc06e6b	-0.005872538
198	0xbd4d8e2b	-0.05018441
199	0xbc6e3af0	-0.014540419
200	0xbdc9cb2b	-0.09853204
201	0x3e05d003	0.13067631
202	0x3dc83fab	0.09777769
203	0xbc9eff75	-0.01940892
204	0x3e011fdd	0.12609811
205	0xbd7a0dc7	-0.061048295
206	0xbc6c2064	-0.014412019
207	0xbd18a94a	-0.03727082
208	0x3d5ab08c	0.053391024
209	0x3df28207	0.11841207
210	0xbc73afea	-0.014873484
211	0xbccc7e65	-0.024962613
212	0xbd0cbc6f	-0.03435939
213	0xbcad6194	-0.021164693
214	0x3dd04a1e	0.10170387
215	0xbc8ea458	-0.01741235
216	0xbd36548e	-0.04451423
217	0xbcda665a	-0.026660133
218	0xbbf42cf6	-0.007451649
219	0xbd8ea9ca	-0.069659784
220	0xbd763ad7	-0.060114708
221	0xbcdaaa11	-0.026692422
222	0x3d60f789	0.054923568
223	0xbd26e6c1	-0.040747408
224	0xbd1a2f70	-0.037642896
225	0xbd9de9ed	-0.077106334
226	0xbd85282e	-0.06501804
227	0xbccd1c16	-0.025037806
228	0x3ddcee96	0.10787694
229	0xbd3ca87f	-0.046059128
230	0x3de49923	0.11162021
231	0xbc1b3694	-0.009473462
232	0xbd2c3e47	-0.04205158
233	0xbd194259	-0.03741679
234	0xbc590ae2	-0.013247224
235	0xbd0862c0	-0.0332973
236	0xbd88df67	-0.066832356
237	0x3de4456a	0.11146052
238	0xbc2b9063	-0.010471436
239	0xbd822d87	-0.0635634
240	0xbd3a196c	-0.0454344
241	0xbd61b9cf	-0.05510884
242	0xbd7b3333	-0.061328124
243	0xbd4d14be	-0.05006861
244	0xbd885b3a	-0.06658025
245	0x3ddce2ed	0.1078547
246	0x3e04822c	0.12940282
247	0xbcbc8150	-0.02301088
248	0xbd877f30	-0.06616056
249	0x3df9dd29	0.12200386
250	0x3b9ea629	0.004841585
251	0x3dd769f0	0.10518253
252	0xbd6a8457	-0.057255115
253	0x3dcf1ebf	0.10113286
254	0xbc691f0c	-0.014228594
255	0xbd8b396b	-0.06798061

action_model._discrete_distribution.branches.0.bias f4 [3]
0	0x3e1c4462	0.15260461
1	0xbdef2637	-0.11677211
2	0xbdbe50d0	-0.092927575

exp_avg f4 [128, 1]
0	0xb6930717	-4.3817668e-06
1	0xb67ecb9b	-3.7967463e-06
2	0x352e28e1	6.487954e-07
3	0x34adbba7	3.2360296e-07
4	0x3459906e	2.0262243e-07
5	0xb68b3cd5	-4.1496046e-06
6	0xb6b108c4	-5.2760315e-06
7	0xb2ff70bb	-2.9737171e-08
8	0x35a7b984	1.2496462e-06
9	0x35264182	6.1935145e-07
10	0x35502cef	7.7551425e-07
11	0xb67ccfc2	-3.7671857e-06
12	0xb6b9b29e	-5.5342234e-06
13	0xb6be795f	-5.6765707e-06
14	0x3557fb31	8.0459273e-07
15	0xb5f27f49	-1.806745e-06
16	0x35865bef	1.0010534e-06
17	0x37185cac	9.081483e-06
18	0xb64f7ca8	-3.0917963e-06
19	0x363299de	2.661363e-06
20	0xb6484609	-2.9843088e-06
21	0xb67f6e63	-3.8062215e-06
22	0xb44cf55e	-1.9088245e-07
23	0xb6440376	-2.920829e-06
24	0xb6a735e2	-4.9832606e-06
25	0xb54c6a8d	-7.6150974e-07
26	0x358c182f	1.0437851e-06
27	0xb6265a5d	-2.4788526e-06
28	0xb641139b	-2.8770653e-06
29	0xb39cc0b9	-7.299372e-08
30	0xb588503e	-1.0156143e-06
31	0x33b83295	8.5773685e-08
32	0xb6a2cc81	-4.8517836e-06
33	0x35e2068e	1.684022e-06
34	0x356e8398	8.8853403e-07
35	0xb6d87f87	-6.4521478e-06
36	0x361b54bf	2.3146129e-06
37	0x338b790b	6.4947095e-08
38	0xb6a0aac0	-4.7882495e-06
39	0xb5e9582b	-1.7385513e-06
40	0xb6497ebb	-3.00251e-06
41	0xb68ffaab	-4.2909137e-06
42	0x33a6a54e	7.760046e-08
43	0xb5588661	-8.066182e-07
44	0xb6770731	-3.6810054e-06
45	0x354c2239	7.604572e-07
46	0x35133fd9	5.485468e-07
47	0x357602a9	9.164601e-07
48	0xb62ed9b5	-2.6054743e-06
49	0xb3d612c4	-9.968565e-08
50	0xb6c87c7d	-5.974957e-06
51	0xb50d490e	-5.26329e-07
52	0x35ab8527	1.2779245e-06
53	0x358f330c	1.0669187e-06
54	0x3595296c	1.111342e-06
55	0x3580ba16	9.590901e-07
56	0x348ce4bf	2.6243467e-07
57	0xb64f2115	-3.086466e-06
58	0x371c17ee	9.303896e-06
59	0xb5bb3b4c	-1.3949843e-06
60	0xb6097078	-2.0480056e-06
61	0xb68e77cd	-4.2458764e-06
62	0xb6525a41	-3.1344973e-06
63	0xb70524bf	-7.935973e-06
64	0xb6393436	-2.759754e-06
65	0xb62e31a7	-2.5956922e-06
66	0xb5cf6071	-1.545077e-06
67	0xb4fa5ad2	-4.663221e-07
68	0x34db7d4c	4.0883094e-07
69	0xb5005c1b	-4.7817747e-07
70	0x35733336	9.0599076e-07
71	0x36a5dd44	4.943142e-06
72	0x35979a92	1.1295363e-06
73	0x346777af	2.1557092e-07
74	0x3505e24f	4.9875683e-07
75	0xb687f7b5	-4.0521504e-06
76	0x3579bf55	9.3038153e-07
77	0xb50ebb8d	-5.3172045e-07
78	0xb55b9586	-8.180144e-07
79	0x357a5871	9.3260957e-07
80	0xb70626ca	-7.996054e-06
81	0x35a44dd3	1.2241602e-06
82	0x359ae467	1.1540368e-06
83	0x355f6807	8.3225353e-07
84	0x35615ee1	8.39571e-07
85	0xb66806ec	-3.4574723e-06
86	0x341874bb	1.419857e-07
87	0x3584c0f0	9.890919e-07
88	0x355adc12	8.1531573e-07
89	0x34dde1d7	4.1328778e-07
90	0x348bfe97	2.6076006e-07
91	0xb65c2ac4	-3.2807447e-06
92	0xb5572a14	-8.0154973e-07
93	0xb57db813	-9.451771e-07
94	0xb44eb628	-1.9251513e-07
95	0xb61acc16	-2.3066582e-06
96	0xb584a554	-9.882883e-07
97	0x355ad391	8.15192e-07
98	0x3502b384	4.8690003e-07
99	0x358296c1	9.72963e-07
100	0x33c62208	9.226284e-08
101	0x356f98d7	8.925685e-07
102	0xb69571b0	-4.453781e-06
103	0xb545d965	-7.370457e-07
104	0x356469ae	8.5090403e-07
105	0xb62a3645	-2.5363563e-06
106	0x32967435	1.7515143e-08
107	0x3518d807	5.6938774e-07
108	0x33a1f7c0	7.542212e-08
109	0xb64699da	-2.9593853e-06
110	0x3574fd16	9.126537e-07
111	0xb500f30e	-4.8037407e-07
112	0x358798e4	1.0102781e-06
113	0x350c9d7b	5.238323e-07
114	0xb62c0b3d	-2.5636539e-06
115	0x3705da71	7.978278e-06
116	0xb66ccc4a	-3.5285652e-06
117	0xb204d624	-7.732101e-09
118	0x36c2e780	5.8086007e-06
119	0x35a408dc	1.2221531e-06
120	0x35452eda	7.3456397e-07
121	0xb671b0ac	-3.6014635e-06
122	0xb660d2e2	-3.350135e-06
123	0x36bbea46	5.6003073e-06
124	0x35613927	8.39022e-07
125	0xb65e3552	-3.3111614e-06
126	0x353fa1d3	7.138853e-07
127	0x3587e320	1.0124386e-06

exp_avg_sq f4 [128, 1]
0	0x3bc6881a	0.006058705
1	0x3b86026e	0.004089645
2	0x3995a079	0.00028539056
3	0x39a2db74	0.00031062553
4	0x38ec9665	0.0001128137
5	0x3b996242	0.0046809027
6	0x3c104611	0.008805768
7	0x3915ba34	0.00014279113
8	0x388c9e44	6.7051995e-05
9	0x398d1f59	0.00026916972
10	0x39c2b18a	0.0003713484
11	0x3b8b9e46	0.004260811
12	0x3c149170	0.009067878
13	0x3c14878f	0.009065523
14	0x392a5d99	0.00016247331
15	0x3a345518	0.0006879135
16	0x38c4c731	9.3831106e-05
17	0x3c91781d	0.01775747
18	0x3b21f645	0.0024713438
19	0x3b047bca	0.0020215386
20	0x3b28cd5f	0.0025757176
21	0x3b899ab3	0.00419935
22	0x385f5320	5.324476e-05
23	0x3aec85cf	0.0018045249
24	0x3bc202b5	0.005920733
25	0x38c7b5c9	9.5229196e-05
26	0x38de9f31	0.000106154366
27	0x3aa354a2	0.0012461136
28	0x3b00b6b9	0.0019640161
29	0x388eaa8a	6.802853e-05
30	0x3733a5fc	1.0707878e-05
31	0x3789280f	1.6350326e-05
32	0x3bd1539d	0.0063881413
33	0x3a124060	0.00055790506
34	0x3936eef1	0.00017445885
35	0x3c2634ee	0.010144455
36	0x3a9261ea	0.0011168097
37	0x3955a9b8	0.00020376488
38	0x3bbad2b7	0.0057013887
39	0x3a3620de	0.00069476466
40	0x3b1bad80	0.0023754537
41	0x3ba00976	0.0048839403
42	0x38db0ac7	0.00010444741
43	0x369586b8	4.4562294e-06
44	0x3b51dd74	0.0032022865
45	0x39a9c8f0	0.00032383902
46	0x36bd8564	5.6481676e-06
47	0x35c5785e	1.4712675e-06
48	0x3af3262e	0.0018550807
49	0x36df674f	6.6579446e-06
50	0x3c22e01e	0.009941129
51	0x365c91e8	3.2867483e-06
52	0x3a009da2	0.00049063016
53	0x38b324b2	8.54222e-05
54	0x373ad7f4	1.1136744e-05
55	0x36595440	3.238456e-06
56	0x394a259e	0.00019278235
57	0x3b0363aa	0.0020048418
58	0x3ca43b5b	0.020047834
59	0x39aa23e6	0.00032451673
60	0x3a26ff32	0.00063704245
61	0x3bad63e3	0.0052914484
62	0x3b1f0f14	0.0024270462
63	0x3c875e31	0.016524406
64	0x3b105806	0.0022025122
65	0x3a86b71a	0.0010277957
66	0x3a091b5e	0.0005230213
67	0x37698464	1.3918707e-05
68	0x398f7f52	0.00027369946
69	0x36c0f0e0	5.7500874e-06
70	0x3960190a	0.00021371632
71	0x3bac453e	0.0052572777
72	0x370d70dc	8.430532e-06
73	0x39134ea7	0.00014048313
74	0x39ef24ef	0.0004561315
75	0x3b949baa	0.004535158
76	0x3968f101	0.00022215025
77	0x3773c74b	1.453033e-05
78	0x390900e2	0.00013065667
79	0x3613dabc	2.2032027e-06
80	0x3c831fc4	0.016006358
81	0x36d84b98	6.446102e-06
82	0x38a59b05	7.896688e-05
83	0x3944b6f1	0.00018760168
84	0x397ac379	0.00023914677
85	0x3b574b29	0.0032851195
86	0x3927ec73	0.00016014445
87	0x37f524a9	2.9223347e-05
88	0x39c4be6a	0.00037525903
89	0x39904cb3	0.00027522966
90	0x341cab93	1.459105e-07
91	0x3b3e96bd	0.0029081546
92	0x3709a9d2	8.205376e-06
93	0x38ef4cff	0.0001141075
94	0x39858f5e	0.00025474554
95	0x3aa60866	0.0012667298
96	0x38475a50	4.7529407e-05
97	0x399929bd	0.00029213532
98	0x399d4df5	0.00030003456
99	0x393b56a5	0.00017865987
100	0x3991f76e	0.00027840905
101	0x396bf77e	0.00022503544
102	0x3baabeac	0.005210718
103	0x38fb9ba7	0.00011997605
104	0x399ee211	0.0003030454
105	0x3ade94fb	0.0016981655
106	0x3890f596	6.912199e-05
107	0x398ce6d4	0.0002687486
108	0x39102501	0.00013746695
109	0x3b04ea1a	0.0020281137
110	0x3897c597	7.237045e-05
111	0x3815a9fc	3.568268e-05
112	0x39014217	0.00012327019
113	0x388f382f	6.8292364e-05
114	0x3ac7df8a	0.0015249115
115	0x3c48223c	0.012215193
116	0x3b7699bd	0.0037628256
117	0x366f42de	3.5652697e-06
118	0x3bc4b53d	0.0060030506
119	0x37cf3ef8	2.4705645e-05
120	0x3533ac77	6.6933666e-07
121	0x3b7f3962	0.0038944115
122	0x3b67c614	0.0035365866
123	0x3be1c37f	0.00688976
124	0x38da240f	0.000104017665
125	0x3b1e3639	0.0024141206
126	0x39306090	0.0001682064
127	0x39006be6	0.00012247227

exp_avg f4 [128]
0	0xb613c2e7	-2.2018155e-06
1	0xb5e829c9	-1.7297508e-06
2	0x3449c770	1.8792139e-07
3	0x31447c7a	2.859251e-09
4	0xb4f8498e	-4.6247118e-07
5	0xb615aee6	-2.2304534e-06
6	0xb644e787	-2.9341043e-06
7	0xb303d243	-3.0692046e-08
8	0xb5226ec6	-6.05109e-07
9	0x33d1d9ca	9.7719365e-08
10	0xb1dc4ede	-6.411809e-09
11	0xb5fdbae5	-1.8904362e-06
12	0xb64fd058	-3.0966676e-06
13	0xb653ab6a	-3.1541226e-06
14	0x346bbc52	2.1954591e-07
15	0xb5846836	-9.865096e-07
16	0xb47d02ec	-2.3563524e-07
17	0x3681637d	3.8560815e-06
18	0xb5f0d887	-1.7944411e-06
19	0x35f643bd	1.8348143e-06
20	0xb5cacd37	-1.5109898e-06
21	0xb5e79182	-1.725319e-06
22	0xb4322f91	-1.6594846e-07
23	0xb5e209e9	-1.6841196e-06
24	0xb602d276	-1.9494014e-06
25	0xb4be236d	-3.5416033e-07
26	0xb4db1668	-4.0808231e-07
27	0xb59cd12e	-1.1683785e-06
28	0xb5bf1f38	-1.4239695e-06
29	0xb5054035	-4.9639794e-07
30	0xb449f60d	-1.8809097e-07
31	0xb56efc8a	-8.90294e-07
32	0xb63940d7	-2.760489e-06
33	0x350a2c8c	5.147383e-07
34	0xb1418a34	-2.8163756e-09
35	0xb6449660	-2.9293806e-06
36	0x35312e0c	6.6004645e-07
37	0x349dc4df	2.938677e-07
38	0xb6034d79	-1.9565616e-06
39	0xb5857641	-9.943689e-07
40	0xb5d12ddc	-1.558506e-06
41	0xb5f7a426	-1.8450708e-06
42	0xb466248a	-2.1433712e-07
43	0xb3db8cab	-1.02235695e-07
44	0xb5c6331a	-1.4767022e-06
45	0x3521bf6b	6.0255724e-07
46	0xb4b81a95	-3.4292012e-07
47	0xb5a1599c	-1.2021515e-06
48	0xb58d81c6	-1.0543088e-06
49	0xb53b4353	-6.97609e-07
50	0xb65b85e8	-3.2711487e-06
51	0xb4907a40	-2.691104e-07
52	0x357df403	9.460493e-07
53	0xb48fbc91	-2.6773026e-07
54	0xb56595b8	-8.552702e-07
55	0xb58760f3	-1.00865e-06
56	0x33889cc6	6.3615104e-08
57	0xb59a4077	-1.1492656e-06
58	0x3691ecde	4.3489117e-06
59	0xb53712e1	-6.8200285e-07
60	0xb5461b69	-7.3800635e-07
61	0xb60cec0f	-2.099903e-06
62	0xb5e4b793	-1.7040751e-06
63	0xb6793329	-3.713367e-06
64	0xb5c8d9e4	-1.4964576e-06
65	0xb540c603	-7.181372e-07
66	0xb50ea0fc	-5.3133385e-07
67	0xb3241040	-3.8199005e-08
68	0x34335bf9	1.6704134e-07
69	0xb42bad30	-1.5988621e-07
70	0xb41853e6	-1.4186625e-07
71	0x35fac507	1.8683794e-06
72	0xb58bfe8d	-1.0430391e-06
73	0xb2d8e580	-2.5250074e-08
74	0x3553412b	7.869846e-07
75	0xb6147627	-2.2122492e-06
76	0x339fe9f0	7.4465675e-08
77	0xb53ff0ff	-7.150374e-07
78	0xb4bb8ca7	-3.4933802e-07
79	0xb59c37e6	-1.1639174e-06
80	0xb66d65c8	-3.5374997e-06
81	0xb5b5aff1	-1.3536757e-06
82	0xb50176d2	-4.822915e-07
83	0x34474899	1.855973e-07
84	0x34b46df5	3.3607617e-07
85	0xb5cdd120	-1.5334554e-06
86	0x33d15e39	9.74946e-08
87	0xb50e5620	-5.302445e-07
88	0x3502f8ac	4.879064e-07
89	0xb310475b	-3.359251e-08
90	0xb48e5f56	-2.6518927e-07
91	0xb5f4ad8a	-1.8229923e-06
92	0xb4cad711	-3.7781913e-07
93	0xb4e4bbab	-4.2604856e-07
94	0x3499cd0b	2.864766e-07
95	0xb59a3354	-1.1488833e-06
96	0xb2921221	-1.7004881e-08
97	0x3411a0b8	1.3562646e-07
98	0x339e221b	7.363652e-08
99	0x342fab3b	1.6360438e-07
100	0x3484c6f0	2.4731662e-07
101	0x353950ef	6.9035644e-07
102	0xb62557f8	-2.463812e-06
103	0xb4984fec	-2.8370357e-07
104	0x34e8a62b	4.333427e-07
105	0xb5a9b3ff	-1.2643867e-06
106	0xb510ad41	-5.38963e-07
107	0xb42eb6d0	-1.627152e-07
108	0xb36bed9f	-5.4931316e-08
109	0xb593b182	-1.1004015e-06
110	0xb4aa6616	-3.1739245e-07
111	0x32255e67	9.625729e-09
112	0x3306cdef	3.13866e-08
113	0x35072749	5.0348586e-07
114	0xb5b80991	-1.3711852e-06
115	0x36647191	3.4040752e-06
116	0xb5d28891	-1.5685965e-06
117	0xb56e19a3	-8.8699215e-07
118	0x3622befa	2.4251044e-06
119	0xb557d0ac	-8.03974e-07
120	0xb5824056	-9.704479e-07
121	0xb5cee159	-1.5413781e-06
122	0xb5ea7988	-1.7469729e-06
123	0x3612af4b	2.185773e-06
124	0x33e72d92	1.0765065e-07
125	0xb5e847bf	-1.7306228e-06
126	0xb1b35d66	-5.220204e-09
127	0xb3aa7cfd	-7.938977e-08

exp_avg_sq f4 [128]
0	0x3a6b7a8d	0.00089828
1	0x3a1f8c44	0.000608627
2	0x382c149d	4.1027193e-05
3	0x383797e3	4.3772056e-05
4	0x3785686f	1.5903466e-05
5	0x3a3822c7	0.0007024225
6	0x3aab4be7	0.0013068885
7	0x37a83bb9	2.0054971e-05
8	0x373bd27f	1.11950785e-05
9	0x3821aab9	3.854439e-05
10	0x385f3963	5.322079e-05
11	0x3a25ea1e	0.00063291367
12	0x3ab1a3d1	0.0013552849
13	0x3ab1c825	0.0013563676
14	0x37cbaa07	2.4278661e-05
15	0x38e25aa4	0.00010793403
16	0x37753c4a	1.4617175e-05
17	0x3b2ebdca	0.0026663416
18	0x39c611c4	0.0003777874
19	0x399cbeb2	0.00029896718
20	0x39c99adb	0.00038453084
21	0x3a238c89	0.0006238898
22	0x36feeffe	7.5977287e-06
23	0x3991d5ae	0.0002781576
24	0x3a67df7f	0.0008845254
25	0x37864015	1.6003885e-05
26	0x378892d3	1.6280834e-05
27	0x394817cb	0.0001908235
28	0x399b840f	0.00029662295
29	0x37254481	9.850716e-06
30	0x366a4de6	3.491406e-06
31	0x363dc014	2.8274999e-06
32	0x3a7bea90	0.00096098427
33	0x38aca88a	8.232992e-05
34	0x37d96d1d	2.5919226e-05
35	0x3ac68fd8	0.001514907
36	0x392d34fb	0.00016518302
37	0x37f0ce37	2.8706256e-05
38	0x3a5efb69	0.0008506091
39	0x38e2003c	0.000107765634
40	0x39bbffd3	0.00035858023
41	0x3a3e5beb	0.00072616216
42	0x37768227	1.4693046e-05
43	0x35ec9f82	1.7629793e-06
44	0x39faca20	0.0004783431
45	0x38472933	4.7483667e-05
46	0x3592f228	1.0948324e-06
47	0x355ccf6b	8.225822e-07
48	0x3990e700	0.0002763793
49	0x35cab6fa	1.5103426e-06
50	0x3ac36b58	0.001490931
51	0x35aaf837	1.2738227e-06
52	0x38969adc	7.181402e-05
53	0x376499ef	1.36256995e-05
54	0x36330772	2.6677412e-06
55	0x359a2801	1.1485537e-06
56	0x37e43803	2.72058e-05
57	0x399e4693	0.0003018869
58	0x3b4527c6	0.0030083521
59	0x385beda0	5.2434974e-05
60	0x38cd6e13	9.795665e-05
61	0x3a4eacdd	0.0007884035
62	0x39c1c34c	0.00036957336
63	0x3b215378	0.0024616402
64	0x39ac977b	0.00032919258
65	0x39236712	0.00015583288
66	0x38a6c5af	7.952318e-05
67	0x362753e2	2.4933765e-06
68	0x3822d7f3	3.882493e-05
69	0x35b12e6f	1.3201042e-06
70	0x3803093f	3.1241445e-05
71	0x3a4e45b9	0.0007868666
72	0x36148003	2.2128231e-06
73	0x37a5e774	1.9777312e-05
74	0x38895bc1	6.5497596e-05
75	0x3a3203a2	0.00067907025
76	0x3809e225	3.287396e-05
77	0x3661cd5d	3.364715e-06
78	0x37abe537	2.0491525e-05
79	0x357da294	9.4486427e-07
80	0x3b1c70f4	0.0023871036
81	0x360841de	2.030392e-06
82	0x37550e75	1.2699155e-05
83	0x37e41007	2.7187181e-05
84	0x38143850	3.5338395e-05
85	0x3a0037a4	0.00048911036
86	0x37bd1c4b	2.254373e-05
87	0x36ac4c06	5.1348497e-06
88	0x38658442	5.472103e-05
89	0x382324d6	3.8896535e-05
90	0x3395042e	6.9391135e-08
91	0x39e6f44b	0.0004405103
92	0x3630e9e4	2.6362186e-06
93	0x379de9ca	1.8824725e-05
94	0x381627f3	3.5799992e-05
95	0x394b66e0	0.00019397913
96	0x370731ab	8.058191e-06
97	0x3831cf75	4.2393298e-05
98	0x3832906d	4.2573014e-05
99	0x37e32375	2.707702e-05
100	0x3824515d	3.9176422e-05
101	0x3808cc72	3.261533e-05
102	0x3a4e725d	0.0007875318
103	0x379a1de4	1.837215e-05
104	0x383b0640	4.4590095e-05
105	0x3986009b	0.00025558923
106	0x37268398	9.92501e-06
107	0x382012bb	3.8164417e-05
108	0x37a200bc	1.9312247e-05
109	0x399f0081	0.0003032722
110	0x373c9bef	1.1241979e-05
111	0x36b3d830	5.3597832e-06
112	0x37a12e5d	1.9214285e-05
113	0x3722cb4d	9.703287e-06
114	0x3975eef4	0.00023454038
115	0x3af24ae9	0.001848546
116	0x3a124668	0.00055799494
117	0x35962243	1.1185842e-06
118	0x3a6ffa0f	0.0009154388
119	0x36a61c48	4.950478e-06
120	0x350069c4	4.7837625e-07
121	0x3a174a3a	0.00057712535
122	0x3a09a155	0.00052501756
123	0x3a86ae12	0.0010275266
124	0x3786857b	1.6036201e-05
125	0x39c12c48	0.0003684482
126	0x37cd74fa	2.4492376e-05
127	0x379eccc5	1.8930421e-05

exp_avg f4 [128, 128]
0	0xb5124750	-5.449301e-07
1	0xb5065962	-5.004896e-07
2	0x34b145c3	3.3019577e-07
3	0x34af5f7c	3.2665764e-07
4	0x34afb3c9	3.27271e-07
5	0xb58f6e82	-1.0686492e-06
6	0xb55f1577	-8.310521e-07
7	0x34a1d813	3.0145802e-07
8	0x34aaca45	3.1812138e-07
9	0x34b1de31	3.3130485e-07
10	0x34a6f3e3	3.109736e-07
11	0xb52ed7ee	-6.513427e-07
12	0xb5931aa7	-1.096011e-06
13	0xb591db6d	-1.0867203e-06
14	0x34ad3f4a	3.226981e-07
15	0xb652ae23	-3.13938e-06
16	0x34aea083	3.2526813e-07
17	0xb367e11e	-5.398862e-08
18	0xb64940bf	-2.9989021e-06
19	0xb69197eb	-4.3390223e-06
20	0xb53d309a	-7.047871e-07
21	0xb407201b	-1.2584535e-07
22	0x3499d71b	2.865498e-07
23	0xb6220326	-2.4141714e-06
24	0xb31d8431	-3.667464e-08
25	0xb65aaede	-3.2586318e-06
26	0x34b0a274	3.2900755e-07
27	0xb5bb9842	-1.3976899e-06
28	0xb58d0305	-1.0506197e-06
29	0x34aa2070	3.168857e-07
30	0x348b3829	2.593163e-07
31	0x346087f4	2.0911085e-07
32	0xb5b75559	-1.3659402e-06
33	0xb44a2327	-1.8825504e-07
34	0x34aeb4ea	3.2541658e-07
35	0x33660442	5.355492e-08
36	0xb45eb680	-2.0741754e-07
37	0x34a28701	3.027308e-07
38	0xb3079015	-3.156318e-08
39	0xb6585848	-3.2237895e-06
40	0xb59e0f81	-1.177643e-06
41	0xb39281f0	-6.82229e-08
42	0x34ac1dec	3.2059268e-07
43	0x348e344b	2.648761e-07
44	0xb3703838	-5.5930485e-08
45	0x34a14006	3.003517e-07
46	0x340b6734	1.2982929e-07
47	0x3491eb62	2.7179618e-07
48	0xb4dd232d	-4.1190052e-07
49	0x34a1443e	3.003824e-07
50	0xb5988573	-1.1363721e-06
51	0x348fa771	2.6757655e-07
52	0xb692b4bb	-4.372179e-06
53	0x34a94840	3.1531272e-07
54	0x3498c8f2	2.8458413e-07
55	0x3490c8de	2.696824e-07
56	0x34a51bda	3.075391e-07
57	0xb3004245	-2.9862594e-08
58	0xb392e83a	-6.8408966e-08
59	0xb646ff25	-2.9652813e-06
60	0x3419a928	1.4310774e-07
61	0xb553fbf0	-7.897024e-07
62	0xb5e5fe48	-1.7135835e-06
63	0x32f7a36c	2.88289e-08
64	0xb559992a	-8.106168e-07
65	0x33f37be8	1.1338108e-07
66	0xb52753ae	-6.233412e-07
67	0xb512e572	-5.4723125e-07
68	0x34a74571	3.11567e-07
69	0x3493be9f	2.751958e-07
70	0x34b20364	3.315755e-07
71	0xb3a5d1d0	-7.721576e-08
72	0x34992fdc	2.8533293e-07
73	0x34ac3991	3.2079382e-07
74	0x34a026cd	2.9830554e-07
75	0xb580e659	-9.603783e-07
76	0x34a1b13d	3.0117545e-07
77	0x348696e9	2.5069247e-07
78	0xb5d0d436	-1.5558969e-06
79	0x3493bf63	2.7520136e-07
80	0x334ac4d8	4.721082e-08
81	0x349747d4	2.8178204e-07
82	0x34ac925b	3.2143984e-07
83	0xb46aa90c	-2.1854447e-07
84	0x34b05ed0	3.285154e-07
85	0xb4d01082	-3.875503e-07
86	0x34a1af6e	3.011623e-07
87	0x34a6d32d	3.107356e-07
88	0x34a574f8	3.081875e-07
89	0x34aa83b4	3.1760794e-07
90	0x341c80e8	1.4575528e-07
91	0xb5e6287b	-1.7148117e-06
92	0x348afdcf	2.5889173e-07
93	0xb607f20a	-2.0257453e-06
94	0x349bfc96	2.905478e-07
95	0xb5d6a715	-1.599287e-06
96	0x346257c0	2.1079813e-07
97	0x34acd14b	3.2189777e-07
98	0x34aba857	3.1973715e-07
99	0x34ac3e24	3.208271e-07
100	0x34a1fb00	3.0171213e-07
101	0xb69dc3a7	-4.7017415e-06
102	0xb5d5e833	-1.5937316e-06
103	0xb4cf5269	-3.8616716e-07
104	0x34a3d53d	3.0516267e-07
105	0xb589b84f	-1.0260936e-06
106	0x34acf48a	3.2215422e-07
107	0x34aed3d3	3.2564148e-07
108	0x34ac9bad	3.2150766e-07
109	0xb427aef4	-1.5616735e-07
110	0x34adf028	3.2398498e-07
111	0x34977103	2.820817e-07
112	0x34aa45da	3.171579e-07
113	0xb69a5925	-4.5999354e-06
114	0xb5f511f7	-1.8259151e-06
115	0xb29568b8	-1.7393504e-08
116	0xb4e363a6	-4.235455e-07
117	0x348e3bba	2.6493018e-07
118	0xb13a7827	-2.713486e-09
119	0x349e077c	2.943524e-07
120	0x348c7c8c	2.6167652e-07
121	0xb4a7ed5e	-3.127888e-07
122	0xb52b04eb	-6.370962e-07
123	0xb3e930e9	-1.0858805e-07
124	0x34abce27	3.2001228e-07
125	0xb5d7587e	-1.6044503e-06
126	0x34b10277	3.2970613e-07
127	0x34ae681b	3.2485772e-07
128	0xb3f84edb	-1.1562744e-07
129	0xb3e42f93	-1.0625731e-07
130	0x3396a52c	7.014964e-08
131	0x33942376	6.8982374e-08
132	0x3394803d	6.9151135e-08
133	0xb4729b69	-2.2594544e-07
134	0xb43d1600	-1.761e-07
135	0x3386c93c	6.2764656e-08
136	0x33945d9f	6.9088166e-08
137	0x33971041	7.034442e-08
138	0x338c5f15	6.536553e-08
139	0xb41448cf	-1.3810062e-07
140	0xb478ddb4	-2.3177455e-07
141	0xb476f495	-2.2999514e-07
142	0x339424d1	6.898484e-08
143	0xb530ef1c	-6.591306e-07
144	0x3396b63a	7.018066e-08
145	0xb231ec6f	-1.0356515e-08
146	0xb5290572	-6.296533e-07
147	0xb5740b5b	-9.091361e-07
148	0xb41febe8	-1.4893851e-07
149	0xb2e990dc	-2.7190644e-08
150	0x337e554f	5.921657e-08
151	0xb5085c98	-5.079869e-07
152	0xb2110611	-8.44149e-09
153	0xb537a221	-6.840874e-07
154	0x3398038d	7.0786975e-08
155	0xb49e255b	-2.9456973e-07
156	0xb46e75d9	-2.220835e-07
157	0x338f8edf	6.6849445e-08
158	0x3366b7bf	5.3718164e-08
159	0x333fa6fe	4.462253e-08
160	0xb49ad533	-2.8839858e-07
161	0xb326a905	-3.880361e-08
162	0x3395405b	6.9500594e-08
163	0x3232fccd	1.0418444e-08
164	0xb33795ed	-4.2744364e-08
165	0x338773f7	6.307521e-08
166	0xb1fd3768	-7.369568e-09
167	0xb535c329	-6.771175e-07
168	0xb4856039	-2.4843192e-07
169	0xb2821d98	-1.514745e-08
170	0x3390f7e3	6.750613e-08
171	0x336b2d32	5.4756306e-08
172	0xb2571b27	-1.2520821e-08
173	0x3387b1e6	6.318787e-08
174	0x32efadb8	2.790226e-08
175	0x3383ba04	6.133999e-08
176	0xb3bbb3b8	-8.740557e-08
177	0x3388b869	6.3665375e-08
178	0xb480ec34	-2.4013718e-07
179	0x336efef1	5.564556e-08
180	0xb575e21d	-9.159865e-07
181	0x33923183	6.807661e-08
182	0x3387ff87	6.3329075e-08
183	0x3382933c	6.0803785e-08
184	0x338a0ca4	6.428425e-08
185	0xb1ecb12a	-6.888645e-09
186	0xb2631478	-1.3217793e-08
187	0xb5272378	-6.226396e-07
188	0x32fc5db8	2.937928e-08
189	0xb4337777	-1.6714135e-07
190	0xb4c1cadd	-3.6096654e-07
191	0x31b5ef23	5.29498e-09
192	0xb437f401	-1.7131971e-07
193	0x32c68ff3	2.3115694e-08
194	0xb40cf7bc	-1.3128641e-07
195	0xb3f6e992	-1.1497754e-07
196	0x338c5581	6.534811e-08
197	0x3374afbf	5.6970517e-08
198	0x3397f05f	7.075209e-08
199	0xb284cb2f	-1.545922e-08
200	0x33886a5d	6.352341e-08
201	0x339103a9	6.7527544e-08
202	0x3385ba6f	6.227207e-08
203	0xb45a5624	-2.033417e-07
204	0x3388946a	6.35999e-08
205	0x3360818c	5.2271886e-08
206	0xb4afde06	-3.2757833e-07
207	0x33844485	6.1591926e-08
208	0x321d01a4	9.138976e-09
209	0x3386dd72	6.280142e-08
210	0x33956a31	6.957669e-08
211	0xb342b38a	-4.5332435e-08
212	0x3396c609	7.020942e-08
213	0xb3b132aa	-8.2514205e-08
214	0x33869dc0	6.268556e-08
215	0x3391b4ff	6.785012e-08
216	0x338b9720	6.5001814e-08
217	0x338f690c	6.678064e-08
218	0x33061e77	3.1227014e-08
219	0xb4c20beb	-3.6143987e-07
220	0x33660c18	5.3562047e-08
221	0xb4e4fcc5	-4.2652223e-07
222	0x3380fe02	6.006668e-08
223	0xb4b4b90d	-3.3662255e-07
224	0x333b463e	4.3603215e-08
225	0x33929a2f	6.8267006e-08
226	0x3390a864	6.7361526e-08
227	0x3393a063	6.874395e-08
228	0x3386e5a0	6.28163e-08
229	0xb58438a9	-9.851257e-07
230	0xb4b44af7	-3.3582157e-07
231	0xb3ae5ffa	-8.1199644e-08
232	0x338a5ace	6.442643e-08
233	0xb46836af	-2.1626578e-07
234	0x33923823	6.808866e-08
235	0x3393ca3d	6.882008e-08
236	0x33916515	6.7704754e-08
237	0xb3103256	-3.3573393e-08
238	0x3395dbd3	6.978339e-08
239	0x337a3b94	5.8261847e-08
240	0x33929b16	6.826865e-08
241	0xb5815874	-9.636992e-07
242	0xb4ce6567	-3.844427e-07
243	0xb1346ab3	-2.62541e-09
244	0xb3c16932	-9.006398e-08
245	0x3372116a	5.6360854e-08
246	0x2ff9e023	4.5452095e-10
247	0x338b22af	6.479001e-08
248	0x33801e6e	5.9659996e-08
249	0xb38e8cc1	-6.637993e-08
250	0xb410eb23	-1.3496587e-07
251	0xb2bc3e2a	-2.191435e-08
252	0x3393be40	6.879827e-08
253	0xb4b58dca	-3.3817042e-07
254	0x3396d588	7.0237604e-08
255	0x339632a0	6.994128e-08
