PFG-GAME/config/results/train01/DifficultyAgent/DifficultyAgent-120231.pt (torch, 436887 bytes, 33 tensors)

network_body._body_endoder.seq_layers.0.weight f4 [128, 4]
000000 ef ec b2 3e d0 d6 20 3e 15 b5 10 3e c6 76 e9 3d
       0.3494639 0.15706944 0.14131577 0.11399607
000010 2f 43 58 3f b8 26 50 3f 71 fc 19 bb 37 30 9a 3f
       0.84477514 0.8130908 -0.0023496414 1.2045964
000020 85 4a 53 bf 78 e9 9c bf b2 ab 9c 3e 08 bf 8d be
       -0.8253558 -1.2258749 0.30599743 -0.27684808
000030 a8 b1 b2 be 6f e2 4b be 1f d5 10 bc 4a ec 12 bf
       -0.34901166 -0.19910596 -0.0088398745 -0.573918
000040 86 c1 a0 be fd e8 96 3e 77 75 52 be 26 34 ab 3d
       -0.31397647 0.2947463 -0.20552622 0.08359556
000050 17 3b 3b 3e 31 de 3e bf a3 9f 53 3f d3 0e 4a be
       0.1828426 -0.7455779 0.8266546 -0.19732217
000060 18 c9 6a 3e 01 18 ae bd e4 98 17 bf 95 3b 18 3e
       0.22928274 -0.08500672 -0.5921767 0.14866479
000070 38 2e 9d be c6 9b cd 3e fd a0 e1 3e 2b f5 12 3f
       -0.30699325 0.40157908 0.44068137 0.57405347
000080 5f 8b 6e bd 00 b2 52 be 8d 68 cf 3e 42 e0 68 3e
       -0.058238383 -0.20575714 0.40509453 0.22741798
000090 62 bf 3d 3f 50 dc 8e 3f fb de f7 be 9a 32 1f bf
       0.7412015 1.1160984 -0.48412308 -0.62186587
0000a0 72 24 e6 be f8 18 b4 3e 61 48 0b be 0e e4 6d be
       -0.4494968 0.351753 -0.13601829 -0.23231527
0000b0 19 3c 9d be bf 47 46 bf e3 d4 54 be 43 3a 08 3f
       -0.30709913 -0.77453226 -0.20784335 0.532139
0000c0 35 b1 bd 3e 26 65 87 3e 42 fd 32 be f0 78 7d 3e
       0.3704926 0.26444358 -0.17479423 0.24753165
0000d0 3c d5 3d be 0f 68 87 bf 87 cd c5 be 4f 3e 44 bf
       -0.18538374 -1.0578631 -0.38633367 -0.76657575
0000e0 bc 92 b1 3e ce 9d a6 be 85 87 e5 be 6a 36 11 3f
       0.34682262 -0.3254227 -0.44829956 0.56723654
0000f0 b3 3c a0 be c4 1b 64 3f ef 2f cf be 16 4d 14 be
       -0.3129631 0.89104867 -0.40466258 -0.14482531
000100 2d 40 80 3e 14 b7 56 be c5 aa 8b be 35 db 6a 3e
       0.25048962 -0.20968276 -0.27278724 0.22935183
000110 ce 92 64 be 84 48 39 3f c9 17 b7 3d 6e 2a 50 3f
       -0.22321627 0.72376275 0.089400835 0.8131474
000120 b4 ef 1d bf 52 e6 c2 3d 62 06 34 be b2 ca 83 bf
       -0.6169388 0.09516586 -0.1758056 -1.0296233
000130 1b b5 44 3d e3 17 67 be 12 05 a7 3f 99 48 19 be
       0.048024278 -0.22567706 1.3048422 -0.149691
000140 40 35 99 3e 0f a1 ca bb 14 cd bd 3e a3 83 df bd
       0.2992344 -0.0061837505 0.37070525 -0.109137796
000150 bd 2d a1 3d 90 29 a6 3e 14 6d 36 bf 52 0d c5 be
       0.07870052 0.32453585 -0.7126019 -0.38486725
000160 c1 0a c8 3d b0 a3 17 3d e9 81 8c be 3f 8b 98 3f
       0.09767676 0.03702134 -0.27442864 1.1917495
000170 17 90 00 3f 6e 6d ac 3e ed a4 b2 3e e4 2d fd be
       0.50219864 0.33677238 0.34891453 -0.49449074
000180 41 ca 13 bd 58 7d c1 be a7 f9 5c bf f3 99 61 bf
       -0.036081556 -0.37790942 -0.8631844 -0.8812553
000190 6f ea 84 3f ed 00 ac 3e 14 61 f4 3e de 39 9f bf
       1.0384043 0.33594456 0.47730315 -1.2439535
0001a0 8a 73 cf 3e 39 d5 bc bb b1 6e 92 bc 2b 90 6d 3f
       0.40517837 -0.005762723 -0.017875047 0.9279811
0001b0 e9 3e f6 3d 4b 31 c8 be ba c5 67 3e b4 08 4a 3e
       0.12023718 -0.39100108 0.2263402 0.19729882
0001c0 14 1a 13 be f8 66 b0 be eb 7f 76 bf 56 ae 16 3f
       -0.14365417 -0.3445356 -0.9628894 0.58859766
0001d0 95 2d 86 3e 74 31 7b 3e 7f c0 33 bd eb b6 fb bd
       0.2620665 0.24530584 -0.04388475 -0.12290748
0001e0 67 6e 55 be f8 3a 9e 3d 52 56 41 bd 20 81 04 bd
       -0.20842896 0.07726091 -0.047201462 -0.032349706
0001f0 59 27 89 be 41 62 e2 3e 67 e3 95 3d 95 f4 31 3f
       -0.26787832 0.44215587 0.07318764 0.6951383
000200 e0 de 16 3d 50 80 c8 3e 42 58 29 3f 97 28 47 3f
       0.036833644 0.39160395 0.66150296 0.7779631
000210 5d 5a 21 3e ef 2f f6 3e c6 dc 0a 3d 8e 64 22 3f
       0.15757127 0.48083445 0.033901952 0.63434684
000220 0a ec 04 bf 0f 53 ac 3e ea 6e 51 3f b6 19 80 3e
       -0.5192267 0.3365712 0.81809866 0.25019616
000230 d7 fb 44 3f d6 bd 56 3e 88 b5 25 3d 4e b4 18 3f
       0.7694678 0.20970854 0.040456325 0.59650123
000240 3a 10 cf bd 96 9c b4 bf 21 93 f8 3d 7f c9 b7 3e
       -0.10110517 -1.4110286 0.121374376 0.35895917
000250 89 8a 66 bd ca e2 25 3f 16 09 20 be 81 2c 8b bf
       -0.05628446 0.6479918 -0.15628466 -1.0872957
000260 50 17 9d 3c 3e c0 26 3f 3d be 2e bf 33 f7 00 bf
       0.019176155 0.6513709 -0.6825903 -0.50377196
000270 81 b0 9c 3e 79 c5 e1 be f0 9e 1c 3e 4f 6d 8d be
       0.30603412 -0.44095972 0.15295005 -0.27622458
000280 c1 49 91 bd 7c 7f 18 3e a2 34 83 bd aa a9 38 3e
       -0.070941456 0.14892381 -0.06406523 0.18033472
000290 ec eb cd be ab 56 ec bd 2c 20 64 3f c9 2e 83 3c
       -0.40219057 -0.11539968 0.8911159 0.01601352
0002a0 f9 92 12 3f 6c fb 28 3d 08 63 28 bf 3d 83 d3 3e
       0.5725551 0.0412554 -0.6577611 0.41311064
0002b0 8e 2c 85 3f 30 e4 20 3f d8 1a d5 3e 57 6b 17 bf
       1.0404222 0.62848186 0.41622043 -0.5914816
0002c0 77 50 80 bd 3f d1 ba be 7d 8d 1d 3e 72 4d f8 be
       -0.062653475 -0.36487767 0.15386005 -0.48496586
0002d0 39 81 6a be d4 6b f2 3d cf 38 82 3e f7 34 01 3f
       -0.22900857 0.11836973 0.25433967 0.5047144
0002e0 de 08 8e be 4c 23 8d bd f3 cb 9b be 2c 63 d5 3e
       -0.2774114 -0.06891498 -0.30429038 0.41677225
0002f0 91 54 5c be f8 3a 48 bf 2e cd a3 bf e1 c4 4f 3d
       -0.21516635 -0.7821498 -1.2796991 0.050724868
000300 71 1f 10 bf 0a a6 59 be 06 aa 87 be 20 ab 06 bf
       -0.56297976 -0.21254745 -0.26496905 -0.52604866
000310 c9 0d c6 3d 4b 16 bc 3e b2 13 00 be 1c 77 bf 3d
       0.09670598 0.36735758 -0.12507513 0.0934889
000320 e3 52 c5 3e 82 25 73 3f f9 50 c2 bd 3f de 9f bd
       0.385398 0.9497911 -0.094881006 -0.07806062
000330 73 02 0a 3e ff 9c b1 be 21 a7 c8 be ec 0a b2 3f
       0.13477497 -0.3469009 -0.3919001 1.3909583
000340 ca 4e 7e bd d5 5e 41 3e a8 61 09 3f da 46 5c bb
       -0.062086858 0.18883832 0.53664637 -0.0033611567
000350 f6 73 e4 be 5c 06 21 bf 13 db 0c bf e7 cc 41 3e
       -0.4461972 -0.6290033 -0.5502178 0.1892582
000360 f9 82 c2 3d be 16 59 3e 42 41 f5 be 25 2b 6c bf
       0.09497637 0.21200082 -0.4790135 -0.92253333
000370 48 6c 84 be f1 6d 54 3d 70 f9 e9 be 86 4f 5f be
       -0.25863862 0.05186266 -0.45698118 -0.2180768
000380 a3 5c ff 3e 70 a6 aa 3e 4d f7 38 3f 44 d6 6c 3d
       0.49875364 0.33330107 0.7225235 0.057821527
000390 70 bd 0a 3f 0e 11 84 3e 7f d8 76 be b0 f3 97 3c
       0.5419531 0.25794262 -0.24106024 0.018548816
0003a0 37 25 cd 3e 64 38 e4 3e 3b d7 e5 be 8f a7 15 3f
       0.40067455 0.44574273 -0.4489077 0.584588
0003b0 d3 46 25 bd 66 e2 3b 3f 82 50 04 3e 62 73 03 bf
       -0.040350746 0.7339233 0.12921336 -0.51347935
0003c0 64 0a 91 3e 18 f1 0d 3f 1a bf 7b bf 5a 0a e2 3d
       0.2832824 0.55446005 -0.9833847 0.11037131
0003d0 0b 59 f5 be a5 3c 93 3d e3 22 03 3f e5 88 03 bf
       -0.47919497 0.071893014 0.5122511 -0.5138076
0003e0 cb 52 74 be 10 f6 83 3f 45 aa ec be bf ec 22 be
       -0.23859708 1.0309467 -0.46223655 -0.15910624
0003f0 19 0d b8 3e 2c 7a 0b bf f7 bd fd 3e 56 bf 9e 3d
       0.35947493 -0.54483294 0.49558994 0.07751338

network_body._body_endoder.seq_layers.0.bias f4 [128]
000000 a2 4f a1 3c ee 41 6a bc 1e e6 8e bb 9c 77 98 bc
       0.019691292 -0.014297945 -0.004360928 -0.018611722
000010 88 e9 7a bc 73 20 31 3c 4b a2 8d bc a5 44 bc 3b
       -0.015314467 0.010810959 -0.017289301 0.0057454878
000020 d9 19 34 bc 10 5c d1 3a 46 06 25 3b bc fb 8e bc
       -0.010992491 0.0015972871 0.0025180741 -0.01745402
000030 07 bb dc ba dd 94 15 3c 47 d0 96 bc ce d0 73 bc
       -0.0016840406 0.00912973 -0.018409861 -0.014881326
000040 46 3b c6 bb dc 87 72 3c 9d b9 c1 3b ca c9 53 bb
       -0.0060495464 0.014802899 0.0059120194 -0.003231632
000050 4e bb 8c 3b 2f ee 61 bc 4f ba 85 b7 13 b1 14 3c
       0.0042947894 -0.013789698 -1.5941592e-05 0.009075421
000060 bb 2a 10 bc 6c 63 88 3b 9e c6 47 3c 5c 91 46 bc
       -0.00879925 0.0041622426 0.01219335 -0.012119617
000070 e0 a1 a0 bc 74 ff bc 3b bb 79 93 bc 52 21 9b 3c
       -0.019608438 0.005767757 -0.018002382 0.018936787
000080 a7 6a 1f bb b3 fa 75 bc c3 bb 0d bc a8 cf e6 bb
       -0.0024325044 -0.015013385 -0.008650723 -0.0070437975
000090 93 39 1a 3c a0 e0 7c bc 03 b8 0b bc 64 77 28 3c
       0.009413141 -0.015434414 -0.0085277585 0.010282371
0000a0 f3 b6 15 3c f6 1a 39 bc c1 8f a2 3c 92 27 01 3c
       0.009137857 -0.011297932 0.019843938 0.007882969
0000b0 ce 8f 7d 3c 36 ce 08 3c ce 4d 49 bc 02 15 41 bc
       0.01547618 0.008349946 -0.0122866165 -0.011784794
0000c0 2c 26 2e bc 5d 15 ba 3b 7f 85 4e bc ea a1 ae bc
       -0.010629218 0.005678816 -0.01260507 -0.021317441
0000d0 bb 36 41 3c 4d 97 ad 3c 5a ae 91 bb 28 37 8b bc
       0.011792834 0.02119031 -0.004445833 -0.016994074
0000e0 c9 e6 6b b9 cb 9b 93 3c 3d e4 ab bc 69 2a de bb
       -0.0002249732 0.018018624 -0.020982856 -0.006779958
0000f0 9d a9 96 bc 1f 28 7f bc 2a d2 b9 bb 82 b9 e7 bb
       -0.018391425 -0.01557353 -0.0056708055 -0.007071675
000100 56 66 1b 3c a7 b5 e2 3b ba 47 7b bc 89 8b 89 bc
       0.009484848 0.0069186273 -0.015336925 -0.016790168
000110 c9 a8 9a 3b 3e 35 81 3b 07 f4 c3 3a c5 32 8a bc
       0.004719828 0.0039431145 0.0014950045 -0.016869912
000120 72 b5 e5 3a db ab 57 bc 97 42 b6 ba 58 cf 28 bc
       0.0017525388 -0.013163532 -0.0013905343 -0.010303341
000130 9f ea b4 bc 66 07 fc 3b 20 f6 07 3b 7d fd 11 bc
       -0.022084532 0.0076913116 0.0020746067 -0.008910534
000140 43 f1 03 bc 9c 38 97 3b f8 ad a2 bc 40 a9 0d bb
       -0.008053127 0.0046149027 -0.019858345 -0.0021615773
000150 61 a2 32 3c 70 2d 66 bb f5 be 33 bc 06 33 2e bc
       0.010902972 -0.0035122298 -0.010970821 -0.010632282
000160 8a a0 34 bc 78 74 11 bc c3 43 42 bc df fb ee 3b
       -0.011024604 -0.008877866 -0.011856976 0.007293209
000170 af c1 49 bc 93 9e 58 bc 44 60 88 bc 62 31 44 3c
       -0.012314244 -0.013221401 -0.016647466 0.011974664
000180 d8 c7 82 bb 5b 1f 84 3b 77 46 36 3c 84 7a 84 3c
       -0.0039911084 0.004032058 0.011125199 0.016171701
000190 37 1e d1 bb 82 0b 05 3c 51 a0 2f bc 89 15 52 bb
       -0.0063817757 0.008120419 -0.010719375 -0.0032056293
0001a0 d1 2b d0 bb 37 a2 22 bc f1 cd 31 bc 54 9f 27 3c
       -0.0063528796 -0.00992637 -0.010852323 0.010230858
0001b0 15 c5 f3 bb 2e 3d 8a 3b 1e 20 5d bc a6 4a 90 3b
       -0.0074392655 0.004218719 -0.013496427 0.00440343
0001c0 26 19 84 bc d1 21 23 bc 18 ae 17 bc 48 f3 a0 bc
       -0.016125273 -0.009956793 -0.009257816 -0.019647256
0001d0 19 e7 1e bc 86 c5 8f bc b2 36 45 3c 09 17 94 bb
       -0.009698653 -0.017550241 0.012036966 -0.0045193476
0001e0 1b cd 45 bb 8d 2f 15 bc 29 01 42 bc e3 7d 1f bc
       -0.0030182067 -0.009105575 -0.011841097 -0.009734604
0001f0 6c 8c 15 bc 3e e0 81 bb f3 86 b2 bc 2f 30 56 bc
       -0.009127717 -0.0039634993 -0.021792864 -0.013073011

network_body._body_endoder.seq_layers.2.weight f4 [128, 128]
000000 54 f9 05 3c 48 c8 49 bb 2f 0b e3 3c cd 6e 19 bc
       0.00817712 -0.0030789543 0.027715294 -0.009364796
000010 4e 2b e3 bd b5 43 a3 3d 8f bd b3 3d 26 c2 11 be
       -0.11092244 0.079718985 0.0877639 -0.14234218
000020 f6 16 e0 bc c7 51 18 3a 1d 54 46 3c 28 d2 d7 3c
       -0.027354699 0.00058105256 0.012105015 0.026345327
000030 ea 15 85 3d 0e a0 6f 3c d8 2f d6 3d 56 bb 9c 3d
       0.064983204 0.014625562 0.10458344 0.07652919
000040 d9 12 f2 3d f9 f9 45 bd 10 94 21 3c c1 49 d5 3a
       0.11820001 -0.048334096 0.009861961 0.0016272591
000050 20 06 a6 ba f0 1c 78 3d 16 fe c8 bb c6 55 b7 3d
       -0.001266662 0.060574472 -0.006133805 0.08951907
000060 c5 4f ad 3d be eb 03 3e 5b 1e 09 3d 08 9c 1f 3d
       0.084624805 0.12882897 0.033476215 0.038967162
000070 1c a3 03 3d d9 41 11 bd 31 38 05 3e 0d 9b 98 3d
       0.032137975 -0.035463188 0.13009717 0.074514486
000080 86 19 f1 3c 7d bd 5f be 5b 09 65 3d 46 ac 0d bd
       0.029431116 -0.21849628 0.055917125 -0.03458812
000090 0a eb b1 bc a5 c7 bd bc 21 cb ed bd 12 3e e8 3d
       -0.02171852 -0.023166487 -0.116110094 0.11339964
0000a0 d3 eb 9a 3d 7f 0a 12 bd cc 44 0d 3d 70 a4 3d be
       0.07564511 -0.03565454 0.034489438 -0.18519759
0000b0 9d 93 0e 3e b5 fa 2a 3d 10 a6 df 3d f2 55 b4 bd
       0.13923497 0.041743 0.10920346 -0.08805455
0000c0 ad db 46 bd f4 2a aa 3c 6b ca 6c 3c 6e d8 b1 bd
       -0.048549343 0.020772435 0.014452557 -0.08683859
0000d0 dc 87 6c 3d 94 61 83 bb 4e a4 98 3c 19 75 2d 3e
       0.057746753 -0.004009435 0.018633034 0.169392
0000e0 04 06 4f bb 44 dd 29 bd a4 ec b3 3c 98 84 aa bd
       -0.003158928 -0.04147078 0.021963425 -0.083260715
0000f0 7d 57 9b 3d 45 d6 eb 3c 32 fa 26 bd 10 46 93 3d
       0.075850464 0.028788695 -0.04076595 0.07191098
000100 16 ef 09 3e de 8a 90 bd 72 ac 06 3e 08 ca 72 bd
       0.1347011 -0.07057737 0.1315172 -0.059274703
000110 73 24 74 3b 0d 2e e8 bd 72 14 32 bd 20 f3 05 3d
       0.003725317 -0.113369085 -0.04347653 0.032702565
000120 b3 a7 4a 3d d4 11 3c 3b d4 f3 5b 3d 63 9e b7 39
       0.049476337 0.002869715 0.05369933 0.00035022487
000130 8f 65 46 be 17 2e 0f bd 6c 5a 83 bd 0f 10 3b 3c
       -0.19374679 -0.034956064 -0.06413731 0.011417403
000140 64 d1 56 bd 6d fb 89 bd bc 9e f0 3d 1d ad 03 bd
       -0.052445784 -0.06737409 0.11749026 -0.032147516
000150 ef 77 38 3d 7c ce 97 3d 53 95 ad 3d 20 b1 16 3d
       0.045036253 0.07412431 0.08475747 0.036790013
000160 41 9f 42 3c dc cd 12 be f1 9b 04 3e 66 d7 23 3b
       0.011878789 -0.14336342 0.12950112 0.0025000214
000170 b0 60 5b bd c8 cc 9d 3d 33 d6 12 be d5 c8 4c 3d
       -0.053559005 0.077050745 -0.14339523 0.049996216
000180 21 cf be bd c8 ef 08 bd 26 28 e6 bd 28 7e dd bc
       -0.093168505 -0.0334318 -0.112381265 -0.027037695
000190 1c b1 68 bd 7c 0c da bd fc 90 7a ba 25 fa 26 3e
       -0.05680953 -0.106469125 -0.00095583475 0.1630636
0001a0 9d 1a 7d 3d 6c 09 34 be 0e ba 72 3d 16 17 5c 3e
       0.06179296 -0.17581719 0.059259467 0.21493182
0001b0 f0 3c 00 be de 1a 95 3d b1 f3 44 bd d8 be cc bc
       -0.12523246 0.07280515 -0.048083965 -0.024993345
0001c0 c7 61 9e 3d be be 2f be df 23 95 3d c1 17 2d bc
       0.07733493 -0.17162606 0.072822325 -0.010564745
0001d0 f2 57 2b 3d 44 28 92 be 41 55 d5 3d b7 35 02 be
       0.041831918 -0.28546345 0.104166515 -0.12715803
0001e0 10 2e c9 bd 2e 54 ea bb 37 15 ba 3d 4c 7b 81 bd
       -0.09823239 -0.0071511483 0.09086078 -0.06322345
0001f0 b2 d4 86 bd 31 6c 1b 3d 1d 2b 39 be 2b 3d 3e bc
       -0.06583537 0.037944976 -0.18082853 -0.011611263
000200 ff 6e fe bd b2 1a 97 bd 7f 6f e6 bd 51 fd 20 3e
       -0.124235146 -0.073781386 -0.11251735 0.15721633
000210 68 9a 58 3e 86 49 ea 3c 10 9e 77 3c 62 a8 eb 3d
       0.21152651 0.028599512 0.015113369 0.11506726
000220 44 ae 59 3d aa 9c f1 3d 20 cc 3c bd 60 50 56 3d
       0.05314471 0.117974594 -0.046093106 0.052322745
000230 c9 49 a1 bb 6d 49 d5 bd a6 7f a2 bd 0c 93 98 bd
       -0.004922126 -0.104143955 -0.07934503 -0.07449922
000240 e0 15 89 bd fd 75 15 3d f9 b8 74 bb e1 a1 9f bd
       -0.066936255 0.036489476 -0.0037341698 -0.07794548
000250 03 0a ea bc 39 3c e0 bd 97 3f e4 bd d5 fc 1b bd
       -0.028569227 -0.109489866 -0.11144941 -0.038082916
000260 9e 05 26 bc 0b 26 bf bd cb d8 da bc 27 66 c1 3d
       -0.010133175 -0.09333428 -0.026714703 0.09443312
000270 80 48 2a 3d e7 31 75 3d 03 8f 88 bd d6 67 bb 3d
       0.041573048 0.059862044 -0.06667902 0.091506645
000280 42 a7 bb bc 78 ba a1 bd 28 8d 92 3d 47 b3 9a 3d
       -0.022906903 -0.07896894 0.0715583 0.07553726
000290 91 8f ad 3d ca e3 21 be 3f 9a 6e 3e 2c 5d fa 3d
       0.08474649 -0.15809551 0.23301028 0.122248024
0002a0 5b 34 13 be ca 68 02 bb 5f 82 0e bd d5 ff 18 3d
       -0.14375441 -0.0019898885 -0.0347923 0.037353355
0002b0 9d 62 60 3b 4a 44 41 3d 75 37 0c be a7 07 36 be
       0.0034238466 0.047184266 -0.1369303 -0.17776357
0002c0 db 80 fb bc 4b ab 01 bc 59 83 62 bc d7 89 56 be
       -0.030701092 -0.007914375 -0.013825261 -0.20951019
0002d0 a3 f7 20 3e 72 b4 81 3d f2 65 63 be 7c 16 01 be
       0.15719466 0.06333245 -0.22206858 -0.12606233
0002e0 62 a3 e5 bc bb d3 ae 3d 66 f7 89 3b ab ee 33 3e
       -0.028032009 0.08536478 0.0042104004 0.17571513
0002f0 14 03 d9 bd 75 10 9a 3d 73 01 8b 3c 6c 2b 0a bd
       -0.1059629 0.0752267 0.016968464 -0.033732817
000300 71 12 b9 3c c5 75 54 bd c3 5e 32 3d 5e 39 a9 3d
       0.022591801 -0.051870126 0.043547403 0.08262895
000310 1a 7c 0b be d1 fe 89 bd 3a 1e c4 bd 5e 42 83 3c
       -0.1362156 -0.067380555 -0.09576078 0.016022857
000320 7f 70 85 3c 93 41 d5 bc ed 71 24 3d 26 2d c3 bd
       0.016288994 -0.026032245 0.04014771 -0.09530096
000330 e0 f5 3a bd 1e 74 13 3d a2 30 51 3e 74 60 11 3e
       -0.04564464 0.03599941 0.20428708 0.1419695
000340 a1 73 06 3d 6c 69 5e 3c 37 6b 06 3e 4c 2f b9 3d
       0.032825116 0.013574939 0.13126837 0.09042224
000350 06 05 73 bd c1 38 24 bd 72 69 a2 3d 2f 15 2c bd
       -0.059330963 -0.040093187 0.07930268 -0.04201239
000360 55 1d b1 3d 14 7c 7c bb 90 ee a4 bc ee 0b c4 ba
       0.08648173 -0.0038526105 -0.020133287 -0.0014957169
000370 e6 7f 1b bd 19 88 eb 3d 27 61 fc 3d 17 73 f5 3d
       -0.03796377 0.11500568 0.12323218 0.11984842
000380 ba b7 37 3e 75 3f 19 3d fe ba d8 3d d9 61 3b 3d
       0.1794118 0.037414033 0.10582541 0.04574761
000390 be 1a f6 bd b5 b5 96 bc 92 43 17 3d 9b bd f5 bc
       -0.120168194 -0.018397192 0.036929674 -0.029997637
0003a0 a3 c1 38 3e 87 97 93 bd 1c 61 d9 3c 3a 92 0e be
       0.18042617 -0.07206636 0.026535563 -0.13922969
0003b0 2f 97 99 bc a7 ca 91 3d e5 83 84 3d bd d8 f2 bd
       -0.018748848 0.07118731 0.064704694 -0.11857746
0003c0 0c 45 e6 bc 48 dd ff bc 42 7d 79 3d 49 cf b5 bd
       -0.028109096 -0.031233445 0.06091047 -0.08877427
0003d0 86 6f 8f 3d e9 cf 6f 3b ab 1c 5d bd 2b 5e ff bd
       0.07003693 0.003659243 -0.053982418 -0.12469133
0003e0 3b 7d 27 3e e1 f8 37 3e 6f ed 12 bd c4 bc b1 bc
       0.16356365 0.17966034 -0.035870966 -0.021696456
0003f0 b3 65 8c 3d e7 8b 43 bd 25 3f 5f be 02 62 2b be
       0.06855335 -0.047740843 -0.21801431 -0.16736606

network_body._body_endoder.seq_layers.2.bias f4 [128]
000000 72 0d f0 b8 0f 8e 28 3c 2e df 77 bc cd fb 48 bb
       -0.00011446596 0.010287776 -0.015128894 -0.0030667663
000010 2e 69 80 3c fd 59 85 bb cd b9 9d bc d1 85 64 bc
       0.015675154 -0.0040695653 -0.019253636 -0.01394792
000020 76 c0 1b bc 79 6c b2 bc 3b f9 61 bc 4e df 27 3b
       -0.0095063355 -0.02178024 -0.013792331 0.0025615278
000030 a6 dd 3e 3c 90 22 20 3b c3 49 2f 3a 7a d5 7c bc
       0.011649525 0.0024434663 0.00066867116 -0.015431756
000040 8d 50 1d bc 4d 38 80 bc 21 f1 2e 3c 1d 38 63 bc
       -0.009601724 -0.015651846 0.010677607 -0.013868359
000050 f6 bc 99 3c e8 18 c6 bb 17 f9 64 bc 14 c9 44 3c
       0.018766861 -0.0060454495 -0.013975403 0.012010831
000060 41 21 e8 3a da 26 6e b9 f0 d2 5c 3c b5 1f 42 bc
       0.0017710106 -0.00022711922 0.013478026 -0.01184838
000070 fe e0 a6 bc 36 4d 67 bc 99 9c 42 bc 8c c1 a0 3b
       -0.020370957 -0.01411753 -0.011878156 0.004905885
000080 c2 ed a7 3b 9d fd 1a 3c 68 b8 db 3b b9 ce aa bc
       0.0051247785 0.00945988 0.0067053325 -0.020850526
000090 2b fd 3b bc f9 63 4c bc 2e ea 8b 3b a0 d2 43 bc
       -0.011473934 -0.012475007 0.0042698598 -0.011952072
0000a0 ed 44 8d bc 0d 9e 91 3c d8 77 b7 3b d7 6c a8 bb
       -0.01724478 0.01777556 0.0055990033 -0.005139928
0000b0 72 d5 02 bc e5 3b d4 bb a7 44 2a bc e6 e9 a3 bc
       -0.00798546 -0.0064768665 -0.010392345 -0.020008992
0000c0 fc cd 49 bc f2 fe 9c 3c 1f ca 72 bc 1f 93 c1 3b
       -0.012317177 0.019164536 -0.014818697 0.005907431
0000d0 72 8e ae 3b 03 ea 1d bc e4 de 84 3c 21 f2 91 3b
       0.0053270394 -0.009638312 0.016219564 0.004453913
0000e0 36 f6 26 3c df 05 cc 3b e6 3c 14 3c e5 6b 60 bc
       0.010190537 0.006226286 0.009047722 -0.013697599
0000f0 8a ed 85 bb 8d ef 5a bc 6c b6 de bb 23 21 a3 bc
       -0.0040871548 -0.013362777 -0.0067966487 -0.019913262
000100 79 4e 3e bc ba 5e 6a bc ed b7 52 bc 11 60 c1 3a
       -0.011615389 -0.014304811 -0.012861234 0.0014753361
000110 90 d7 69 3c d3 35 59 bc 6c 92 3e 3c d9 c1 d3 3a
       0.0142725855 -0.013257462 0.011631589 0.0016155794
000120 af 61 5f bc ee ee 66 bb b0 20 6a 3b 92 70 ea ba
       -0.013634129 -0.0035237628 0.003572505 -0.0017886332
000130 9d 7e 9a 3c 8d b5 1d 3c 9d 42 55 bc 8f 99 a7 3b
       0.018859202 0.009625805 -0.01301637 0.005114741
000140 90 1c 3f 3c 02 2d 93 bc 9e 00 78 3c 62 9c 84 bc
       0.011664525 -0.017965797 0.015136866 -0.01618785
000150 a0 20 bc bc b4 29 4e 3c b6 fd 74 bc a3 10 e5 ba
       -0.022964776 0.012583185 -0.0149530675 -0.0017476272
000160 3a b9 2e bc c4 c6 8a bc 0e 62 62 bc 57 ac 06 3c
       -0.010664279 -0.016940482 -0.013817323 0.0082198
000170 2d f1 f8 bb 86 ac f9 3b e8 30 69 3c de 73 77 bc
       -0.00759711 0.0076194433 0.014232852 -0.0151033085
000180 5d 5f 58 bb 94 88 9d bc 73 c3 80 bb a6 cb 4b bc
       -0.0033015825 -0.019230165 -0.0039295494 -0.01243869
000190 15 5f 86 bc d5 d2 f0 3b be 18 2e 3c 57 08 66 bc
       -0.01640276 0.007349352 0.010626016 -0.014040074
0001a0 45 da 08 3c 7c 10 98 bc 4d b6 f8 bb 39 b1 5a b9
       0.008352821 -0.018562548 -0.0075900913 -0.0002085612
0001b0 19 db 84 3c 63 2e 83 bc 77 7a 86 bc 43 c5 55 bc
       0.016217755 -0.01601333 -0.016415818 -0.013047519
0001c0 0a 25 d4 bb 3e ea 84 bc 2e b7 ca 3a 8f da 24 bc
       -0.006474142 -0.016224977 0.0015465969 -0.010061874
0001d0 13 b2 7b bc ef e6 96 bc f0 1b 2c bc ca 33 99 39
       -0.01536228 -0.018420665 -0.010504708 0.0002922102
0001e0 05 c0 08 bc 39 fd 72 bc 66 2c 5c 3b 6a 30 aa 3b
       -0.008346562 -0.014830881 0.00335958 0.0051937597
0001f0 5f a1 83 bb 10 49 9a 3c ed be 2d bc f4 c6 93 bb
       -0.0040170397 0.018833667 -0.010604602 -0.004509801

action_model._discrete_distribution.branches.0.weight f4 [3, 128]
000000 f9 23 58 bb d8 48 32 bc 1f 40 a8 ba 88 20 c8 3b
       -0.0032980426 -0.010881625 -0.0012836492 0.0061073937
000010 88 29 18 bc 5c 7c 24 3c 4a 2a f9 3b 3a 48 f9 3b
       -0.009287246 0.010039415 0.007603918 0.007607487
000020 f3 72 08 3c d0 d6 c8 3b 58 6d 00 bb 30 ff 32 3c
       0.008328187 0.0061291233 -0.0019596424 0.010925099
000030 db a6 31 bc 52 fd 6d bb 42 3c 9d ba 48 f5 82 3a
       -0.010843004 -0.003631432 -0.0011996108 0.0009991312
000040 f7 61 70 3c 0a cf 68 3c e0 02 b8 bb 1c 48 15 3a
       0.014671794 0.014209518 -0.005615577 0.0005694644
000050 ab 48 8d bc 30 b6 7b 3c cd a1 a6 3c 53 02 26 3b
       -0.017246565 0.015363261 0.020340824 0.0025330975
000060 c1 a1 53 bc 51 f2 01 ba 97 e3 00 3b 2d c4 b3 3b
       -0.012916983 -0.00049570674 0.0019666904 0.0054860325
000070 cb 3f 83 3c 07 d1 c6 3b f1 21 14 3c f8 ac 3c 3a
       0.01602163 0.0060673985 0.009041295 0.0007197405
000080 6d 26 b4 3b a9 ce 95 bb c5 d3 e9 3b 3e da 63 3c
       0.005497745 -0.004571755 0.0071358406 0.013907013
000090 39 76 12 3c fd 83 00 3c ad dd 3b 3a 4c a5 ea 3b
       0.008939319 0.007843968 0.0007166516 0.007160818
0000a0 10 74 49 3b 85 12 5c bc cd c2 d2 bb ad 5a 50 3c
       0.0030739345 -0.01343215 -0.0064319135 0.012716931
0000b0 08 6f 98 3b 1a 98 23 3b bd 9e a7 bb 9f 71 d2 3c
       0.004651908 0.0024962486 -0.0051153586 0.025688944
0000c0 41 48 03 3b be d6 d6 bb 98 e6 49 3b b8 ee f6 b9
       0.002003208 -0.006556361 0.003080761 -0.00047098636
0000d0 3f 47 cd 3b 45 e2 ab 3b cd 62 3d bb 13 c7 99 ba
       0.0062645967 0.0052454793 -0.0028898001 -0.0011732302
0000e0 8c 4d 63 39 0b 66 a2 ba e4 b4 3e bc 7c 70 98 3c
       0.00021677295 -0.001239003 -0.011639807 0.018608324
0000f0 27 aa 4f 3c d6 12 83 3b 07 80 af 3a b6 57 2c 3c
       0.012674845 0.004000048 0.0013389596 0.010518959
000100 07 91 34 3c f6 42 d6 3b 5c a7 a4 bb 79 57 28 bc
       0.011020905 0.006538744 -0.0050248336 -0.010274761
000110 70 ae 47 bc 30 f4 09 3c 12 c9 a0 bb 3d c7 98 3b
       -0.012187585 0.008420035 -0.004906782 0.004662423
000120 15 68 1d 3c 7d 83 33 34 a3 b4 88 bb bb 38 1b bb
       0.009607335 1.6718509e-07 -0.004171924 -0.0023684937
000130 a3 6a 95 bc 0a 24 07 bc 47 34 0d bb 46 06 c3 ba
       -0.018239325 -0.0082483385 -0.0021546052 -0.0014879189
000140 a3 d0 61 bc 53 66 5c 3c 30 ef 49 bc 4a 48 ed 3b
       -0.013782653 0.01345213 -0.012325093 0.0072412835
000150 c9 59 2e 3c 26 05 8f bc 64 1f af 3b e2 38 81 38
       0.010641524 -0.01745851 0.005344318 6.1617946e-05
000160 7f 18 46 3b 09 b5 76 3c 1d 18 5a 3c 18 3d 5b bc
       0.0030227003 0.015057811 0.013311413 -0.013381265
000170 94 ae d2 3b 89 6b 9e ba 45 c4 b5 bc a7 0a 8b 3c
       0.0064295027 -0.0012086491 -0.022188315 0.016972853
000180 e1 eb 9a ba 0f 3b 5e 3c 07 b3 a0 3b 88 96 8f 3c
       -0.0011819565 0.013563885 0.004904154 0.017527834
000190 dc 5a 06 3c 73 c2 77 bb 28 26 14 ba ad 52 f3 3c
       0.0082003735 -0.003780511 -0.00056514377 0.029702509
0001a0 aa 8b 33 bc 87 4a f5 3b 09 88 27 bb f5 71 c5 39
       -0.0109585915 0.007485691 -0.002556326 0.00037659673
0001b0 5b 71 5f bc 3d 07 5e 3c c8 96 3d 3c 06 06 96 3c
       -0.013637866 0.01355153 0.011571594 0.01831342
0001c0 2a 69 6e 3b 04 ec 6f 3b a0 ab c8 bb c5 be 1c 3b
       0.00363786 0.0036609182 -0.006123975 0.0023917418
0001d0 3d 90 28 3b 34 a3 57 3c 14 00 5d 3b cd 8f 84 3b
       0.0025720738 0.013161469 0.003372197 0.0040454627
0001e0 a7 05 86 3b 75 3c 87 3c 07 99 bc 3b 10 41 51 ba
       0.0040900293 0.01650832 0.005755547 -0.00079824124
0001f0 5a 49 15 3c 44 44 91 bc 2a 14 82 3b 2e ad 4c 3b
       0.009111727 -0.017732747 0.003969689 0.0031231153
000200 c9 84 ea bb aa 81 ba bb 72 83 bd bc d1 00 28 bc
       -0.0071569425 -0.0056917267 -0.023133967 -0.010254101
000210 b9 5e 7b 3c 95 8d 42 3c 31 aa 8c bc 47 c4 67 bc
       0.015342408 0.011874576 -0.017170997 -0.014145917
000220 4a 04 a4 39 96 e9 da bb ba 50 30 bc 81 0d 03 3d
       0.00031283713 -0.0066806776 -0.010761434 0.0319953
000230 b3 b8 bc 3b c7 4e 5c bb ef 9d 2f 3c cf c7 70 bc
       0.0057593226 -0.003361629 0.010718807 -0.014696076
000240 47 dd 19 3c 4e c2 50 bc 5f 54 61 bb 5b b8 25 bc
       0.009391136 -0.012741638 -0.0034382564 -0.010114755
000250 02 b5 6b 3b ea 6a 02 bc 9f cf 3c bc 25 04 e4 3b
       0.0035966043 -0.007960061 -0.01152411 0.006958502
000260 28 c6 3b bc 25 5b 1a 3a e5 74 2c 3c f3 ab 3e bb
       -0.011460818 0.00058882154 0.010525917 -0.002909419
000270 11 27 dd bb 49 d8 cb bb b5 3a d1 b9 a1 6e a0 3a
       -0.006749042 -0.0062208516 -0.00039907327 0.0012240001
000280 b9 24 f0 3b ba a6 39 3b bc ac 92 3c 52 ab f5 bb
       0.0073285964 0.0028328137 0.017904632 -0.0074972296
000290 2b 81 c7 3b a4 fb cf bb c8 b3 03 3a 1e 87 45 3b
       0.006088396 -0.0063471366 0.0005024043 0.003014035
0002a0 1e 6c 07 bc 4d f3 d6 bb 29 f4 37 bb 93 87 6c 3a
       -0.008265523 -0.0065597654 -0.0028069115 0.00090228877
0002b0 f2 34 fe 3a 2b 1b 66 3a 5c c4 de bb 27 38 f7 bb
       0.0019394441 0.0008777852 -0.00679831 -0.0075445357
0002c0 48 b1 81 bb c4 10 92 3b 4b ef c5 bb 69 91 1b 3b
       -0.003957901 0.004457565 -0.006040489 0.0023737794
0002d0 38 3c 17 3c 96 bb 5c b9 25 b0 e4 3b 3c 88 46 3c
       0.009230666 -0.00021050716 0.006979006 0.012117442
0002e0 ff a6 72 3b 91 de 66 3c 2c 62 ac bb 9f 90 b1 3a
       0.0037025807 0.01409115 -0.0052607264 0.0013547129
0002f0 7c 1a 1f b9 12 7d 1d bc 1f 2a 97 bb 58 a6 bf bb
       -0.00015173288 -0.009612339 -0.0046131755 -0.005848687
000300 e7 d0 53 3b 1c 2f c9 bb fe 4d 0e bc a7 c2 50 bc
       0.003232056 -0.006139649 -0.008685587 -0.012741721
000310 a7 10 3b 3c 8f 93 6a bc 05 42 be ba 65 53 37 3b
       0.011417544 -0.014317407 -0.0014515525 0.002797329
000320 b4 4b 74 ba 0a e8 d1 bb bd 03 9a bb 21 a0 34 bb
       -0.0009319142 -0.006405835 -0.0047001527 -0.0027561265
000330 55 51 01 3c 60 38 b3 3a ff cf af bc 2b b3 87 bb
       0.007892926 0.0013673417 -0.021461485 -0.0041412315
000340 2b a4 9b ba fb a0 0a bc ae 22 a4 3b ff ae 9d bb
       -0.0011874487 -0.008461232 0.005009017 -0.004812121
000350 a0 a5 c9 bb bd cb 36 3c da 1f fe bb 37 82 05 bc
       -0.0061537772 0.011156973 -0.007755262 -0.008148721
000360 17 45 27 bb c2 eb 19 bc d7 2a a2 3a 85 ac 69 bb
       -0.0025523358 -0.009394588 0.0012372386 -0.0035655808
000370 42 63 a7 3b 91 b7 02 ba b7 39 e9 3c 57 5d 2b bc
       0.005108268 -0.000498646 0.028469903 -0.010459266
000380 68 fb 3c bb 82 e3 cc b8 ff e6 ec bc 52 04 9c 3a
       -0.0028836373 -9.769855e-05 -0.028918741 0.0011903143
000390 0f 02 a0 bc 2f 98 06 3c f0 a2 53 3c b0 e3 ef 3b
       -0.019532232 0.008214994 0.012917265 0.0073208436
0003a0 34 5f 33 bc 5e f0 c1 bb 4a 2f 1a bc 74 83 41 bb
       -0.010947991 -0.0059185466 -0.009410689 -0.0029527815
0003b0 da 42 c7 3b 16 10 f9 ba b8 5c dd bb 0c 4e 9b 3b
       0.0060809674 -0.0019001986 -0.0067554377 0.0047395285
0003c0 1d 36 b0 3a ac a3 ae bc 46 10 93 bc 78 fd 9c bc
       0.0013443861 -0.02131828 -0.017952096 -0.019163832
0003d0 a1 bd 34 bc 86 5c 5f 3b 33 90 e9 ba 21 2c 24 3c
       -0.011031539 0.0034082248 -0.0017819464 0.010020287
0003e0 58 dd 53 bc bb d0 1a bb 23 c4 54 3c a6 29 45 3c
       -0.01293119 -0.0023622948 0.012986216 0.012033856
0003f0 6a 02 10 bb 95 ec 59 bb e8 cc bb bb e6 00 63 3b
       -0.0021974095 -0.0033252586 -0.005731214 0.0034637987

action_model._discrete_distribution.branches.0.bias f4 [3]
000000 46 10 88 bc a0 f7 40 3c 96 53 bf 3b
       -0.016609322 0.011777788 0.0058388216

exp_avg f4 [128, 4]
000000 00 00 00 00 00 00 00 00 da 4f f0 b7 00 00 00 00
       0.0 0.0 -2.8647413e-05 0.0
000010 00 00 00 00 00 00 00 00 85 b7 aa 38 00 00 00 00
       0.0 0.0 8.140415e-05 0.0
000020 00 00 00 00 00 00 00 00 e2 0f a8 37 00 00 00 00
       0.0 0.0 2.0034557e-05 0.0
000030 00 00 00 00 00 00 00 00 d6 e2 84 38 00 00 00 00
       0.0 0.0 6.336502e-05 0.0
000040 00 00 00 00 00 00 00 00 3e 4a 8a 37 00 00 00 00
       0.0 0.0 1.6485454e-05 0.0
000050 00 00 00 00 00 00 00 00 69 5a b4 b8 00 00 00 00
       0.0 0.0 -8.599909e-05 0.0
000060 00 00 00 00 00 00 00 00 25 f6 9a 37 00 00 00 00
       0.0 0.0 1.847285e-05 0.0
000070 00 00 00 00 00 00 00 00 ed 8d b3 b7 00 00 00 00
       0.0 0.0 -2.1404552e-05 0.0
000080 00 00 00 00 00 00 00 00 38 3e 84 38 00 00 00 00
       0.0 0.0 6.3058396e-05 0.0
000090 00 00 00 00 00 00 00 00 9e f1 ae 35 00 00 00 00
       0.0 0.0 1.303433e-06 0.0
0000a0 00 00 00 00 00 00 00 00 1f cc 60 b7 00 00 00 00
       0.0 0.0 -1.3398966e-05 0.0
0000b0 00 00 00 00 00 00 00 00 20 5e e9 37 00 00 00 00
       0.0 0.0 2.7819595e-05 0.0
0000c0 00 00 00 00 00 00 00 00 46 ac 63 36 00 00 00 00
       0.0 0.0 3.3925912e-06 0.0
0000d0 00 00 00 00 00 00 00 00 36 a8 52 b7 00 00 00 00
       0.0 0.0 -1.255614e-05 0.0
0000e0 00 00 00 00 00 00 00 00 52 2c bc 36 00 00 00 00
       0.0 0.0 5.607996e-06 0.0
0000f0 00 00 00 00 00 00 00 00 2a 7a ce 37 00 00 00 00
       0.0 0.0 2.4614e-05 0.0
000100 00 00 00 00 00 00 00 00 64 36 83 37 00 00 00 00
       0.0 0.0 1.5641745e-05 0.0
000110 00 00 00 00 00 00 00 00 31 7e aa b8 00 00 00 00
       0.0 0.0 -8.129737e-05 0.0
000120 00 00 00 00 00 00 00 00 34 6a 83 b7 00 00 00 00
       0.0 0.0 -1.5665872e-05 0.0
000130 00 00 00 00 00 00 00 00 08 ab 0a 38 00 00 00 00
       0.0 0.0 3.306105e-05 0.0
000140 00 00 00 00 00 00 00 00 fe 5b dd b6 00 00 00 00
       0.0 0.0 -6.5970225e-06 0.0
000150 00 00 00 00 00 00 00 00 11 11 04 36 00 00 00 00
       0.0 0.0 1.9679467e-06 0.0
000160 00 00 00 00 00 00 00 00 fc 0a d6 b5 00 00 00 00
       0.0 0.0 -1.5947439e-06 0.0
000170 00 00 00 00 00 00 00 00 5d 45 b2 b7 00 00 00 00
       0.0 0.0 -2.1251553e-05 0.0
000180 00 00 00 00 00 00 00 00 ce 67 82 36 00 00 00 00
       0.0 0.0 3.8863864e-06 0.0
000190 00 00 00 00 00 00 00 00 bf 16 be b7 00 00 00 00
       0.0 0.0 -2.2660357e-05 0.0
0001a0 00 00 00 00 00 00 00 00 16 05 20 b8 00 00 00 00
       0.0 0.0 -3.815171e-05 0.0
0001b0 00 00 00 00 00 00 00 00 fe 16 b6 38 00 00 00 00
       0.0 0.0 8.682719e-05 0.0
0001c0 00 00 00 00 00 00 00 00 a8 10 b7 36 00 00 00 00
       0.0 0.0 5.455764e-06 0.0
0001d0 00 00 00 00 00 00 00 00 6f b7 b0 b7 00 00 00 00
       0.0 0.0 -2.1066253e-05 0.0
0001e0 00 00 00 00 00 00 00 00 9f a3 93 37 00 00 00 00
       0.0 0.0 1.7599958e-05 0.0
0001f0 00 00 00 00 00 00 00 00 78 d8 8d b8 00 00 00 00
       0.0 0.0 -6.7637244e-05 0.0
000200 00 00 00 00 00 00 00 00 08 90 1c 38 00 00 00 00
       0.0 0.0 3.7327438e-05 0.0
000210 00 00 00 00 00 00 00 00 29 2f 35 38 00 00 00 00
       0.0 0.0 4.3197684e-05 0.0
000220 00 00 00 00 00 00 00 00 4c cd a7 38 00 00 00 00
       0.0 0.0 8.00142e-05 0.0
000230 00 00 00 00 00 00 00 00 d3 68 85 b7 00 00 00 00
       0.0 0.0 -1.5903648e-05 0.0
000240 00 00 00 00 00 00 00 00 47 51 b9 b7 00 00 00 00
       0.0 0.0 -2.2091566e-05 0.0
000250 00 00 00 00 00 00 00 00 73 72 b4 37 00 00 00 00
       0.0 0.0 2.1510967e-05 0.0
000260 00 00 00 00 00 00 00 00 1c c9 39 37 00 00 00 00
       0.0 0.0 1.1073684e-05 0.0
000270 00 00 00 00 00 00 00 00 88 bf 8e b8 00 00 00 00
       0.0 0.0 -6.806763e-05 0.0
000280 00 00 00 00 00 00 00 00 69 2e f8 b5 00 00 00 00
       0.0 0.0 -1.8490947e-06 0.0
000290 00 00 00 00 00 00 00 00 66 25 cd 38 00 00 00 00
       0.0 0.0 9.782128e-05 0.0
0002a0 00 00 00 00 00 00 00 00 9c cd 39 b6 00 00 00 00
       0.0 0.0 -2.7686829e-06 0.0
0002b0 00 00 00 00 00 00 00 00 b8 54 ca b7 00 00 00 00
       0.0 0.0 -2.4119727e-05 0.0
0002c0 00 00 00 00 00 00 00 00 ab 08 7e b7 00 00 00 00
       0.0 0.0 -1.5141598e-05 0.0
0002d0 00 00 00 00 00 00 00 00 67 fe b9 35 00 00 00 00
       0.0 0.0 1.3857615e-06 0.0
0002e0 00 00 00 00 00 00 00 00 7e b7 aa 37 00 00 00 00
       0.0 0.0 2.0351024e-05 0.0
0002f0 00 00 00 00 00 00 00 00 33 42 cd b5 00 00 00 00
       0.0 0.0 -1.5292957e-06 0.0
000300 00 00 00 00 00 00 00 00 e6 9b bb 36 00 00 00 00
       0.0 0.0 5.5911833e-06 0.0
000310 00 00 00 00 00 00 00 00 85 98 f9 36 00 00 00 00
       0.0 0.0 7.438534e-06 0.0
000320 00 00 00 00 00 00 00 00 76 d7 c6 37 00 00 00 00
       0.0 0.0 2.3703771e-05 0.0
000330 00 00 00 00 00 00 00 00 f2 4d 1c 38 00 00 00 00
       0.0 0.0 3.726589e-05 0.0
000340 00 00 00 00 00 00 00 00 5f 9c 09 b8 00 00 00 00
       0.0 0.0 -3.2808977e-05 0.0
000350 00 00 00 00 00 00 00 00 4d 30 70 b7 00 00 00 00
       0.0 0.0 -1.4316361e-05 0.0
000360 00 00 00 00 00 00 00 00 00 a7 f0 35 00 00 00 00
       0.0 0.0 1.7929997e-06 0.0
000370 00 00 00 00 00 00 00 00 ba ff a4 37 00 00 00 00
       0.0 0.0 1.9669405e-05 0.0
000380 00 00 00 00 00 00 00 00 46 f3 7d 36 00 00 00 00
       0.0 0.0 3.7841542e-06 0.0
000390 00 00 00 00 00 00 00 00 79 31 12 b8 00 00 00 00
       0.0 0.0 -3.4855188e-05 0.0
0003a0 00 00 00 00 00 00 00 00 cb 61 e1 36 00 00 00 00
       0.0 0.0 6.716907e-06 0.0
0003b0 00 00 00 00 00 00 00 00 e6 3e c5 37 00 00 00 00
       0.0 0.0 2.351352e-05 0.0
0003c0 00 00 00 00 00 00 00 00 1a cc 7a 36 00 00 00 00
       0.0 0.0 3.7371706e-06 0.0
0003d0 00 00 00 00 00 00 00 00 29 bd 57 38 00 00 00 00
       0.0 0.0 5.1436164e-05 0.0
0003e0 00 00 00 00 00 00 00 00 1f 9f be 36 00 00 00 00
       0.0 0.0 5.6809654e-06 0.0
0003f0 00 00 00 00 00 00 00 00 10 de 04 38 00 00 00 00
       0.0 0.0 3.1678064e-05 0.0

exp_avg_sq f4 [128, 4]
000000 00 00 00 00 00 00 00 00 f7 24 05 30 00 00 00 00
       0.0 0.0 4.843765e-10 0.0
000010 00 00 00 00 00 00 00 00 21 8d 34 31 00 00 00 00
       0.0 0.0 2.627367e-09 0.0
000020 00 00 00 00 00 00 00 00 57 e3 74 31 00 00 00 00
       0.0 0.0 3.56359e-09 0.0
000030 00 00 00 00 00 00 00 00 ee 8f a5 30 00 00 00 00
       0.0 0.0 1.2046237e-09 0.0
000040 00 00 00 00 00 00 00 00 41 48 e1 2e 00 00 00 00
       0.0 0.0 1.024465e-10 0.0
000050 00 00 00 00 00 00 00 00 8f 05 18 32 00 00 00 00
       0.0 0.0 8.848828e-09 0.0
000060 00 00 00 00 00 00 00 00 db f6 eb 2e 00 00 00 00
       0.0 0.0 1.0730413e-10 0.0
000070 00 00 00 00 00 00 00 00 9e 8f 16 31 00 00 00 00
       0.0 0.0 2.190951e-09 0.0
000080 00 00 00 00 00 00 00 00 d3 8c dc 31 00 00 00 00
       0.0 0.0 6.4188526e-09 0.0
000090 00 00 00 00 00 00 00 00 48 2e 6f 2d 00 00 00 00
       0.0 0.0 1.3595854e-11 0.0
0000a0 00 00 00 00 00 00 00 00 76 18 82 2f 00 00 00 00
       0.0 0.0 2.3664243e-10 0.0
0000b0 00 00 00 00 00 00 00 00 cd 31 9e 2f 00 00 00 00
       0.0 0.0 2.8775418e-10 0.0
0000c0 00 00 00 00 00 00 00 00 18 62 03 2e 00 00 00 00
       0.0 0.0 2.9873076e-11 0.0
0000d0 00 00 00 00 00 00 00 00 9d 49 04 2f 00 00 00 00
       0.0 0.0 1.2031483e-10 0.0
0000e0 00 00 00 00 00 00 00 00 a4 10 9b 2d 00 00 00 00
       0.0 0.0 1.762885e-11 0.0
0000f0 00 00 00 00 00 00 00 00 09 f2 8f 2f 00 00 00 00
       0.0 0.0 2.6183525e-10 0.0
000100 00 00 00 00 00 00 00 00 59 a7 f5 2f 00 00 00 00
       0.0 0.0 4.4684148e-10 0.0
000110 00 00 00 00 00 00 00 00 63 f7 b9 31 00 00 00 00
       0.0 0.0 5.4123332e-09 0.0
000120 00 00 00 00 00 00 00 00 3c 60 0a 30 00 00 00 00
       0.0 0.0 5.0340865e-10 0.0
000130 00 00 00 00 00 00 00 00 f2 00 43 31 00 00 00 00
       0.0 0.0 2.8376772e-09 0.0
000140 00 00 00 00 00 00 00 00 2f ba fe 30 00 00 00 00
       0.0 0.0 1.8533849e-09 0.0
000150 00 00 00 00 00 00 00 00 51 a6 ab 2c 00 00 00 00
       0.0 0.0 4.878577e-12 0.0
000160 00 00 00 00 00 00 00 00 68 dd 51 2f 00 00 00 00
       0.0 0.0 1.9087099e-10 0.0
000170 00 00 00 00 00 00 00 00 67 79 e2 30 00 00 00 00
       0.0 0.0 1.6478169e-09 0.0
000180 00 00 00 00 00 00 00 00 ad 9d b3 2d 00 00 00 00
       0.0 0.0 2.0419966e-11 0.0
000190 00 00 00 00 00 00 00 00 7a 32 87 31 00 00 00 00
       0.0 0.0 3.9347556e-09 0.0
0001a0 00 00 00 00 00 00 00 00 19 c6 82 30 00 00 00 00
       0.0 0.0 9.515048e-10 0.0
0001b0 00 00 00 00 00 00 00 00 41 9b 08 32 00 00 00 00
       0.0 0.0 7.9515425e-09 0.0
0001c0 00 00 00 00 00 00 00 00 b0 fb 5f 2e 00 00 00 00
       0.0 0.0 5.0927873e-11 0.0
0001d0 00 00 00 00 00 00 00 00 48 a9 ef 30 00 00 00 00
       0.0 0.0 1.7437651e-09 0.0
0001e0 00 00 00 00 00 00 00 00 ad dd 80 2f 00 00 00 00
       0.0 0.0 2.3440574e-10 0.0
0001f0 00 00 00 00 00 00 00 00 2b 9d 0c 31 00 00 00 00
       0.0 0.0 2.046202e-09 0.0
000200 00 00 00 00 00 00 00 00 4f e2 3e 31 00 00 00 00
       0.0 0.0 2.777728e-09 0.0
000210 00 00 00 00 00 00 00 00 ff 3d 84 30 00 00 00 00
       0.0 0.0 9.621884e-10 0.0
000220 00 00 00 00 00 00 00 00 43 13 9c 31 00 00 00 00
       0.0 0.0 4.5423874e-09 0.0
000230 00 00 00 00 00 00 00 00 4e 58 83 30 00 00 00 00
       0.0 0.0 9.556602e-10 0.0
000240 00 00 00 00 00 00 00 00 31 f0 86 30 00 00 00 00
       0.0 0.0 9.81805e-10 0.0
000250 00 00 00 00 00 00 00 00 be 7a df 2f 00 00 00 00
       0.0 0.0 4.0650677e-10 0.0
000260 00 00 00 00 00 00 00 00 29 f2 5a 2e 00 00 00 00
       0.0 0.0 4.9782543e-11 0.0
000270 00 00 00 00 00 00 00 00 d5 6f a7 31 00 00 00 00
       0.0 0.0 4.8730535e-09 0.0
000280 00 00 00 00 00 00 00 00 5d de 6b 2e 00 00 00 00
       0.0 0.0 5.3630312e-11 0.0
000290 00 00 00 00 00 00 00 00 f8 bd 24 32 00 00 00 00
       0.0 0.0 9.58925e-09 0.0
0002a0 00 00 00 00 00 00 00 00 43 57 e6 2c 00 00 00 00
       0.0 0.0 6.546681e-12 0.0
0002b0 00 00 00 00 00 00 00 00 af 3c 19 31 00 00 00 00
       0.0 0.0 2.2298925e-09 0.0
0002c0 00 00 00 00 00 00 00 00 f8 15 dd 2f 00 00 00 00
       0.0 0.0 4.0215276e-10 0.0
0002d0 00 00 00 00 00 00 00 00 f5 d3 02 30 00 00 00 00
       0.0 0.0 4.7594934e-10 0.0
0002e0 00 00 00 00 00 00 00 00 6e fe 17 30 00 00 00 00
       0.0 0.0 5.5295046e-10 0.0
0002f0 00 00 00 00 00 00 00 00 ed 5f 37 2e 00 00 00 00
       0.0 0.0 4.1694582e-11 0.0
000300 00 00 00 00 00 00 00 00 27 da 9e 2d 00 00 00 00
       0.0 0.0 1.80594e-11 0.0
000310 00 00 00 00 00 00 00 00 4a 71 28 2f 00 00 00 00
       0.0 0.0 1.531976e-10 0.0
000320 00 00 00 00 00 00 00 00 f2 cb 1d 30 00 00 00 00
       0.0 0.0 5.740609e-10 0.0
000330 00 00 00 00 00 00 00 00 4b 9c ab 2f 00 00 00 00
       0.0 0.0 3.1215772e-10 0.0
000340 00 00 00 00 00 00 00 00 01 7b b2 30 00 00 00 00
       0.0 0.0 1.2986164e-09 0.0
000350 00 00 00 00 00 00 00 00 64 e1 ae 2e 00 00 00 00
       0.0 0.0 7.952641e-11 0.0
000360 00 00 00 00 00 00 00 00 fd 0c b9 2c 00 00 00 00
       0.0 0.0 5.2594582e-12 0.0
000370 00 00 00 00 00 00 00 00 60 62 d8 2e 00 00 00 00
       0.0 0.0 9.840018e-11 0.0
000380 00 00 00 00 00 00 00 00 c2 a7 51 30 00 00 00 00
       0.0 0.0 7.6272155e-10 0.0
000390 00 00 00 00 00 00 00 00 9b f0 3f 30 00 00 00 00
       0.0 0.0 6.9827316e-10 0.0
0003a0 00 00 00 00 00 00 00 00 b4 7d 7e 2d 00 00 00 00
       0.0 0.0 1.446614e-11 0.0
0003b0 00 00 00 00 00 00 00 00 6a 3f 55 30 00 00 00 00
       0.0 0.0 7.7579065e-10 0.0
0003c0 00 00 00 00 00 00 00 00 6a d4 65 2d 00 00 00 00
       0.0 0.0 1.3064308e-11 0.0
0003d0 00 00 00 00 00 00 00 00 21 46 cf 30 00 00 00 00
       0.0 0.0 1.5081164e-09 0.0
0003e0 00 00 00 00 00 00 00 00 e3 47 1a 2e 00 00 00 00
       0.0 0.0 3.5079394e-11 0.0
0003f0 00 00 00 00 00 00 00 00 30 53 17 31 00 00 00 00
       0.0 0.0 2.2020679e-09 0.0

exp_avg f4 [128]
000000 9d d7 c4 b7 57 7e 60 38 d0 8d e9 37 d8 fa 4f 38
       -2.3465424e-05 5.3523425e-05 2.7841801e-05 4.9586262e-05
000010 50 40 45 37 23 19 ac b8 2c c3 bd 37 53 c2 ec b6
       1.1757089e-05 -8.206281e-05 2.262144e-05 -7.0559704e-06
000020 e0 3c 70 38 be 0a 60 b5 dc d9 13 b3 1a da 87 37
       5.7277153e-05 -8.3462135e-07 -3.4424247e-08 1.6194816e-05
000030 cb 97 05 b6 58 94 aa b7 6e 72 c7 36 71 8f fb 37
       -1.99069e-06 -2.0334657e-05 5.9439835e-06 2.9988327e-05
000040 8d 14 ab b6 8f ea 89 b8 af 78 af b7 46 8e fd 36
       -5.0985896e-06 -6.576359e-05 -2.0917823e-05 7.5565504e-06
000050 2f 4f b8 b7 a9 d3 23 b4 11 79 4e b7 da ea ad b7
       -2.1971382e-05 -1.525756e-07 -1.2306745e-05 -2.0732568e-05
000060 96 fd f2 36 6d a5 c8 b7 4e 7f c0 b7 bd c3 87 38
       7.2416833e-06 -2.391889e-05 -2.2947464e-05 6.473761e-05
000070 09 f2 ed 35 82 3c bf b7 20 b0 19 37 4e 70 76 b8
       1.7728318e-06 -2.279715e-05 9.160518e-06 -5.8755562e-05
000080 e6 85 8a 37 24 3a ff 37 1e 0e 48 38 40 30 0f b7
       1.6513233e-05 3.0425443e-05 4.7696863e-05 -8.534698e-06
000090 3d b2 e9 b7 97 45 d4 37 0c 49 d7 37 68 ba 35 b8
       -2.7858763e-05 2.5304775e-05 2.5664012e-05 -4.3327367e-05
0000a0 30 56 33 b6 5a d7 8d 38 3a ec 2f b6 b1 69 1b b8
       -2.6723246e-06 6.763516e-05 -2.6214534e-06 -3.7053313e-05
0000b0 e0 45 98 b7 4c 4a b5 b6 22 26 06 38 a2 fe 69 36
       -1.815235e-05 -5.4028696e-06 3.1983604e-05 3.4867921e-06
0000c0 f2 9d 6b 36 bd 0a ab 35 87 08 5a 37 64 69 00 38
       3.5109665e-06 1.2743618e-06 1.2995798e-05 3.061573e-05
0000d0 19 59 de b7 92 3b 43 b7 78 74 26 36 80 be be 37
       -2.6505952e-05 -1.16367755e-05 2.4803721e-06 2.2738473e-05
0000e0 27 7e 67 36 81 78 11 b8 31 b3 dd 35 f7 d8 81 36
       3.4495113e-06 -3.4682922e-05 1.6517935e-06 3.8697576e-06
0000f0 68 c2 01 35 1a e0 31 38 ce 02 82 37 e3 57 8a 37
       4.8339143e-07 4.24088e-05 1.5498514e-05 1.6491807e-05
000100 e6 c3 5a b7 e4 a9 55 b8 70 ee 8f 37 44 06 21 37
       -1.3039424e-05 -5.094138e-05 1.715796e-05 9.597807e-06
000110 30 8d 84 36 7f b2 c3 36 04 e8 03 b7 82 9a c5 38
       3.950343e-06 5.8322325e-06 -7.862229e-06 9.422471e-05
000120 e3 19 29 35 d4 ac 54 37 19 f4 06 37 c2 d6 b6 37
       6.2995076e-07 1.2676424e-05 8.043856e-06 2.1796095e-05
000130 09 6c 16 37 df ac 3e 36 68 b0 a3 b5 18 10 b0 b5
       8.965851e-06 2.841283e-06 -1.2195787e-06 -1.3117706e-06
000140 e9 ff 86 38 b9 e1 0d 37 96 0a 73 37 b1 52 90 37
       6.437285e-05 8.45681e-06 1.4486393e-05 1.7204644e-05
000150 de 99 d0 b7 e9 53 3f b6 e0 bc 8c 36 a9 ba 7f 37
       -2.4867182e-05 -2.851006e-06 4.194313e-06 1.5242645e-05
000160 ba 88 d9 37 dc 9c 1f 38 50 71 b7 35 c1 a4 d6 b5
       2.5932084e-05 3.805464e-05 1.3667541e-06 -1.5992192e-06
000170 48 98 02 38 56 1b c7 37 b4 65 89 37 d9 e5 bc b7
       3.113624e-05 2.3735378e-05 1.6379032e-05 -2.2518378e-05
000180 a2 9d 78 b5 c6 a2 bc 36 83 83 f7 b7 66 f7 38 b7
       -9.2616585e-07 5.621786e-06 -2.9505934e-05 -1.1024857e-05
000190 36 ee 17 38 31 9d 03 b7 44 5a a4 36 bd a9 d4 37
       3.6223057e-05 -7.844807e-06 4.898089e-06 2.535141e-05
0001a0 a5 8c 1a 38 f9 b8 7a 37 d4 6b f1 37 dd f6 10 b8
       3.6847447e-05 1.49442285e-05 2.877965e-05 -3.4562185e-05
0001b0 b3 d5 98 37 4e 3e 7b b6 9c 42 91 37 4b 1d 15 b6
       1.8219323e-05 -3.743818e-06 1.7316364e-05 -2.221978e-06
0001c0 6e c6 f8 37 de 71 fd 36 b6 a3 c2 37 0c 8c 29 37
       2.9656305e-05 7.5532434e-06 2.3202836e-05 1.0105792e-05
0001d0 b3 fc 52 38 9e b8 03 38 8c ea 2b b7 93 3d 4c 37
       5.0303246e-05 3.1404772e-05 -1.0247004e-05 1.2173684e-05
0001e0 c9 23 1e 36 66 cd b7 37 97 b0 4a 38 08 2b 9f b4
       2.3564664e-06 2.1910946e-05 4.8325015e-05 -2.9647367e-07
0001f0 a1 08 1b 38 98 f0 af 36 e3 bb cf 37 5f 49 0f 38
       3.6962916e-05 5.243415e-06 2.4763815e-05 3.416219e-05

exp_avg_sq f4 [128]
000000 95 42 33 30 cf 9a 81 31 9a 9d 00 31 b3 fe 1d 31
       6.521444e-10 3.771994e-09 1.8716038e-09 2.2991287e-09
000010 17 ee 70 2f a7 56 ac 31 2c 13 07 31 de 53 86 30
       2.191246e-10 5.01571e-09 1.9655984e-09 9.77362e-10
000020 8d 43 5c 31 81 4d 80 2e 2f 80 68 30 34 2c 3f 30
       3.2052612e-09 5.8345336e-11 8.458327e-10 6.954821e-10
000030 c4 3e 84 2e 60 b2 54 30 53 a3 30 2f 04 38 f8 30
       6.0138144e-11 7.7378637e-10 1.6065131e-10 1.8060295e-09
000040 be 91 1b 31 35 7c 91 31 5a cb 38 30 95 ee 1d 31
       2.2638313e-09 4.234176e-09 6.722779e-10 2.2982125e-09
000050 a8 e7 0e 31 f4 ba b1 2e 2b 32 54 30 1f fd 2b 30
       2.07954e-09 8.082238e-11 7.7196444e-10 6.2569144e-10
000060 75 d9 dd 2f 35 6f a3 30 dd 02 cb 30 8a 47 9d 31
       4.0354178e-10 1.1891418e-09 1.4771008e-09 4.5774344e-09
000070 4e bd 1a 31 7c e5 66 30 e9 c7 14 30 53 3e 80 31
       2.2517557e-09 8.399963e-10 5.4126176e-10 3.7323757e-09
000080 c8 6d ad 30 13 0e 91 30 62 52 4c 31 16 c5 a5 2f
       1.2618608e-09 1.0554139e-09 2.9732736e-09 3.0153363e-10
000090 88 1d 8a 30 31 88 86 30 c4 b9 51 31 c1 10 26 31
       1.0049215e-09 9.788491e-10 3.0519098e-09 2.4165703e-09
0000a0 1c 81 36 2f d8 69 82 31 41 c3 97 2f bf d0 13 31
       1.6598672e-10 3.795531e-09 2.7605476e-10 2.1509974e-09
0000b0 f7 48 51 30 82 0a d5 2f be 29 23 31 e5 b3 3f 31
       7.6137446e-10 3.875194e-10 2.374335e-09 2.7896416e-09
0000c0 1f 55 2c 2e b9 a8 31 2f 47 52 80 30 5a 15 7c 31
       3.9183875e-11 1.6157999e-10 9.33661e-10 3.6682963e-09
0000d0 ec 8c 4f 30 93 55 52 30 9c bf 2d 2e 20 fb bf 30
       7.5506423e-10 7.6519163e-10 3.950583e-11 1.3968453e-09
0000e0 83 a2 7e 2f 38 81 12 31 d4 35 71 2f e6 b8 c4 30
       2.3158901e-10 2.1319249e-09 2.1937946e-10 1.4313428e-09
0000f0 ba eb 3a 30 d6 f9 a9 30 d0 a1 a5 30 20 7c 36 30
       6.8001393e-10 1.2367376e-09 1.205132e-09 6.6387607e-10
000100 2f fd 51 2f 95 4d 50 31 54 02 16 2f 01 8c 60 2f
       1.9098388e-10 3.0312084e-09 1.3643248e-10 2.0422421e-10
000110 ca db 85 2f 7b 7b 96 2e d0 8c 0f 30 82 bb 11 32
       2.4348729e-10 6.843145e-11 5.2223204e-10 8.482745e-09
000120 2d e6 83 2f 88 f0 52 30 9f 62 91 30 1a c3 16 30
       2.399231e-10 7.673937e-10 1.0578168e-09 5.484694e-10
000130 80 c3 15 31 d2 6d 1a 2f e7 81 25 2e 00 19 73 2e
       2.1793483e-09 1.4045234e-10 3.7632033e-11 5.5274008e-11
000140 f4 40 c7 31 c3 24 83 30 ae 71 5c 30 18 10 70 30
       5.7990466e-09 9.541953e-10 8.019708e-10 8.733436e-10
000150 96 c0 a1 30 79 72 05 2f 3d 05 08 30 d1 35 64 2f
       1.1769028e-09 1.2136948e-10 4.9483956e-10 2.0755599e-10
000160 a4 9c a4 30 25 99 60 31 a8 f0 8d 30 ca e8 a1 30
       1.197709e-09 3.2683343e-09 1.0327499e-09 1.1780454e-09
000170 31 24 48 30 fb 08 98 30 08 4a e2 30 d0 28 06 31
       7.2811007e-10 1.1062008e-09 1.6464705e-09 1.9522766e-09
000180 ba 0a fb 2e 56 b2 95 2f 7b 34 77 30 ab 71 04 30
       1.1416064e-10 2.7229657e-10 8.9932656e-10 4.818285e-10
000190 e3 56 bb 31 1e 01 c3 30 b7 b8 90 30 4d 6a 84 31
       5.452294e-09 1.4188435e-09 1.0529878e-09 3.8537906e-09
0001a0 cd b2 34 31 11 f6 34 30 76 d8 2f 31 c2 d2 d2 30
       2.6295084e-09 6.58333e-10 2.5588895e-09 1.5339412e-09
0001b0 89 b7 3a 30 06 43 e0 2e ef 1f 90 2f a0 09 17 31
       6.7927225e-10 1.01982464e-10 2.6216138e-10 2.1978863e-09
0001c0 30 9f 96 30 97 d6 ce 2e 38 34 01 31 03 8a 9a 2f
       1.095918e-09 9.405914e-11 1.8801654e-09 2.81105e-10
0001d0 e0 1f d6 30 d2 6a a5 30 49 64 32 30 11 1f ef 2f
       1.5579609e-09 1.203569e-09 6.4898537e-10 4.349592e-10
0001e0 f5 6d 51 2f 9c 05 a9 30 a6 d8 1d 31 84 26 bc 2e
       1.9047504e-10 1.2297963e-09 2.2969657e-09 8.556092e-11
0001f0 f1 d7 ad 30 be bb 2d 30 1b 95 b7 30 2b a1 c9 30
       1.2648781e-09 6.320383e-10 1.3357381e-09 1.4670481e-09
