PFG-GAME/Assets/DifAgent.onnx (onnx, 74066 bytes, 6 tensors)

network_body._body_endoder.seq_layers.0.weight f4 [128, 2]
000000 cf eb 29 3e 56 3b 3c bf c3 19 38 3f 31 15 94 3e
       0.1659386 -0.7352804 0.7191431 0.28922418
000010 b9 89 8a 3e a2 22 ba 3e 65 08 3c be 19 c1 61 bf
       0.270582 0.36354548 -0.18362577 -0.8818527
000020 c0 21 34 bf 26 0e 77 bf 03 e4 57 3f c9 7f ec bd
       -0.70364 -0.96505964 0.84332293 -0.115478106
000030 4f af 1a bf 36 5b 51 bf 2d 3f 77 3f 1a ba fb be
       -0.6042375 -0.817798 0.96580774 -0.49165422
000040 a8 3a 1a bf c3 78 36 bf 25 88 68 3f 4c 2d 4b 3e
       -0.6024575 -0.7127802 0.9083274 0.19841498
000050 73 17 32 bf 84 cd 28 bf 5b cf ff 3e 6e 03 ca bf
       -0.6956703 -0.6593859 0.49962887 -1.5782297
000060 08 7c 75 bf 82 52 98 be 56 eb 26 3e 4b 6d a3 bf
       -0.9589238 -0.29750448 0.16300711 -1.2767729
000070 b9 1e ea 3e 7f 79 fb be 9c 6a 79 bf ff 16 2a 3e
       0.45726565 -0.49116132 -0.974283 0.16610335
000080 be f8 ef be 76 99 a0 bf b8 b1 f1 be 42 d2 24 3e
       -0.46869463 -1.2546833 -0.472059 0.16095832
000090 0a 81 f0 3e ca f1 b7 bb 42 74 47 bf 27 f6 61 bf
       0.4697345 -0.0056135403 -0.7791177 -0.88266224
0000a0 b3 0b de 3f be e9 1a bf ee 71 23 bf 65 7b 16 bf
       1.734732 -0.6051291 -0.6384572 -0.58782035
0000b0 dc b7 27 bf 84 6a 48 bf 53 0e 75 bf b4 21 a7 bf
       -0.6551492 -0.7828753 -0.9572498 -1.305716
0000c0 1b d8 ac 3f 35 4f ca bf 28 27 74 bf f4 50 96 3f
       1.350345 -1.5805422 -0.9537225 1.1743455
0000d0 b2 a4 fa bf af ae c0 be 32 aa 3b bf 7d a9 ba be
       -1.9581511 -0.37633273 -0.7330657 -0.36457434
0000e0 48 3d 3b be 68 8f 0a 3f b2 77 24 bf 90 80 1c bf
       -0.18285096 0.5412507 -0.6424514 -0.6113367
0000f0 24 c4 79 3c 1b 65 2a 3f 63 fc 27 bd 1e 97 f9 39
       0.0152445175 0.66560525 -0.04101218 0.00047605572
000100 f8 da 03 c0 d6 3d ec be d4 d1 51 bf 7c 91 36 3f
       -2.0602398 -0.46140927 -0.819608 0.7131574
000110 27 7d 4c 3e 27 b3 bf bf b6 38 e4 be 41 4a 5f bc
       0.19969617 -1.4976548 -0.44574517 -0.013628543
000120 14 12 a0 bf 65 a2 67 3f ae 83 41 3f b5 c2 a2 be
       -1.2505517 0.9048217 0.7559155 -0.31789175
000130 e4 42 f1 be e4 a3 99 3f bd 41 1d 3f b4 4f 54 3e
       -0.47121346 1.200314 0.61428434 0.2073353
000140 1e a5 34 bf 3b a2 c2 be 21 4c 73 bf fe 4e 0a 3f
       -0.7056445 -0.38014397 -0.9503804 0.5402678
000150 d3 7f 8c 3f a6 14 81 bf 00 6b 4b bf 8b 3e 15 bf
       1.0976509 -1.0084426 -0.79460144 -0.5829856
000160 24 6f 86 bf 54 38 8d be 95 ea 46 bf ee be 11 bf
       -1.0502667 -0.27582037 -0.77701694 -0.5693196
000170 15 b2 a9 3e df 8c 36 be dd 2c 8f be db ab e9 be
       0.33143678 -0.17827176 -0.27963915 -0.45638928
000180 1d 8f 3a bf 21 cb 11 bd f6 23 4a bf 03 34 94 3e
       -0.72874624 -0.03559411 -0.7896112 0.28945932
000190 47 76 34 3f c8 fd d0 3d fc 4d a9 3f 57 e8 20 3f
       0.70492977 0.10204655 1.3226924 0.6285452
0001a0 a9 d4 01 bf 4a a8 e4 3e 2d f6 a6 3d 7d e0 20 bf
       -0.5071512 0.44659644 0.08152423 -0.6284254
0001b0 ab e9 87 bf 4f 61 20 3f 3e 8a 61 bf c9 e2 0e 3f
       -1.0618185 0.6264848 -0.88101566 0.55814797
0001c0 06 f8 ff 3d 8c c0 5f 3f 61 27 ab 3f 13 f0 04 3f
       0.124984786 0.8740318 1.3371392 0.51928824
0001d0 9c 3d 5f 3f 87 30 67 3f 0d bf 64 3f ca 57 0f bf
       0.87203383 0.9030842 0.8935402 -0.5599333
0001e0 38 5a 12 3f df ea 9e 3e 04 33 99 3d c6 f8 54 3e
       0.5716891 0.31038567 0.074804336 0.20798025
0001f0 c1 d3 18 bf a9 69 75 bf a6 f1 96 3e 67 67 b1 bf
       -0.5969811 -0.9586435 0.29481238 -1.3859681
000200 62 48 58 bf a3 cb e6 be 62 1e c3 bf 86 d1 8b 3f
       -0.8448545 -0.45077237 -1.5243647 1.0923316
000210 ee 05 32 bc 07 f8 72 3f 9b 12 26 be 18 bb ad 3f
       -0.010865672 0.9490971 -0.16218035 1.3572721
000220 5c f5 b6 3e de 08 40 bf b2 0a 6b bf 9c 17 26 bf
       0.3573407 -0.7501353 -0.91813195 -0.64879775
000230 72 ae e0 3e 61 f5 aa bc 9c 28 42 bf 2c 99 4c bf
       0.4388309 -0.020868959 -0.75843215 -0.7992122
000240 fb 52 7c be c1 d0 61 bf 81 32 1c 3e a2 78 aa bf
       -0.2464103 -0.8820916 0.1525364 -1.3318064
000250 6b cd b0 bd 0a 3e cd be fc f6 be 3f f1 6d 5e be
       -0.0863293 -0.40086395 1.4919124 -0.21721627
000260 ce 5c 5a bf b4 74 23 3f b2 20 51 be 3a 45 87 be
       -0.8529786 0.6384995 -0.20422629 -0.26420003
000270 e4 a0 ed 3e 92 4e 94 3e c2 d1 6e bf 9c 29 21 3e
       0.46411812 0.28966194 -0.93288815 0.15738529
000280 83 a2 37 bf 18 8f 58 3f 85 d1 33 37 26 69 e8 3e
       -0.7173235 0.84593344 1.0718014e-05 0.45392722
000290 12 80 ba bf be 72 2f 3f 1a 0f e6 be 87 69 89 3e
       -1.4570334 0.6853446 -0.44933397 0.26838323
0002a0 b3 74 e9 3e c5 2e 44 bf 73 76 ca 3e 29 b3 9b bf
       0.45596847 -0.76633865 0.39543495 -1.216405
0002b0 11 42 aa be d4 ac 2a 3f f6 a6 e6 3d 21 05 99 3f
       -0.3325353 0.66669965 0.11262314 1.195469
0002c0 d6 c9 ef 3d f6 b9 d3 3e ff 2d 75 3f ae 81 17 3f
       0.11708419 0.41352814 0.9577331 0.5918225
0002d0 2a 1f 17 be c3 aa 5b bf ec 58 c1 3e 94 5e 43 3f
       -0.14757982 -0.85807437 0.37763155 0.7631619
0002e0 c4 af 92 3f 6e 2a 8b 3f 77 9a cf 3e 3b f3 24 3f
       1.145989 1.0872324 0.40547535 0.6443364
0002f0 9a 39 c5 bd f2 51 95 3e 2b f0 8c 3f e6 1a 0e be
       -0.09630127 0.29164082 1.1010793 -0.13877448
000300 03 10 2c 3f f8 db 3f bf 1a 54 13 3f 02 80 86 3f
       0.6721193 -0.7494502 0.57550204 1.0507815
000310 90 72 96 bc 62 79 78 3e 74 b9 b3 3e 43 d6 a7 3e
       -0.018365175 0.24265054 0.35102427 0.32780656
000320 10 54 3a 3f 33 81 aa 3d 0d d0 91 be 58 fa 1c be
       0.7278452 0.08325424 -0.28479043 -0.15329874
000330 cc e2 9f 3e f8 e4 af 3f 52 28 35 3f 67 04 00 bf
       0.3122772 1.3741751 0.7076465 -0.5000672
000340 60 e1 8c 3f 74 fb bf be 6d 05 81 3f 26 c5 26 3e
       1.1006279 -0.3749653 1.0079781 0.16286144
000350 06 31 81 bc 22 38 40 3d 37 96 f4 bd 7c 9d 69 be
       -0.015770447 0.046928532 -0.11942714 -0.22813982
000360 c7 64 8a 3e 08 90 25 3f 17 ad 1a 3e 30 55 ee bf
       0.27030012 0.646729 0.15105091 -1.8619747
000370 67 39 4e bb b2 2d e6 3f 6d 0d 39 bf 5a 95 37 be
       -0.003146732 1.7982695 -0.7228611 -0.17928067
000380 8d 55 75 bf ff b7 d7 3e 8b e4 5b bf 36 6b 03 3f
       -0.95833665 0.42132565 -0.85895604 0.51335466
000390 fb 8e 0d bf 05 ae 74 bf 8f d4 3d be 92 24 65 3f
       -0.55296296 -0.9557803 -0.18538116 0.89508927
0003a0 a5 a3 63 3f ce 16 e5 3f a3 e1 4d 3e f5 59 a5 bf
       0.88921577 1.7897584 0.20105605 -1.2918078
0003b0 43 bf 29 bf f8 73 5c bf e6 1b 69 3f 45 92 64 be
       -0.6630747 -0.86114454 0.91058195 -0.22321422
0003c0 7b c3 2a 3f 3d 70 08 bf 3f 32 2e 3f b8 78 9a bf
       0.6670453 -0.5329626 0.6804542 -1.206809
0003d0 f5 ea 70 bf 3c b2 46 3f 67 6f 6d 3e 2e c6 4c 3e
       -0.94108516 0.77615714 0.23187028 0.19997475
0003e0 52 db 99 3e 4e d1 30 bf 78 ec 80 3f 9e 70 7f bf
       0.3005014 -0.69069374 1.0072165 -0.99781215
0003f0 0a c8 c6 3d 5d a9 a7 bf 5b d8 2b bf c6 9e 71 bf
       0.09706123 -1.309856 -0.6712701 -0.94382894

network_body._body_endoder.seq_layers.0.bias f4 [128]
000000 a1 80 85 3e 56 d5 58 bd d6 03 c2 bd c9 1f 5f 3e
       0.260747 -0.052937828 -0.09473388 0.21789469
000010 af 39 35 be 8b 33 80 bd 32 da 7d be b9 60 fe 3d
       -0.17697786 -0.06259831 -0.24790266 0.12420792
000020 89 6f 84 be 3f 73 de bd 52 70 77 be 44 29 de 3d
       -0.25866345 -0.10861825 -0.2416394 0.108477145
000030 7c 54 d1 3d d5 06 72 3e 57 d5 e4 3d 28 5d d9 3d
       0.10221192 0.23635419 0.11173504 0.10613471
000040 76 ee 67 be 8d e1 54 be d2 d1 34 be c8 d2 7b be
       -0.2264956 -0.20789166 -0.17658165 -0.24592125
000050 ed 5c be 3d 80 89 81 be 8c 55 6e be 78 59 58 be
       0.09295068 -0.25300217 -0.23274821 -0.2112788
000060 3b ef 9c 3e 63 33 43 3c 25 0a 36 be 74 c6 8b be
       0.30651268 0.011914107 -0.17777307 -0.27299845
000070 11 32 58 bd bc fd 59 be d4 fb 04 be ab 9a 70 3e
       -0.052782122 -0.21288198 -0.1298669 0.23496501
000080 f0 b5 7e be 2c cd 9d 3c 29 b7 6b bd 44 d8 83 be
       -0.24874091 0.019262873 -0.057547722 -0.25750935
000090 12 f5 85 3d 0c 48 cb bd bf 23 ed 3c 07 5e ad bd
       0.06540884 -0.09925851 0.02894771 -0.084652
0000a0 ea 24 f5 bd d1 bb 08 3e 6e 71 80 3e b0 f6 78 be
       -0.119699314 0.13352896 0.2508654 -0.24312854
0000b0 a7 d0 6b be 12 7f c2 bd 2e 40 2e be 9f 9a 86 3e
       -0.23028813 -0.09496893 -0.1701667 0.26289842
0000c0 ad ae 71 be ef f6 1c be f9 24 88 bb 53 93 e1 bd
       -0.2360179 -0.15328573 -0.004154798 -0.11014428
0000d0 5a f4 1b 3e a0 eb 73 be 18 9d c5 3c 2d a3 ba 3c
       0.15229931 -0.23820353 0.02412276 0.022782886
0000e0 c2 36 2b bd 9e 93 b6 bd d9 64 9c bd 5d a4 34 3e
       -0.041800268 -0.089148745 -0.07636423 0.17640825
0000f0 5f dc bf bd e9 54 43 be 6c 75 58 be 42 bc 3f 3e
       -0.09368204 -0.1907536 -0.21138543 0.18724158
000100 e5 2d 6e be 0a dd c9 3d a1 17 8f bd 52 17 0e be
       -0.23259695 0.09856613 -0.06986929 -0.13876083
000110 b1 f8 45 3e b7 07 4c be c3 33 fb ba 72 63 79 be
       0.1933315 -0.19924818 -0.0019165206 -0.24354342
000120 3a 90 74 3e ce d6 8f 3e f7 57 8c 3e 04 aa 8b 3d
       0.23883143 0.2809357 0.27410862 0.06819537
000130 09 d6 cd 3d 01 dc 30 3e b9 7a 24 be 82 35 d4 3d
       0.100505896 0.17271425 -0.1606244 0.10361768
000140 cb 15 81 3d a5 6d 01 be 59 b5 9b 3d f4 f7 0c 3c
       0.06302985 -0.12639482 0.07602949 0.0086040385
000150 3b de bd 3d c6 1c fc bd e1 00 b3 bc 81 c8 0b be
       0.09270903 -0.123101756 -0.021851005 -0.13650705
000160 5c a0 c1 3d a2 18 92 bd 99 4f 70 3e 81 41 cc bd
       0.09454414 -0.071336046 0.23467864 -0.099734314
000170 3b 4d 0a be 58 f2 5f bc 66 84 ee bd 0e db 1b be
       -0.13506024 -0.013668619 -0.11646347 -0.15220281
000180 7d 9b 70 3e 3a eb 41 3c ef df 18 be 0c fe 13 be
       0.23496814 0.011835868 -0.14929174 -0.1445238
000190 b8 30 0f be 06 69 87 be 97 09 cc bd 56 4c 90 3d
       -0.13983428 -0.26447314 -0.099627666 0.0704581
0001a0 4c 60 0a be 22 4b 06 be 14 1c 53 3e 0a ec 7a 3e
       -0.13513297 -0.13114598 0.2061618 0.24504104
0001b0 d0 8e f7 bc 98 a6 38 3d 2e 10 d4 bd f9 95 5d be
       -0.030219465 0.04508075 -0.103546485 -0.21639241
0001c0 b3 af 30 bb 9b 8e 2e be fe 4d 1b be 17 b7 b1 3c
       -0.0026960194 -0.17046587 -0.1516647 0.02169375
0001d0 e2 1d b2 bd 10 88 8d 3e fc b5 84 be 15 bd e2 bd
       -0.08697106 0.2764287 -0.25920093 -0.11071221
0001e0 83 0f 26 be bd 02 8d 3e 9b a1 c2 3d b7 29 24 be
       -0.16216855 0.27541152 0.0950348 -0.16031538
0001f0 82 25 75 3e 15 a3 73 3e cb 87 43 3e 43 01 78 be
       0.2394009 0.2379268 0.1909477 -0.24219231

network_body._body_endoder.seq_layers.2.weight f4 [128, 128]
000000 f9 4a a5 bd 3b 6b ae bd 48 0b 44 be d8 73 d9 bb
       -0.080709405 -0.08516546 -0.19144928 -0.006636124
000010 71 ff df bc 9b 50 da 3d 15 63 12 3d be 25 89 bd
       -0.027343484 0.106599055 0.035739023 -0.06696652
000020 1b b9 b8 bc 97 e7 e8 3d ec b4 ed 3c 16 e0 87 bd
       -0.022549203 0.11372297 0.029016934 -0.06634538
000030 b8 85 3b 3d d2 6e 38 be 9a 37 21 3c 57 70 bb bd
       0.04578182 -0.18011025 0.009839917 -0.091522865
000040 36 1a af bd e2 77 65 bd 7d 4a 12 bc cb 6c 80 3d
       -0.08549921 -0.056022532 -0.008928892 0.062707506
000050 a0 08 1b 3d 6b e8 b5 3d 35 cb 2b 3b ee 49 bd bd
       0.037850022 0.08882221 0.002621365 -0.092426166
000060 dc 67 56 bd 07 62 f3 3b d1 71 db 3d e1 02 12 3e
       -0.05234514 0.0074274573 0.10715068 0.1425891
000070 48 fe 87 3d 17 3e 98 bc 0f 17 9f 3d c0 c8 0e 3e
       0.06640297 -0.018584294 0.0776807 0.13943768
000080 56 5d d2 bc d2 f0 c5 bd c3 93 c4 bd 53 71 43 3c
       -0.025679272 -0.096650735 -0.09598496 0.011928874
000090 3f 1f 64 3c 76 8c f5 3d c9 df a4 bc 46 90 9a bd
       0.013923465 0.119896814 -0.02012624 -0.07547049
0000a0 79 07 49 bd 6c 1e ce bd 54 2a c1 bd 59 01 18 3e
       -0.049079392 -0.10064396 -0.094319016 0.14844264
0000b0 1b f4 09 be 59 5d 37 be 11 ab 9b bd e6 d7 8c be
       -0.13472025 -0.17906703 -0.07600988 -0.27508467
0000c0 52 74 a3 3d c7 88 15 3e 24 ff cc 3d 37 59 6a be
       0.07981171 0.14602958 0.10009602 -0.22885595
0000d0 2b d0 bb bd e6 74 f3 bd 24 21 b6 bc 6f 62 e5 3d
       -0.09170564 -0.11887531 -0.0222326 0.11200415
0000e0 2f b5 f9 bd 6c 4f 5e be 6e b4 3e 3c 3f 2d d1 3c
       -0.12192761 -0.21709985 0.0116396975 0.02553427
0000f0 7a 38 e1 bb 70 b9 12 3d 6c 85 80 3b 51 5e e7 3c
       -0.0068731876 0.03582138 0.003922155 0.028243216
000100 a0 ea 19 bc fb bb b6 bd de 9c ec bd 8a ce 24 3d
       -0.009394318 -0.08922573 -0.115533575 0.040236033
000110 86 50 93 3d 38 26 b9 3d 95 4e ff bd f1 9b 8b 3d
       0.07193093 0.09040493 -0.1246616 0.06816853
000120 ee 37 a3 bd ce a1 dd bd b1 d8 e2 bd c7 73 29 be
       -0.07969652 -0.108218774 -0.11076487 -0.16548072
000130 b3 b0 c8 bd 49 4c 61 bd c2 fb 9f 3d ad 95 0f be
       -0.09799328 -0.05500439 0.07811691 -0.1402194
000140 19 18 05 be 69 a9 42 bb 2f c8 69 bd c3 e0 e0 ba
       -0.12997474 -0.0029703027 -0.057075676 -0.0017156828
000150 af e8 5a 3c 6d 73 74 be 21 50 71 3d 69 f5 56 bd
       0.01336114 -0.23872156 0.058914308 -0.052480135
000160 bf ed 81 bd f3 8b bc b9 1f 4e 10 bd 08 68 06 3c
       -0.063441746 -0.00035962425 -0.035230752 0.008203514
000170 c3 1d ba bd b4 48 b1 bc 88 1a 4d 3c 44 fb 37 3d
       -0.09087708 -0.021641113 0.012518533 0.04491736
000180 2d 08 33 bd b9 d6 77 bd 43 49 d3 bd ac 29 9e bd
       -0.04370897 -0.06050751 -0.10316708 -0.07722792
000190 27 aa a0 bc 35 16 86 3d 59 90 fe bd d6 8c 06 bd
       -0.019612385 0.065472044 -0.12429876 -0.032849155
0001a0 94 35 78 bd 6a ae c2 3d b3 ad 12 be 45 1d fe bd
       -0.06059797 0.09505923 -0.14324073 -0.124079265
0001b0 44 9d 8d bc 90 a6 59 be 64 e8 13 3d 11 5a 20 3d
       -0.017286904 -0.21254945 0.036110297 0.039148394
0001c0 e1 f8 b8 bc 23 d6 11 3d 0e 39 14 3e 20 d5 06 be
       -0.022579612 0.035604607 0.1447489 -0.13167238
0001d0 3d 09 bc bd 3a 1d 7c bc 9f bc d9 bd 02 bf 51 3d
       -0.091814496 -0.0153878275 -0.1063168 0.05120755
0001e0 fc ed c9 bd 0f ea 19 be 4e fc 66 bd 78 34 03 3d
       -0.09859845 -0.15030693 -0.05639296 0.03203246
0001f0 89 c9 44 bd 92 1f 4e 3d fb 39 78 bd bc ab a3 3d
       -0.04804376 0.050323077 -0.06060217 0.0799174
000200 3a 26 18 3e 5c 63 d6 bd 35 d5 1b 3d 05 62 b0 3d
       0.14858332 -0.1046817 0.038045127 0.08612446
000210 94 cb 5d bc 2a 7b c8 bd 9c 51 74 3d 85 4b 2f 3d
       -0.013537306 -0.09789117 0.05964814 0.04279663
000220 8d 2f 0c be db 87 b8 3c 29 c9 9e bd de d1 f6 3d
       -0.13690014 0.022525718 -0.07753212 0.12051748
000230 cd 83 6e 3e d5 8a 8a 3e 20 c6 32 3d 03 67 0d 3c
       0.23292466 0.27059045 0.043645978 0.008630517
000240 58 ae 4e ba f1 aa c9 bd c6 8a 22 3d 70 61 c2 bd
       -0.00078842556 -0.098470576 0.039683126 -0.09491241
000250 d7 2a cb bd 6b 79 75 bd 56 65 a3 3d 1b ff ca bd
       -0.099202804 -0.059930246 0.07978313 -0.09911939
000260 db 24 f3 3d 2e 54 24 3e 0f 50 fc bd 7a 5c 70 3b
       0.11872264 0.16047737 -0.123199575 0.0036676214
000270 fa 96 de 3c 32 f2 e1 3d b9 cc c9 bd 23 59 62 3e
       0.0271716 0.11032523 -0.09853501 0.22104315
000280 d1 fb a5 bc 91 14 06 3e 1c b7 a0 3d cb 71 bb bd
       -0.020261677 0.13093783 0.07847425 -0.09152564
000290 64 b6 ad bc 46 cc 1b 3e 88 40 6c bc 79 7a 03 3d
       -0.021205135 0.15214643 -0.014419682 0.03209922
0002a0 24 0f a2 bd 6b 41 71 3d 32 53 84 3e 0d 36 24 bd
       -0.07913044 0.058900278 0.25844723 -0.04009061
0002b0 8d 42 c6 bc fa e7 83 3d 3e 54 ef bc 87 d7 96 3d
       -0.024201656 0.064407304 -0.029214974 0.07365327
0002c0 28 a3 0e 3d e9 a6 01 3e 44 58 22 3e 97 77 a0 bc
       0.034823567 0.12661327 0.15853983 -0.019588275
0002d0 35 d3 68 3c f4 4c d1 bc 33 b7 82 3d d6 a4 cf 3d
       0.014210512 -0.02554939 0.06382599 0.10138862
0002e0 5d 0b cc bd 47 bf ea 3c c1 17 bf 3d da b1 c4 3d
       -0.09963105 0.028655661 0.093307026 0.09604235
0002f0 5c 12 96 bd 41 5b c2 bb a8 23 e7 bb f4 24 2c 3e
       -0.073277205 -0.0059312885 -0.007053811 0.16810971
000300 36 ba 70 3d 44 6b 84 bd 8d 9e 48 be ec 5a 04 bd
       0.058771335 -0.06465772 -0.19591732 -0.032313272
000310 3d 13 23 3e 63 6e e8 3d ab 1e 15 3c 64 87 b5 3c
       0.15925308 0.113491796 0.00910155 0.022159286
000320 09 df d1 3d cf d2 a4 3e 61 56 35 3e 7b 45 1a 3e
       0.10247619 0.32192084 0.17708732 0.15065567
000330 c0 25 ab bc 0e e5 d9 3a 0a 7c 8d bd 43 97 60 3e
       -0.020892024 0.001662405 -0.06908424 0.21932702
000340 6d 7d 1f be 44 28 99 bc f8 52 6f 3d 6f b7 90 3d
       -0.1557519 -0.018695958 0.058428735 0.07066237
000350 51 a1 82 3e b3 17 66 3e 38 a8 96 3c 46 73 10 be
       0.255137 0.22469978 0.01839076 -0.14106473
000360 dd bd 63 3d cc 94 10 3c ab 59 78 3e 0d b8 01 3e
       0.05560099 0.008824538 0.24252956 0.12667866
000370 4e 05 d9 bd c1 a0 ba 3d 3e bf 52 bd a5 71 04 3d
       -0.10596715 0.091126926 -0.051451914 0.032334942
000380 54 5d be bd 55 30 0a be 90 6f 7e bd db 4a 80 3d
       -0.09295145 -0.13495 -0.062118113 0.062642775
000390 98 a5 b2 bd 67 5c 3d be 02 de 3e bd 63 eb b6 3d
       -0.08722991 -0.1849228 -0.046598442 0.08931615
0003a0 93 19 f6 3d 54 39 6e 3d 76 66 06 3d df 1a 4b 3e
       0.12016597 0.05816014 0.032812558 0.1983447
0003b0 63 67 95 3b 3f 19 c3 3e 10 a0 2d be f4 57 c0 bb
       0.004559444 0.381052 -0.1695559 -0.00586986
0003c0 ad 67 8c bd 0c 03 5c 3c 4a 3d 10 bc de 9e 21 bd
       -0.06855712 0.013428461 -0.008803675 -0.03945815
0003d0 15 98 57 bc f0 e9 74 3e 83 22 f0 bc d9 0b 90 3c
       -0.013158818 0.23917365 -0.029313331 0.017583774
0003e0 0b 00 4f 3d 38 6b 09 3e 93 ec b1 3c 45 db 32 bd
       0.05053715 0.13419807 0.021719253 -0.043666143
0003f0 ba e4 6e 3d fd 2e d2 3d 71 7a 72 3e 35 ea 3f be
       0.0583236 0.102628686 0.2367952 -0.18741687

network_body._body_endoder.seq_layers.2.bias f4 [128]
000000 e3 f7 ac bd cd 21 bd 3d a9 81 67 3d 9b ea 3e be
       -0.08445718 0.092349626 0.056520138 -0.18644182
000010 8a b0 26 bd ed e1 f6 3d f4 7d 49 3e ef 5a 3d be
       -0.040695705 0.12054811 0.19676954 -0.1849172
000020 1a cd 14 be eb 30 18 be 8d b2 0c be 95 13 0f be
       -0.14531365 -0.1486241 -0.13739987 -0.13972314
000030 44 2e 63 3e f3 83 31 be a1 75 15 3e 04 b6 4c be
       0.22185618 -0.17335491 0.14595653 -0.19991308
000040 ff 1a 2c 3e 13 28 3b be c6 81 14 be 45 34 00 be
       0.16807173 -0.18277006 -0.1450263 -0.12519939
000050 32 ee 4b 3e 24 bf 6d 3e 94 6f 18 be 0b e0 2b be
       0.19915083 0.23217446 -0.14886314 -0.16784684
000060 e5 aa 08 3d 39 b6 33 be 80 1e 33 3e b8 19 ff ba
       0.033366103 -0.17549981 0.17492104 -0.0019462621
000070 9c 11 16 be b9 08 b4 3d f0 08 e3 bd 17 6a 09 3e
       -0.14655155 0.08790726 -0.11085689 0.13419376
000080 49 cf 13 be 72 53 41 be 2f a7 7b bd d6 64 07 be
       -0.14434542 -0.18879488 -0.061438736 -0.1322206
000090 31 8b e3 bd c6 14 02 3e 04 22 41 be 56 6e 3f 3e
       -0.11110533 0.12703237 -0.18860632 0.18694434
0000a0 74 14 e9 3d ff 56 1f be 3e e5 37 be e5 fa 25 3e
       0.11380854 -0.1556053 -0.17958543 0.1620899
0000b0 30 85 cc 3c 30 32 1b be 38 0f 04 3e f1 2d 13 3c
       0.024965852 -0.15155864 0.1289643 0.008983121
0000c0 25 6a bd bd 27 43 de 3d 31 30 8c bd e9 bf 12 3e
       -0.09248761 0.10852652 -0.06845129 0.1433102
0000d0 57 b4 24 be b3 43 12 3e be cc 02 be b0 b6 c8 bd
       -0.16084419 0.14283638 -0.12773415 -0.0980047
0000e0 c8 36 1c 3d fa 6f 2f be 1f 8e 99 bd 56 65 2c 3e
       0.03813818 -0.1713256 -0.074978106 0.16835532
0000f0 9d 65 4f 3e 3b 05 c3 3d ab f6 b8 bd 2e 66 26 be
       0.20253606 0.09522482 -0.09031423 -0.16249916
000100 c1 fc e8 bd 3a 37 1a 3e ed 85 fa bd b2 d9 c3 bd
       -0.11376334 0.1506013 -0.122325756 -0.095630065
000110 a9 25 19 be ad a2 08 be 23 71 09 be 7e 0a 2a be
       -0.14955772 -0.13343306 -0.13422064 -0.16605565
000120 88 09 46 3c c2 0b 21 3e ba d1 14 be 57 17 23 3e
       0.012087233 0.15727141 -0.1453313 0.15926872
000130 dc 27 49 be 83 71 d7 3d c9 33 fe bd be 62 fb bd
       -0.19644111 0.105196975 -0.12412221 -0.12274693
000140 e8 d5 4c be 4f 8a fe bd 3a 25 3d be e0 f0 9f bd
       -0.20003474 -0.12428724 -0.18471232 -0.07809615
000150 6a 50 1d be 8d 81 29 be ab 2e 28 3e af 66 05 3e
       -0.15362707 -0.16553326 0.16424052 0.13027452
000160 42 a3 71 3e 99 25 df bd 68 83 66 3e fd 1f 0a be
       0.23597434 -0.10895843 0.22511065 -0.13488765
000170 2e 63 40 be eb 9a 7e 3d 8f 06 73 3e 72 e8 2a be
       -0.18787834 0.06215946 0.2373297 -0.16690233
000180 0e f4 15 3e d3 e6 15 be d4 47 f8 bd 38 46 12 3e
       0.1464388 -0.14638834 -0.12123075 0.14284599
000190 1e ab 06 be 56 51 38 be 13 fe f6 bd 3e 32 db bd
       -0.13151214 -0.17999777 -0.120601796 -0.10702942
0001a0 c4 46 68 3e 16 5e 06 be 15 2a 09 be 0d 20 2b be
       0.22683245 -0.13121828 -0.1339496 -0.16711445
0001b0 73 26 08 be c0 0b 2b 3e d3 80 8e bd 94 f2 68 3e
       -0.13295917 0.16703701 -0.06958165 0.22748786
0001c0 59 32 dd 3d d8 a3 c2 bc 13 fb 38 be e8 3b 19 3e
       0.10800619 -0.023759767 -0.18064527 0.14964259
0001d0 58 17 10 be a0 86 5f 3e 77 40 47 be 42 99 ec 3d
       -0.14071405 0.21828699 -0.19458185 0.11552669
0001e0 a6 92 62 3d 61 4f cc bd a7 6f 58 bd bf 7c ae 3d
       0.055315636 -0.09976078 -0.052840855 0.08519887
0001f0 83 fd 1d 3e 2b 15 1b be 8c 0d 35 3d 1a 14 07 be
       0.15428738 -0.15144794 0.044202372 -0.13191262

action_model._discrete_distribution.branches.0.weight f4 [3, 128]
000000 cf 51 a5 bd 33 f0 00 3d fb fa 2f 3d d0 8a f0 bd
       -0.080722444 0.03147907 0.042963963 -0.117452264
000010 8c 14 86 bd 22 a0 50 3d 3d fa e2 3d e2 31 0a be
       -0.06546888 0.050933965 0.110828854 -0.13495591
000020 67 81 df bd e9 7d fd bd a7 78 0d be 85 1b 09 be
       -0.109133534 -0.12377531 -0.13815556 -0.13389404
000030 79 27 53 3e 80 e4 12 be 5b 15 7c 3d fc f3 1a be
       0.20620526 -0.14344978 0.061543804 -0.15132135
000040 e0 18 d0 3d c8 1f 2f be a2 b8 07 be e0 77 a3 bd
       0.101609945 -0.17101967 -0.13254026 -0.07981849
000050 f8 ae 12 3e bf b1 2b 3e 10 be f9 bd fe ca 1a be
       0.14324558 0.16767024 -0.12194455 -0.15116498
000060 fc 0b ef 3c 4f 5a b3 bd f5 d4 be 3d b8 88 b6 bc
       0.02918052 -0.08757459 0.09317962 -0.02228199
000070 9c 1b c5 bd 62 29 ab 3c a9 3b df bd 02 86 46 3d
       -0.09624407 0.020893756 -0.10900051 0.048467644
000080 a4 4b e3 bd c8 0d 1a be 8e a0 83 bd e7 ce e2 bd
       -0.11098412 -0.1504432 -0.06427108 -0.1107462
000090 ad 76 78 bd d8 83 60 3d e1 fc 11 be cc d9 ca 3d
       -0.060660053 0.054813236 -0.14256622 0.09904823
0000a0 b7 21 41 3d 13 2b 2a be 0d 1e 18 be 14 53 6d 3d
       0.047151294 -0.16617994 -0.14855213 0.057940558
0000b0 28 f0 df 3b 7f 78 26 be b1 23 2d 3d 59 9a 45 bc
       0.006834049 -0.16256903 0.042270366 -0.012060725
0000c0 b2 2b 06 be 04 10 52 3d 0e ba 5b bc a7 a4 91 3d
       -0.13102606 0.051284805 -0.013411058 0.07111483
0000d0 11 05 27 be 4a fd ab 3d 87 90 1d be 8e 50 0f be
       -0.16310526 0.083979204 -0.15387164 -0.13995573
0000e0 f8 e3 6e bc e3 5b 10 be 04 08 c1 bd 09 76 d3 3d
       -0.014580719 -0.14097552 -0.09425357 0.10325248
0000f0 66 d3 27 3e 51 dc 52 3d 8c e7 99 bd bf 6d 45 be
       0.16389236 0.05147964 -0.07514867 -0.19280146
000100 fc d2 86 bd 76 f8 c6 3d 65 2d 9b bd 98 39 6a bd
       -0.06583211 0.09715359 -0.07577018 -0.057183832
000110 6a 91 14 be d3 ab cb bd 25 90 d8 bd da d5 00 be
       -0.14508596 -0.09944882 -0.105743684 -0.12581578
000120 1c 51 a3 bb 8c 1b 98 3d 90 fb f4 bd be 0f a0 3d
       -0.004984034 0.07427129 -0.11962044 0.078155026
000130 a9 4e 13 be 9d 06 d6 3c 98 33 f5 bd 3d bb 92 bd
       -0.14385475 0.0261262 -0.11972731 -0.07164619
000140 f3 d0 12 be b1 63 a7 bd 06 7d 0b be 64 f4 69 bd
       -0.1433752 -0.081733115 -0.13621911 -0.057117835
000150 fe f6 cb bd c4 ec db bd d4 f0 9d 3d f4 00 8d 3d
       -0.099592194 -0.10738519 0.0771195 0.068849474
000160 de 12 38 3e 23 4e c8 bd 8b 51 34 3e 71 bf 3f be
       0.17975947 -0.097805284 0.17609231 -0.18725373
000170 bf c4 02 be 61 70 be 3c d0 1b 4a 3e ce de 01 be
       -0.12770365 0.023246946 0.19737172 -0.1268265
000180 cd 03 9a 3d fc d3 23 be 9d 58 87 bd 1f 4c 95 3d
       0.07520256 -0.15998834 -0.066086985 0.072899096
000190 13 8f 17 be 5f 85 1a be 00 08 f1 bd 64 34 27 bd
       -0.14800672 -0.1508994 -0.11769104 -0.040821448
0001a0 01 fc 35 3e 44 58 17 be 73 02 0f be d8 c9 fc bd
       0.17771913 -0.14779764 -0.13965778 -0.12343186
0001b0 93 18 f4 bd dc 50 95 3d f5 9b bd bd 65 8f 21 3e
       -0.1191875 0.07290813 -0.09258262 0.15777357
0001c0 cc 31 2a 3d 9c 98 ed bc 30 99 fa bd c7 01 be 3d
       0.041551396 -0.029003434 -0.122362494 0.09277683
0001d0 ca 32 fb bd 42 cf 31 3e d1 5f 1c be 8b 09 14 3d
       -0.122655466 0.17364219 -0.15270926 0.036141913
0001e0 33 bd 65 3d c3 08 af bd f3 98 8d bd 1c bc fe 3c
       0.056088638 -0.08546593 -0.069139384 0.031095557
0001f0 61 89 ab 3d 6b a4 3b be fe 7f bd 3d 31 27 bf bd
       0.08375812 -0.18324439 0.09252928 -0.09333647
000200 6d bb 08 bd 84 35 98 bd aa 2a 9e 3d 2f ce bd bc
       -0.03338187 -0.07432082 0.07722981 -0.023169605
000210 01 bc c6 bd 14 3b 7d bd 8a 13 4a bc f4 3c 81 3d
       -0.09703828 -0.06182392 -0.01233376 0.06310454
000220 4b 99 1b bc 1e bf 59 3d ba be 27 bd 20 ad 95 bd
       -0.009496997 0.05316078 -0.040953375 -0.073084116
000230 32 76 06 be 5e b9 2b 3d bf e8 3d bd 33 93 96 3d
       -0.13131025 0.041924827 -0.046364542 0.07352295
000240 8f 34 24 be 88 59 d7 3d c5 c6 2a 3d 61 ac 85 bc
       -0.16035675 0.105151236 0.041693468 -0.016317548
000250 f9 e9 97 bd 5f 88 1b be 04 8c 60 3d 43 5f ef 3d
       -0.074176736 -0.1518874 0.05482103 0.116880916
000260 55 78 07 be 83 92 93 3d 8a 5a 03 bd 5a b9 17 bd
       -0.13229497 0.07205679 -0.032068767 -0.037042
000270 2b 16 7c 3d 95 0c 28 bd bc 3e fa bc 87 52 09 bd
       0.06154458 -0.041027624 -0.030547492 -0.03352597
000280 7d a2 6a bc 08 6b 98 3d 59 b9 3b 3e 23 ab 6e 3c
       -0.014320967 0.074422896 0.18332423 0.014567169
000290 4e 56 04 3e 63 a9 07 bd 9d 3e a0 bb f1 fd a6 bd
       0.12923548 -0.033120524 -0.0048902766 -0.08153904
0002a0 02 1f 87 3c 06 6d 89 3d a8 b6 65 3d 06 6a a2 bd
       0.016494278 0.06710248 0.056082398 -0.079303786
0002b0 cb de 4e bc 6d ea 3a 3c e1 86 0a bd e0 35 3d bd
       -0.01262636 0.0114084305 -0.033820037 -0.046193957
0002c0 71 73 20 bd e9 91 e9 bc 88 59 b1 3c f4 21 25 bd
       -0.039172594 -0.028511958 0.021649137 -0.040315583
0002d0 cd 7c 3f 3d 95 e1 f2 3d 71 c8 cf bc 3a f9 a4 bd
       0.04674988 0.118594326 -0.025364133 -0.08055349
0002e0 22 c1 19 bd e8 b6 be bc 72 08 02 be 6a d8 12 be
       -0.0375377 -0.023280576 -0.12698534 -0.14340368
0002f0 77 7c 6e be 8d c1 79 3d 3e 67 ba bc e6 38 86 3d
       -0.23289667 0.0609756 -0.022754308 0.06553821
000300 e4 b3 b5 bc 9f 61 60 bc 38 c6 84 bc 59 b3 b3 3d
       -0.022180505 -0.01369515 -0.0162078 0.08774442
000310 cb d0 19 3d 35 5e 2c 3d 82 2a b3 3d 08 56 16 3d
       0.037552636 0.04208203 0.08748342 0.03670314
000320 bb 27 0f 3c 82 27 ae bc dd 18 12 3c 01 d2 f7 bc
       0.0087375 -0.021259073 0.008917061 -0.030251505
000330 c6 38 91 3d 5a fe e2 bc 33 c6 06 3e f7 5c b6 3d
       0.07090907 -0.027709175 0.13161545 0.089044504
000340 5b a5 87 3d a2 8a 6a bc 3c 72 67 3d e6 54 b5 bd
       0.06623336 -0.014315279 0.056505427 -0.08854084
000350 3c f0 f9 bc a2 83 9a 3d 84 fd 58 bd 27 2f 3a 3d
       -0.03051006 0.07544638 -0.052976146 0.045455124
000360 b5 c6 62 be 3b fa 0a bd 90 74 2c be c5 80 8f bc
       -0.22146113 -0.033930045 -0.1684134 -0.017517457
000370 49 64 85 3c 30 c0 1d bd f0 61 2c be 52 bc 11 3d
       0.016283171 -0.038513362 -0.16834235 0.035579987
000380 fb 02 f8 bd 1d 9a 4c bc 24 24 84 bc 86 e1 33 bd
       -0.121099435 -0.012487915 -0.016130514 -0.043916248
000390 c8 26 83 bd d0 16 9e 3d 86 5f c5 bb 83 84 ae bc
       -0.06403881 0.07719195 -0.00602335 -0.02130342
0003a0 b2 db 56 be 80 61 ac bd be 1e 3b bd 4d 46 5c 3d
       -0.20982245 -0.08417034 -0.045683615 0.05377798
0003b0 86 1d d7 3c 19 ee 7a bd 17 b7 63 3e 97 55 16 be
       0.026259195 -0.061262224 0.22237812 -0.14681087
0003c0 78 da 02 bd f0 50 27 bd 5d 5b 5a 3d fd f9 a4 bd
       -0.03194663 -0.040848672 0.053309787 -0.08055494
0003d0 00 25 21 bd 8b bb 41 be 9c aa ad 3d 23 f3 ea bc
       -0.039341927 -0.18919198 0.08479807 -0.02868039
0003e0 8b 82 04 be 0a 86 cd 3d 62 6a 35 bd 44 b2 e5 bc
       -0.12940423 0.100353315 -0.044290908 -0.028039105
0003f0 cf 76 97 bd 0f f1 0d 3c 5d 00 21 be 11 a2 61 3c
       -0.07395708 0.00866343 -0.15722795 0.01377155

action_model._discrete_distribution.branches.0.bias f4 [3]
000000 03 d7 2a 3e 8a 83 c9 bd f9 30 e7 bd
       0.16683583 -0.09839542 -0.11288638
