PFG-GAME/config/results/train02/DifAgent/DifAgent-165461.onnx (onnx, 75988 bytes, 8 tensors)

network_body.observation_encoder.processors.0.normalizer.running_mean f4 [4]
0.0 0.18972757 0.5043561 0.21080826
00000000: 0000 0000 f247 423e 7b1d 013f 1fde 573e

network_body._body_endoder.seq_layers.0.weight f4 [128, 4]
0.033673167 -0.31410202 -1.3966405 -0.5900638 0.07107143 0.33094543 -0.46331862 0.81778485
-0.37195843 -0.6517011 -0.015982425 0.5517537 -0.13398217 -0.25374293 -0.7949208 0.013911031
-0.048357543 -0.6757424 -0.33769283 0.15642579 -0.45119733 -0.6440881 -0.19617698 -0.24155276
-0.695624 -0.31779718 -0.123054035 -0.3282378 0.057056993 0.7274355 -0.15563717 -0.09769569
-0.41416338 0.1903086 0.041569438 0.8078892 0.01599751 0.016343389 0.07316036 -0.80807227
-0.31288993 0.50811774 0.023984939 0.56190544 0.2832782 -0.041971687 0.76486 -0.2590552
0.5831916 -0.37592444 0.41850606 -0.67343473 -0.054989673 0.36351645 -1.1311741 0.44812936
0.026448604 0.021139689 -0.022995183 0.07011703 -0.8094643 0.0720531 -0.77235156 0.088137746
0.2660369 0.24532 0.7471725 0.21167108 -0.37668052 1.2166275 -1.0312214 -0.7490912
-0.017433358 -0.48266882 -0.71367437 0.6317057 -0.006959788 0.08251397 -0.044433318 0.09200421
-1.0143027 -0.47047323 0.5607614 0.111140035 -0.48802322 -0.15056598 0.95063275 0.28709444
-0.06324243 -0.4279721 -0.14172633 -0.60689276 0.4105731 -0.3849024 0.032555137 0.09529786
0.17742209 -0.33770818 -0.435033 0.5159681 0.4416368 -0.86767757 -0.44849753 0.16391627
-0.34820223 0.6507117 -0.9008003 -0.3583684 -0.35077205 0.762747 -0.41497758 0.078131974
0.965642 1.4052508 0.5508775 -0.2356299 -0.18502784 0.40689433 -0.8941691 0.033359304
-0.15536122 0.3576667 0.5209835 0.16293904 -1.102283 -0.091707505 -0.023850095 -0.7093324
-0.2309869 0.2083829 0.2901641 -0.4129805 -0.08918164 -0.19420381 -0.8425014 -0.5840702
-0.37589478 -0.04449644 0.44797587 -0.5666885 -0.54015064 -0.11091135 0.20067726 -0.9755596
-0.07032073 -0.12166343 0.21378212 0.009210094 -0.44604144 -0.00378791 0.3644359 -0.051985722
0.46431452 0.91876763 0.3099761 0.42980665 0.10282002 0.18379371 0.67983437 -0.38062343
0.44109896 0.14966811 0.2604045 0.2882403 -1.1128118 -0.16180226 0.5183264 0.5272956
0.8398226 0.0010306617 -0.18310156 -0.7575229 -0.13666806 -0.80802596 -0.09887454 -0.56923854
0.5867646 -0.97028863 0.037084747 0.24902849 -0.14933273 -0.051680077 0.123167 0.25916216
0.20018439 -0.20829289 -0.7877537 0.4628144 0.29584554 -0.5564466 0.0453943 -0.2664601
0.017165123 0.055688906 -0.38566175 0.3683929 -0.79211843 0.007036356 -0.69822747 0.43450618
0.002061166 0.24922849 0.0013558727 0.36911353 0.050431557 0.6404703 -0.009996105 -0.24759404
0.37189922 -0.09694577 -0.13442464 0.39758635 -0.25579947 -0.31397605 0.30554053 1.0084605
-0.5683816 -0.40549684 -0.18135443 -0.3713172 -0.65893936 0.54994583 -0.29928702 0.39146838
-0.2729897 0.64357716 0.3564359 -0.12555876 -0.037376262 -1.1175505 0.13674054 0.018997509
0.34613967 0.08333333 0.47721657 -0.260555 0.4344809 0.78120005 0.53409 -0.095055684
-0.22195743 -1.2408808 0.18088654 -0.6376176 0.03797931 0.9147605 -1.5210688 -0.008574149
-0.7319681 0.15134385 -0.23051964 -0.9674354 0.3763099 -0.81261957 -0.65337855 -1.0559481
00000000: e0ec 093d fbd1 a0be 1ec5 b2bf 6c0e 17bf
00000010: e68d 913d ae71 a93e 1938 edbe 595a 513f
00000020: 5671 bebe e2d5 26bf 93ed 82bc bb3f 0d3f
00000030: 9f32 09be 98ea 81be ee7f 4bbf 18eb 633c
00000040: 8f12 46bd 74fd 2cbf 13e6 acbe 152e 203e
00000050: 5603 e7be f5e2 24bf 9ee2 48be 9b59 77be
00000060: 6a14 32bf 50b6 a2be c103 fcbd c90e a8be
00000070: 98b4 693d 3739 3a3f 5a5f 1fbe ae14 c8bd
00000080: 390d d4be 42e0 423e b744 2a3d d4d1 4e3f
00000090: 360d 833c 92e2 853c 19d5 953d d3dd 4ebf
000000a0: 1c33 a0be 0114 023f 107c c43c 09d9 0f3f
000000b0: d709 913e 81ea 2bbd ddcd 433f e2a2 84be
000000c0: 0b4c 153f 2b79 c0be 6d46 d63e 3866 2cbf
000000d0: da3c 61bd d41e ba3e 50ca 90bf 3671 e53e
000000e0: beaa d83c 242d ad3c 6560 bcbc 8499 8f3d
000000f0: 0d39 4fbf 9390 933d d5b8 45bf 9081 b43d
00000100: fd35 883e 2b35 7b3e b246 3f3f 4ec0 583e
00000110: 45dc c0be 73ba 9b3f 10ff 83bf 71c4 3fbf
00000120: 67d0 8ebc 5e20 f7be 5db3 36bf 77b7 213f
00000130: ef0e e4bb 16fd a83d b6ff 35bd b46c bc3d
00000140: acd4 81bf dee1 f0be 0f8e 0f3f 639d e33d
00000150: 2ede f9be f82d 1abe ab5c 733f 0bfe 923e
00000160: 3f85 81bd 291f dbbe b520 11be 535d 1bbf
00000170: a336 d23e ed11 c5be 8958 053d 862b c33d
00000180: 23ae 353e 16e8 acbe a5bc debe 7c16 043f
00000190: 381e e23e 1e20 5ebf 78a1 e5be abd9 273e
000001a0: 9047 b2be 0b95 263f d99a 66bf 107c b7be
000001b0: 6598 b3be 6343 433f f177 d4be a803 a03d
000001c0: 5034 773f 42df b33f 4f06 0d3f f748 71be
000001d0: f077 3dbe 7454 d03e 44e8 64bf c4a3 083d
000001e0: 0317 1fbe 1720 b73e 2d5f 053f 7ed9 263e
000001f0: 9c17 8dbf 25d1 bbbd 4661 c3bc cf96 35bf
00000200: d487 6cbe 5462 553e 6490 943e 2e72 d3be
00000210: dda4 b6bd 5ddd 46be 2cae 57bf a085 15bf
00000220: 4875 c0be e641 36bd 185d e53e 7f12 11bf
00000230: 5047 0abf 7d25 e3bd 577e 4d3e 46be 79bf
00000240: 5104 90bd ad2a f9bd b3e9 5a3e efe5 163c
00000250: 8b5f e4be 963e 78bb 5897 ba3e fbee 54bd
00000260: a2ba ed3e 5b34 6b3f 30b5 9e3e 9e0f dc3e
00000270: 4d93 d23d 6b34 3c3e a009 2e3f 13e1 c2be
00000280: b9d7 e13e 9942 193e bd53 853e 3c94 933e
00000290: 9e70 8ebf 7eaf 25be 0ab1 043f d8fc 063f
000002a0: 9dfe 563f 4517 873a fa7e 3bbe 05ed 41bf
000002b0: b6f2 0bbe cada 4ebf bc7e cabd 9eb9 11bf
000002c0: 3436 163f d664 78bf 2de6 173d 5301 7f3e
000002d0: aeea 18be 7dae 53bd fb3e fc3d e7b0 843e
000002e0: 23fd 4c3e bb4a 55be 3aaa 49bf 02f6 ec3e
000002f0: 1179 973e 4973 0ebf 60ef 393d 756d 88be
00000300: df9d 8c3c 0d1a 643d 7575 c5be ff9d bc3e
00000310: 46c8 4abf 3b91 e63b 09bf 32bf 9877 de3e
00000320: a114 073b c135 7f3e 8ab7 b13a 73fc bc3e
00000330: 5291 4e3d ddf5 233f b4c6 23bc 4b89 7dbe
00000340: 9369 be3e 818b c6bd 9da6 09be 7090 cb3e
00000350: 26f8 82be 78c1 a0be cf6f 9c3e 3c15 813f
00000360: 7581 11bf 489d cfbe fab4 39be 4a1d bebe
00000370: 40b0 28bf 40c9 0c3f 263c 99be 8b6e c83e
00000380: 4ec5 8bbe 79c1 243f c47e b63e 7a92 00be
00000390: da17 19bd e50b 8fbf b605 0c3e aaa0 9b3c
000003a0: 3839 b13e aaaa aa3d bb55 f43e 7767 85be
000003b0: 4874 de3e bafc 473f 1fba 083f 8eac c2bd
000003c0: cf48 63be 2fd5 9ebf 523a 393e e83a 23bf
000003d0: 3190 1b3d be2d 6a3f 62b2 c2bf 967a 0cbc
000003e0: 4362 3bbf e2f9 1a3e 570d 6cbe d9a9 77bf
000003f0: b1ab c03e d607 50bf d143 27bf 4f29 87bf

network_body._body_endoder.seq_layers.0.bias f4 [128]
-0.014380998 -0.0117126 0.0977111 -0.034200158 -0.04448413 0.06464679 0.039045725 -0.043634262
-0.11260957 0.106513545 -0.009463434 -0.039878882 0.09066275 0.028307835 0.09878165 -0.02130418
-0.09374546 0.0054374957 -0.03357302 -0.07123716 0.009084373 -0.104933456 0.096792 0.08140701
-0.05634862 -0.0002724412 -0.021228412 0.005628476 -0.02801273 0.012287695 -0.087251045 0.09530771
-0.0772778 -0.039961025 0.052014776 0.09128747 -0.019432804 -0.077845104 -0.06413177 -0.012358888
-0.082826234 -0.08704173 0.10063506 0.10064035 0.09587484 -0.07633052 -0.057805542 0.09897457
-0.04638002 -0.020494437 -0.103619866 -0.070297204 -0.061349515 -0.087955475 0.14852582 -0.004788583
-0.086972535 0.09559249 -0.08650725 -0.0903527 0.07995232 0.03807837 0.14486696 0.07334629
-0.042544942 0.09779578 -0.040141433 -0.070013635 0.07807032 0.084859796 0.038373772 0.013928521
-0.08215675 0.08713011 -0.0120443385 0.07529376 0.11020439 -0.09957135 -0.07097485 -0.053296108
-0.064949974 -0.034675002 -0.033840436 0.02147286 0.0855747 0.1404765 0.060341317 -0.08707047
-0.103167206 -0.07596397 -0.07845874 -0.089478046 -0.053265166 -0.0370861 -0.0066442434 -0.06496343
0.007653534 -0.03628024 -0.0869875 -0.10264896 -0.06585998 -0.0017108431 0.12526688 -0.02525525
-0.022638466 -0.08659653 -0.09961998 -0.096948214 0.07029521 -0.03983483 0.08952559 0.0070151906
-0.07541824 0.0687753 -0.012108324 -0.08533499 0.025701428 0.018177586 0.045154803 -0.12103879
0.1213992 -0.028139384 0.049314786 -0.06819924 -0.07498573 -0.04960205 -0.100590415 0.008195164
00000000: 479e 6bbc 34e6 3fbc c21c c83d 7715 0cbd
00000010: fe34 36bd 8965 843d 69ee 1f3d d7b9 32bd
00000020: d99f e6bd c623 da3d 850c 1bbc 0a58 23bd
00000030: 64ad b93d d5e5 e73c 094e ca3d 1b86 aebc
00000040: 9ffd bfbd 052d b23b dd83 09bd cae4 91bd
00000050: 9fd6 143c 5ae7 d6bd e23a c63d b8b8 a63d
00000060: d0cd 66bd 70d6 8eb9 35e7 adbc 146f b83b
00000070: f47a e5bc 5452 493c adb0 b2bd b030 c33d
00000080: d343 9ebd 2cae 23bd 720d 553d edf4 ba3d
00000090: 8b31 9fbc 416d 9fbd 8457 83bd ef7c 4abc
000000a0: cda0 a9bd ef42 b2bd c119 ce3d 871c ce3d
000000b0: 075a c43d 2d53 9cbd 81c5 6cbd 2eb3 ca3d
000000c0: faf8 3dbd f3e3 a7bc a736 d4bd fbf7 8fbd
000000d0: a149 7bbd 0022 b4bd 2717 183e 8ce9 9cbb
000000e0: a81e b2bd ffc5 c33d b72a b1bd d60a b9bd
000000f0: 0bbe a33d 11f8 1b3d 0158 143e 9436 963d
00000100: 9b43 2ebd 2749 c83d 586b 24bd 4f63 8fbd
00000110: 55e3 9f3d f9ca ad3d d12d 1d3d 7434 643c
00000120: cc41 a8bd 4571 b23d 9e55 45bc 9d33 9a3d
00000130: d7b2 e13d 10ec cbbd 435b 91bd 054d 5abd
00000140: 7e04 85bd 6007 0ebd 459c 0abd dae7 af3c
00000150: ca41 af3d 12d9 0f3e 7528 773d 0152 b2bd
00000160: 5449 d3bd ff92 9bbd faae a0bd 4440 b7bd
00000170: 932c 5abd 98e7 17bd f4b7 d9bb 8c0b 85bd
00000180: 7fca fa3b 979a 14bd 8126 b2bd 9e39 d2bd
00000190: 99e1 86bd 5e3e e0ba f645 003e 19e4 cebc
000001a0: 4e74 b9bc 8659 b1bd 8f05 ccbd c98c c6bd
000001b0: eff6 8f3d d929 23bd 3159 b73d afdf e53b
000001c0: e174 9abd 11da 8c3d fe61 46bc 1cc4 aebd
000001d0: cd8b d23c 29e9 943c 3ef4 383d 2fe3 f7bd
000001e0: 25a0 f83d 9184 e6bc 4dfe 493d 0bac 8bbd
000001f0: 1e92 99bd 852b 4bbd 5902 cebd 0245 063c

network_body._body_endoder.seq_layers.2.weight f4 [128, 128]
-0.03648482 -0.020939697 -0.007907485 0.109278 0.078950554 -0.07164132 0.038909256 0.027132506
-0.13959229 -0.004271573 -0.02843622 0.017971061 -0.13499264 0.08256853 0.06683861 0.12245395
0.019364959 -0.02465005 -0.04042282 -0.07290549 0.19575807 0.042491294 -0.10921688 -0.12124264
-0.05245426 0.027574435 -0.10263334 -0.091744065 -0.039159678 -0.06685515 -0.03333716 -0.05718357
-0.058788132 0.11988634 0.20262346 -0.15765016 0.15028667 0.0324294 -0.14069425 0.04823829
0.036440857 0.084868126 0.052885443 -0.027208814 -0.010226322 0.07536841 -0.014804892 0.09539534
-0.099258296 0.03597517 0.13267025 -0.021568455 0.07499517 -0.010721223 -0.045565866 -0.12280665
0.082982235 -0.03374079 0.10433457 0.030872883 -0.011508902 -0.09945419 -0.016819978 0.09168191
-0.07409153 -0.28565562 -0.029429335 -0.06799167 -0.08680202 0.0155879315 -0.045167323 0.01882142
0.11191363 -0.039752997 0.037885882 0.12621999 0.09047793 0.20064999 -0.040439554 -0.17082697
0.23699929 0.06672779 -0.01886498 -0.032555334 -0.17306456 -0.06898031 -0.05385098 0.112671085
0.24836259 0.031558014 -0.06233419 0.090572074 0.14778587 -0.20492579 -0.09960512 0.24394055
-0.038169462 -0.15084556 -0.14312536 0.2037258 0.058750156 0.08613861 -0.005009449 0.12085153
0.038523287 0.061998755 -0.028381694 0.01079085 -0.14710139 -0.07225055 -0.14277916 -0.01329216
-0.11455915 0.17207024 0.0280279 -0.09234305 0.081577234 0.041026548 0.00771336 0.04571211
-0.013084741 -0.14403531 -0.076579206 -0.027462473 0.0837363 0.08922898 0.13321804 0.01722609
-0.0035162703 0.090287395 -0.08890229 -0.060327448 0.015528827 0.0324124 0.023843376 -0.10172015
0.012360095 0.1504124 0.0355681 0.014387748 -0.026264096 -0.029276896 0.018155053 -0.042202413
-0.06056308 0.02617728 -0.032931507 -0.123155944 -0.052112903 -0.0125937015 0.048105497 0.089389175
-0.0872954 0.09449717 0.04995991 0.00802064 -0.0027772102 0.01162824 0.027952757 0.06442084
-0.12701873 0.18932304 -0.04923499 0.050893918 -0.09368256 -0.024280027 -0.020494856 -0.015112679
-0.12245593 -0.02313539 0.0069586355 -0.05748017 0.02935037 -0.037331343 -0.028745508 0.058019757
-0.06036353 0.004283492 0.021089908 -0.016056942 0.035173774 0.021048352 -0.008301099 -0.07431275
0.1635221 0.05746093 -0.05797131 -0.024729103 -0.026750762 0.06516411 -0.026164455 0.0010252339
0.20157695 0.0030578661 0.20946552 0.1528501 0.12548031 -0.09391978 -0.11867679 0.12482533
-0.06904986 0.051654458 0.0018679786 -0.08093779 -0.012696776 0.028450692 -0.10703988 0.05119316
0.097409174 0.06172409 -0.072716735 -0.056092873 -0.0043358 0.098831974 -0.04607583 -0.0085571455
0.0582824 -0.062378686 -0.037737753 -0.081521854 -0.06069974 0.012969527 0.10937404 -0.14485218
0.0438884 -0.1160667 -0.0055749756 -0.06082441 0.025843572 -0.14342037 0.045799844 0.071281835
0.118256584 -0.03557497 -0.010488406 -0.04223096 -0.019788895 0.10487853 0.07690766 0.04775204
-0.01027479 0.12614384 -0.016001347 0.0050094207 -0.06867681 -0.040293902 0.03787794 -0.11722732
-0.03763299 0.01699477 0.009686119 -0.13534102 -0.1721328 -0.0756019 0.06462603 -0.09214309
00000000: 1b71 15bd ba89 abbc 658e 01bc 25cd df3d
00000010: d4b0 a13d afb8 92bd 505f 1f3d fd44 de3c
00000020: 48f1 0ebe 8df8 8bbb 13f3 e8bc 0c38 933c
00000030: 833b 0abe b119 a93d aee2 883d 23c9 fa3d
00000040: 43a3 9e3c e7ee c9bc 6692 25bd 794f 95bd
00000050: ce74 483e 5a0b 2e3d 19ad dfbd 104e f8bd
00000060: 47da 56bd c8e3 e13c 6e31 d2bd 50e4 bbbd
00000070: e665 20bd 5aeb 88bd 8c8c 08bd 5239 6abd
00000080: d3cb 70bd f886 f53d 867c 4f3e 0b6f 21be
00000090: c0e4 193e b1d4 043d 2712 10be 8395 453d
000000a0: 0243 153d 57cf ad3d 689e 583d 05e5 debc
000000b0: 4e8c 27bc c15a 9a3d 3890 72bc a25e c33d
000000c0: ef47 cbbd b35a 133d b6da 073e 54b0 b0bc
000000d0: 1197 993d 12a8 2fbc 46a3 3abd 0e82 fbbd
000000e0: 97f2 a93d c833 0abd 5dad d53d 21e9 fc3c
000000f0: d58f 3cbc a3ae cbbd 0dca 89bc bac3 bb3d
00000100: 4dbd 97bd 7441 92be ca15 f1bc 373f 8bbd
00000110: 42c5 b1bd 8664 7f3c 5f01 39bd 612f 9a3c
00000120: f932 e53d 0ad4 22bd 3a2e 1b3d d03f 013e
00000130: 7e4c b93d 3177 4d3e f2a3 25bd 44ed 2ebe
00000140: f1af 723e 94a8 883d bb8a 9abc be58 05bd
00000150: d637 31be 8c45 8dbd d892 5cbd 19c0 e63d
00000160: c352 7e3e fa42 013d 2352 7fbd da7d b93d
00000170: 2e55 173e 11d8 51be c5fd cbbd 8dcb 793e
00000180: 9557 1cbd 4277 1abe 748f 12be 7f9d 503e
00000190: 01a4 703d 7169 b03d 4e26 a4bb 0281 f73d
000001a0: 98ca 1d3d 68f2 7d3d ba80 e8bc 1bcc 303c
000001b0: bfa1 16be 19f8 93bd b334 12be 5cc7 59bc
000001c0: fd9d eabd 2e33 303e c49a e53c 5a1e bdbd
000001d0: f711 a73d 740b 283d 5ac0 fc3b 9f3c 3b3d
000001e0: 6261 56bc fe7d 13be 8fd5 9cbd fbf8 e0bc
000001f0: f07d ab3d afbd b63d 4f6a 083e bb1d 8d3c
00000200: 3a71 66bb 99e8 b83d 6712 b6bd ea19 77bd
00000210: 9f6c 7e3c ddc2 043d 2f53 c33c a752 d0bd
00000220: ff81 4a3c b505 1a3e dbaf 113d 97ba 6b3c
00000230: cd27 d7bc 1ad6 efbc e8b9 943c 70dc 2cbd
00000240: fe10 78bd bc71 d63c 30e3 06bd 2f39 fcbd
00000250: 5774 55bd d055 4ebc 450a 453d ac11 b73d
00000260: eec7 b2bd bb87 c13d c3a2 4c3d 0169 033c
00000270: db01 36bb 6084 3e3c 2efd e43c 13ef 833d
00000280: 3311 02be e6dd 413e a1aa 49bd 2476 503d
00000290: a4dc bfbd e8e6 c6bc d4e4 a7bc 2c9b 77bc
000002a0: 2dca fabd 6e86 bdbc 4405 e43b 5470 6bbd
000002b0: 3070 f03c c0e8 18bd b37b ebbc 20a6 6d3d
000002c0: c03f 77bd 895c 8c3b bec4 ac3c d989 83bc
000002d0: 6012 103d 986d ac3c 5501 08bc 4831 98bd
000002e0: 5672 273e 275c 6b3d 5373 6dbd b094 cabc
000002f0: 6a24 dbbc c374 853d d756 d6bc 2461 863a
00000300: 306a 4e3e 7b66 483b 217e 563e bd84 1c3e
00000310: e97d 003e 0359 c0bd d10c f3bd 6ca4 ff3d
00000320: 036a 8dbd a093 533d f6d6 f43a b6c2 a5bd
00000330: 2306 50bc 6d11 e93c b937 dbbd ebaf 513d
00000340: 767e c73d 66d2 7c3d 83ec 94bd a4c1 65bd
00000350: 5413 8ebb 6b68 ca3d 02ba 3cbd 4533 0cbc
00000360: 87b9 6e3d cb80 7fbd e792 1abd eef4 a6bd
00000370: 4aa0 78bd 247e 543c 7fff df3d 2154 14be
00000380: 53c4 333d 61b4 edbd 49ae b6bb 0423 79bd
00000390: e6b5 d33c cadc 12be 9e98 3b3d 36fc 913d
000003a0: 8230 f23d 0fb7 11bd 90d7 2bbc 5ffa 2cbd
000003b0: 521c a2bc 8eca d63d c381 9d3d a597 433d
000003c0: 9857 28bc da2b 013e 4215 83bc 1126 a43b
000003d0: 6da6 8cbd 380b 25bd e625 1b3d e114 f0bd
000003e0: 0d25 1abd 9e38 8b3c 87b2 1e3c d696 0abe
000003f0: 9543 30be 2bd5 9abd a75a 843d 84b5 bcbd

network_body._body_endoder.seq_layers.2.bias f4 [128]
-0.104652904 0.038630236 -0.0438514 -0.059802983 0.07821985 -0.04260251 -0.05740527 0.022558618
-0.083025485 -0.09207371 -0.043865927 -0.10556447 -0.071879186 0.099319726 -0.10506463 0.08255688
-0.03573891 0.07270142 -0.0909967 -0.08225581 0.08424842 -0.101835504 -0.0676094 0.010253928
0.08736469 0.0493929 0.097266704 0.008168848 0.0906905 0.07166785 -0.07677147 0.008704268
-0.08142611 -0.059879187 -0.09572181 -0.104120575 -0.06279648 -0.08993173 -0.057900924 0.10012921
0.030730492 -0.10812254 0.05691326 -0.07311629 0.09429665 0.026910469 -0.09169088 0.10128399
-0.06014813 -0.054799244 0.037399318 0.051123258 -0.080808505 0.053022902 -0.11291083 0.07783091
0.016692994 -0.018595321 -0.040020794 -0.071214855 0.019708829 0.06788483 0.08662825 0.061691295
0.092015386 -0.11030728 0.011979302 0.10629652 -0.0039114365 -0.037258357 -0.0966836 -0.08293514
0.081724666 0.08369929 0.0041124276 -0.078875005 0.11350919 -0.067781694 0.053674303 0.04512915
0.0866219 0.09714475 -0.075687446 0.014819743 -0.09934397 0.09224264 -0.050830074 0.08841381
0.073722996 0.07367185 -0.003733266 0.10920724 0.08951797 -0.014209888 0.06987425 -0.11355833
-0.07246133 0.06987134 0.095771626 0.11121251 -0.06586842 0.071233846 0.102253094 -0.08306889
-0.102586046 0.08859524 0.092385694 0.09305191 0.08641668 -0.07029774 0.08065667 -0.11208854
0.0698012 -0.08602996 0.07842598 0.067258134 0.030931031 0.069555156 -0.09125506 0.04549808
-0.07215043 -0.10810105 0.0904019 0.056686252 -0.10051668 -0.10268102 -0.05879682 0.0164531
00000000: 4354 d6bd bd3a 1e3d 879d 33bd f9f3 74bd
00000010: bb31 a03d f87f 2ebd ca21 6bbd dacc b83c
00000020: 4409 aabd 2491 bcbd c2ac 33bd 2f32 d8bd
00000030: 6535 93bd 2468 cb3d 202c d7bd 9513 a93d
00000040: f762 12bd 7be4 943d 7a5c babd bc75 a8bd
00000050: 708a ac3d 228f d0bd cc76 8abd 1700 283c
00000060: 42ec b23d 3650 4a3d c433 c73d a2d6 053c
00000070: f1bb b93d 98c6 923d 5c3a 9dbd 599c 0e3c
00000080: bbc2 a6bd e143 75bd cc09 c4bd 2b3d d5bd
00000090: 719b 80bd 202e b8bd 8529 6dbd 8b10 cd3d
000000a0: 83be fb3c 5a6f ddbd e11d 693d febd 95bd
000000b0: 9a1e c13d 5873 dc3c 6ec8 bbbd fb6d cf3d
000000c0: e35d 76bd 2c75 60bd 0730 193d 9f66 513d
000000d0: ee7e a5bd 8b2e 593d cb3d e7bd d065 9f3d
000000e0: bfbf 883c 3755 98bc d8ec 23bd 18d9 91bd
000000f0: 6974 a13c 3407 8b3d 276a b13d 03b0 7c3d
00000100: 9072 bc3d c9e8 e1bd d644 443c fdb1 d93d
00000110: 822b 80bb 389c 18bd 0d02 c6bd e6d9 a9bd
00000120: 435f a73d 896a ab3d 8bc1 863b 3889 a1bd
00000130: 8277 e83d 21d1 8abd 96d9 5b3d 58d9 383d
00000140: d366 b13d d4f3 c63d 0502 9bbd 82ce 723c
00000150: da74 cbbd b6e9 bc3d 3233 50bd 4d12 b53d
00000160: 15fc 963d 44e1 963d cfa9 74bb 0ca8 df3d
00000170: 3355 b73d 97d0 68bc 3b1a 8f3d 4591 e8bd
00000180: 9b66 94bd b518 8f3d ea23 c43d 62c3 e33d
00000190: 06e6 86bd 0de3 913d 126a d13d 0620 aabd
000001a0: a218 d2bd 6c71 b53d b634 bd3d 0092 be3d
000001b0: 3afb b03d 43f8 8fbd 532f a53d ad8e e5bd
000001c0: eef3 8e3d 7a30 b0bd cd9d a03d a2be 893d
000001d0: 1363 fd3c ef72 8e3d efe3 babd 325c 3a3d
000001e0: 9bc3 93bd 1564 ddbd a224 b93d d82f 683d
000001f0: b0db cdbd 6d4a d2bd efd4 70bd a7c8 863c

action_model._discrete_distribution.branches.0.weight f4 [3, 128]
-0.07000289 -0.0020852296 -0.04486921 -0.08480623 0.07718282 -0.08699622 -0.041991618 0.0041177245
-0.1365905 -0.06619569 -0.014065067 -0.048661344 -0.03466274 0.11416787 -0.104687646 0.11799586
0.0033142413 0.041806277 -0.1107908 -0.043472536 0.12338414 -0.078763336 -0.016272651 -0.0016439164
0.07227534 0.015465796 0.16938372 0.000962932 0.13707153 0.013588069 -0.10209275 0.0024948295
-0.061959427 -0.07035216 -0.07335381 -0.06169494 -0.066791706 -0.027068468 -0.10859067 0.050828703
0.0053338055 -0.08948768 -0.00016738917 -0.08669114 0.04982391 -0.014040053 -0.04417187 0.10679048
-0.0897433 -0.068784684 -0.0017047811 0.021909412 -0.035582334 0.026810074 -0.11690274 0.06981183
0.013302839 -0.06494002 -0.06291323 -0.03470835 -0.008872854 0.028909044 0.025234055 0.00870543
0.14419194 -0.093946524 0.005598645 0.17447175 -0.043824933 -0.019950256 -0.07158583 -0.09064876
0.12005825 0.079420865 -0.019186255 -0.008820762 0.19649164 -0.06539659 0.0033717 0.015066423
0.027083402 0.1280384 -0.07986293 0.0028823768 -0.0721058 0.14688587 -0.11838994 0.15971392
0.06586565 0.05543114 -0.008317821 0.13883932 0.12494493 -0.052111793 0.04720001 -0.06931869
-0.07518324 0.0049331635 0.12276202 0.17179115 -0.021360207 0.088410586 0.14860564 -0.08055339
-0.07606722 0.119275995 0.14661498 0.08194281 0.049612068 -0.06400207 0.069424205 -0.11373757
0.014486477 -0.10271169 0.08893959 0.032332014 0.0028144622 0.08695056 -0.08052958 0.003329842
-0.059599627 -0.040042724 0.13456373 -0.011903003 -0.090936475 -0.07892449 -0.089838155 -0.0066681947
0.03606018 -0.0128465975 0.0082757 0.036906943 -0.060914073 0.052358888 0.01796047 -0.0021788995
0.077802196 0.049361654 0.023957234 0.032121558 0.034483507 -0.08172561 0.041049898 -0.07491214
-0.0039887284 -0.0118 0.07345671 0.027088946 -0.10599448 0.027101161 0.012634198 -0.0004972621
-0.05596834 -0.015155876 -0.10648291 5.990408e-05 -0.09247978 -0.0073815626 0.0366797 -0.017058577
0.035835538 0.031107755 0.021570964 0.047721792 0.048887122 0.014637358 0.0485586 -0.047891848
-0.0054634498 0.051939737 -0.005814646 0.042251542 -0.017106757 -0.016103059 0.01624096 -0.055630546
0.059231117 0.03120712 -0.00925137 -0.016053662 0.029221686 -0.014548793 0.0760065 -0.032577123
-0.00020352188 0.04753516 0.042873636 0.037431546 -0.016177468 -0.011399946 -0.0323586 -0.0071872077
-0.10101261 0.06369123 0.0046956018 -0.13939445 0.034444313 0.022679852 0.04902871 0.059812672
-0.10583092 -0.042678624 -0.018269412 0.018048039 -0.13586621 0.024823943 -0.0072575854 -0.0068255183
-0.028679166 -0.093530096 0.041650843 0.00042123883 0.024862267 -0.10021239 0.062964156 -0.10632174
-0.035831388 -0.035759196 -0.0055790134 -0.11371087 -0.07479359 0.02496765 -0.013061052 0.038289268
0.03922391 -0.031267617 -0.08020417 -0.12698668 0.039738894 -0.04852615 -0.09036978 0.04174602
0.036308885 -0.07161644 -0.092432775 -0.025240852 -0.016570428 0.017438 -0.052678652 0.049855635
-0.0063625826 0.052429616 -0.063209645 -0.0056701466 -0.004345777 -0.06548029 0.053992156 -0.013711513
0.01369807 0.029559085 -0.10915746 -0.023456626 0.039939396 0.04589702 0.047682207 -0.0066247033
00000000: ad5d 8fbd 59a8 08bb c7c8 37bd e4ae adbd
00000010: 0712 9e3d 132b b2bd 67ff 2bbd faed 863b
00000020: 61de 0bbe 9b91 87bd 2b71 66bc 1e51 47bd
00000030: 84fa 0dbd d8d0 e93d 7a66 d6bd d0a7 f13d
00000040: be33 593b 0f3d 2b3d 49e6 e2bd 4210 32bd
00000050: d3b0 fc3d ac4e a1bd 394e 85bc ae78 d7ba
00000060: 1805 943d 4064 7d3c ed72 2d3e 466d 7c3a
00000070: 7b5c 0c3e 7ea0 5e3c 0116 d1bd 4b80 233b
00000080: 2bc9 7dbd cb14 90bd 863a 96bd d5b3 7cbd
00000090: 17ca 88bd b1be ddbc c964 debd c231 503d
000000a0: 34c7 ae3b 5145 b7bd 3085 2fb9 208b b1bd
000000b0: 2814 4c3d 4008 66bc 90ed 34bd f8b4 da3d
000000c0: 56cb b7bd fcde 8cbd f672 dfba 5e7b b33c
000000d0: c8be 11bd cda0 db3c b46a efbd 81f9 8e3d
000000e0: 27f4 593c 46ff 84bd a7d8 80bd 582a 0ebd
000000f0: 725f 11bc a9d2 ec3c a6b7 ce3c 38a1 0e3c
00000100: 0da7 133e 0967 c0bd d774 b73b b9a8 323e
00000110: c681 33bd b86e a3bc 979b 92bd 0fa6 b9bd
00000120: 1ae1 f53d 68a7 a23d 7e2c 9dbc f584 10bc
00000130: 1b35 493e a6ee 85bd bdf7 5c3b 29d9 763c
00000140: 03de dd3c 801c 033e 2d8f a3bd 42e6 3c3b
00000150: 35ac 93bd 4069 163e 6d76 f2bd 0c8c 233e
00000160: 92e4 863d c30b 633d 7847 08bc e52b 0e3e
00000170: 21e3 ff3d 2d73 55bd cc54 413d f5f6 8dbd
00000180: acf9 99bd 60a6 a13b a76a fb3d 05ea 2f3e
00000190: 9afb aebc 9c10 b53d 142c 183e 2df9 a4bd
000001a0: 21c9 9bbd f946 f43d 3d22 163e a2d1 a73d
000001b0: 0636 4b3d 8413 83bd 472e 8e3d 3eef e8bd
000001c0: b058 6d3c 825a d2bd f625 b63d 936e 043d
000001d0: d772 383b 2313 b23d b1ec a4bd 7a39 5a3b
000001e0: bd1e 74bd d703 24bd 13cb 093e d004 43bc
000001f0: e73c babd 2aa3 a1bd 11fd b7bd df80 dabb
00000200: d7b3 133d 897a 52bc cd96 073c bc2b 173d
00000210: 0981 79bd 4676 563d d621 933c decb 0ebb
00000220: c256 9f3d 722f 4a3d f641 c43c e591 033d
00000230: 943e 0d3d c25f a7bd f023 283d 896b 99bd
00000240: e1b3 82bb ca54 41bc 7970 963d a3e9 dd3c
00000250: a213 d9bd 4103 de3c abff 4e3c b25a 02ba
00000260: 0f3f 65bd 5a50 78bc b613 dabd 8441 7b38
00000270: 0a66 bdbd 09e1 f1bb 743d 163d 6ebe 8bbc
00000280: 49c8 123d b1d5 fe3c 97b5 b03c ed77 433d
00000290: dd3d 483d 87d1 6f3c 62e5 463d 3e2a 44bd
000002a0: bd06 b3bb c3be 543d c988 bebb f40f 2d3d
000002b0: 7823 8cbc 90ea 83bc c30b 853c dbdc 63bd
000002c0: 549c 723d 13a6 ff3c 0f93 17bc f882 83bc
000002d0: 5162 ef3c 105e 6ebc 4ca9 9b3d 976f 05bd
000002e0: 7d68 55b9 3ab4 423d 449c 2f3d d251 193d
000002f0: 9c86 84bc d7c6 3abc 748a 04bd ab82 ebbb
00000300: b3df cebd 8c70 823d 90dd 993b 6bbd 0ebe
00000310: 7b15 0d3d 19cb b93c 54d2 483d 22fe 743d
00000320: e2bd d8bd c8cf 2ebd bca9 95bc 7bd9 933c
00000330: 8320 0bbe 955b cb3c 0ad1 edbb 99a8 dfbb
00000340: 92f0 eabc b58c bfbd 139a 2a3d b8d9 dc39
00000350: f4ab cb3c 273c cdbd 5af3 803d 36bf d9bd
00000360: efc3 12bd 3c78 12bd 28d0 b6bb 3fe1 e8bd
00000370: 622d 99bd f588 cc3c 06fe 55bc 35d5 1c3d
00000380: 40a9 203d 7912 00bd 1542 a4bd cc08 02be
00000390: 40c5 223d 5bc3 46bd cb13 b9bd e0fd 2a3d
000003a0: a0b8 143d a4ab 92bd 654d bdbd e7c5 cebc
000003b0: b5be 87bc 23da 8e3c 92c5 57bd 6c35 4c3d
000003c0: 367d d0bb 70c0 563d 0f74 81bd a3cc b9bb
000003d0: 0567 8ebb 881a 86bd e126 5d3d 41a6 60bc
000003e0: df6d 603c e525 f23c f28d dfbd 1c28 c0bc
000003f0: 7e97 233d 83fe 3b3d 6b4e 433d 0a14 d9bb

action_model._discrete_distribution.branches.0.bias f4 [3]
0.07355782 -0.044275753 -0.055059366
00000000: 7ba5 963d 7e5a 35bd ee85 61bd

onnx::Div_52 f4 [4]
0.0024583905 0.53092307 0.9437652 0.5556787
00000000: f31c 213b 93ea 073f 999a 713f f640 0e3f
