PFG-GAME/config/results/train02/DifficultyAgent/checkpoint.pt (torch, 436139 bytes, 33 tensors)

network_body._body_endoder.seq_layers.0.weight f4 [128, 4]
00000000: e43c f63e ab64 fd3e 0002 babd 2155 0dbf
00000010: 3da0 523d eb2f e7be 6870 89be 63dd 123f
00000020: 7eb3 25bf 8f8a b1be e3b2 c0be 048e 903f
00000030: 72eb bfbe af66 203e 772d c7be cf5b 48be
00000040: 94f4 5dbf 9142 ec3e 9231 06bf 6842 23bf
00000050: 778c 9abe 1869 bbbe 401b 85bd 6bcb c33e
00000060: 5542 c53e b7e5 a63d 73fe 89be 5d51 283f
00000070: 33fa 01bf 5908 633e 5005 ed3e da3e 923d
00000080: 3a4d 17bf a1b1 ed3d 5d50 b73e 2a8f b53e
00000090: 0d6f b13e 31f6 01be c07d 12bb 2c1e 943e
000000a0: 2098 5ebf 530d 373d 135c 64be 6694 33be
000000b0: a851 7b3e d6d4 3ebd c769 2d3f abd2 293e
000000c0: 8ce0 78be 598c 393d c697 95bf 501f 9dbe
000000d0: 9c9b 9f3e 2afb ccbd e69c 9e3e 3cd0 63bf
000000e0: 1f1c ff3e 6f29 513e 571e d13e 42f8 453e
000000f0: d0c4 76be 6b27 bb3e 7217 1bbd 19b0 1bbf
00000100: d901 bd3d c9a7 e93e 9488 4c3f 499d 95bf
00000110: 61e2 e7be 5efc 933e 93f7 27bf c14a 2f3e
00000120: aaa0 c6bd e805 6abf a7b0 7bbe 124a 59be
00000130: f3a4 d8bd 93ab d7be 8905 133e e6ca c53d
00000140: 6e08 5d3f 2bc4 d73e 61b4 8fbd a16d 9ebd
00000150: ad7c 753b 0fc9 a03e f1f1 72be 721d 743e
00000160: 3d4a 4a3d b45b 843e 2eac 0d3f d598 953e
00000170: 1f48 04bd bc76 d2be 948c 8ebd 7c04 b23e
00000180: b207 1dbe 3450 6cbe 7538 96bd 8fee a33e
00000190: c0c7 463e 2345 2abf c286 483c f8b8 aa3e
000001a0: efdf c9bd fdb9 2ebe a460 6c3e 0ddb debe
000001b0: 35fc dc3e ca50 3a3e 4a51 993e d249 763e
000001c0: 5e2a d73d 6b79 323f 55d7 79bd 92f6 71bd
000001d0: e5e8 ac3e 2fa8 85bf 9730 90be 68df 07bf
000001e0: 1afa 943f 620a 3ebf f4c5 433f 7f43 6e3e
000001f0: 2229 c5bd 52ed 213f d9c9 a73e a036 ea3e
00000200: 0745 963f e6e5 c9be 2b15 9ebc ef75 b0bb
00000210: 905d cdbe b527 ce3e 21d3 d7be 0a56 d9bd
00000220: 0153 91be 7867 5f3e 9d54 b43e 7e5d f4be
00000230: 003a 3f3e eb56 323f adee 5e3f f6b4 b7be
00000240: 08e7 c3be b3f9 133f 9b19 00be 66b3 543f
00000250: 2f3d 27bf a36d 563e b282 803e 32ab cb3e
00000260: 068c f1be 6ff3 fa3d 5a8e 08be 1190 46be
00000270: 1c0c 0b3e 32b6 1a3c 5770 b83e 1ab5 96be
00000280: 0efe 5c3f b565 1e3f 63ea a9be 091e c8bd
00000290: f48f f8bc 14e9 0c3f 35f9 7bbf 2a15 2ebd
000002a0: d2c0 a4be b066 78be 27ec 8e3f 76e3 09bf
000002b0: 4391 a53e 39b6 6b3e cb5a b63e 2057 a73e
000002c0: 15da ec3d d283 d0be bdd4 16be 0b8b e6be
000002d0: b881 1dbf 4fb4 a43e eefc 153f 55f6 f53d
000002e0: a7c6 cdbd 94fe 0bbe 5c53 0c3f 4122 3bbe
000002f0: cade 0ebe bee4 413e 8640 423e 1fb9 8f3e
00000300: 023b 89bf fc94 a9be 0f61 0b3f 2e9a ebbe
00000310: 4bf9 263f 085b e13e 25df 603e f640 9c3e
00000320: e6f3 183f a320 d0be 6ee6 18bd f8bf 633f
00000330: 7522 883e 5efa 1b3e cea3 fa3d 0919 573f
00000340: a91d 023f 068c 973e ac04 34be 4c58 993e
00000350: 6a86 58be 8845 1cbe fbcf 07bf 13a5 f43e
00000360: 8960 323f 7d43 113f 610a 5dbe 5c86 8abf
00000370: d5bf 2cbf 6d9d cc3d 5c28 f73c d687 413e
00000380: 39ef 8fbf 4e95 3dbf 3ac3 373d e1fc 8ebe
00000390: 398e 933e 238b 06be 515b a3be 2d30 823f
000003a0: 6d3c 04bf 061c 663e b3de cbbd 1d32 33bf
000003b0: eacc d7be 4165 eabe 6ccf ccbe dcd2 2fbf
000003c0: d219 94be 272d dd3e 2d72 2c3f e8d9 a33c
000003d0: 3189 cebc 331c ab3c 6d32 9a3e 1a94 d63e
000003e0: 3f1e 323f d742 a53f 562c 5e3e 475c a63e
000003f0: 4a56 6fb9 e2fe 0a3f 46b3 01bf 50b3 c43e
0.4809333 0.49490866 -0.09082413 -0.5520802 0.051422346 -0.45153746 -0.26843572 0.5736906
-0.6472701 -0.34676024 -0.3763648 1.129334 -0.37484318 0.1566417 -0.38901874 -0.19566272
-0.8670132 0.46144536 -0.5241939 -0.637732 -0.3018529 -0.36603618 -0.06499338 0.38241133
0.3852717 0.081492834 -0.26951942 0.6574915 -0.507724 0.22171153 0.46293116 0.07140894
-0.59102213 0.11606146 0.358035 0.35460788 0.34655038 -0.12691571 -0.0022352785 0.2892927
-0.86950874 0.04469044 -0.22300749 -0.17537078 0.24542868 -0.046589695 0.6773953 0.1658427
-0.24304408 0.04529986 -1.1686943 -0.30687952 0.31173408 -0.10008843 0.3097908 -0.88989615
0.49826142 0.20425962 0.4084346 0.19332984 -0.24098516 0.3655351 -0.037864156 -0.6081558
0.09228868 0.45635822 0.798959 -1.1688625 -0.452899 0.28903478 -0.65612143 0.1711836
-0.09698613 -0.9141526 -0.24579106 -0.21219662 -0.105783366 -0.42123088 0.1435758 0.096578404
0.8634099 0.42141852 -0.070168264 -0.07735754 0.0037458346 0.31403396 -0.23725106 0.23839357
0.049387205 0.25851214 0.5534085 0.29218164 -0.032295343 -0.41106212 -0.06960407 0.34769046
-0.15334967 -0.2307747 -0.07334987 0.32017943 0.19412136 -0.66511744 0.01223916 0.33344245
-0.09857165 -0.17063136 0.2308374 -0.43526497 0.4316117 0.18194881 0.2994483 0.24051598
0.10506128 0.6971652 -0.060996372 -0.05907304 0.33771434 -1.044195 -0.2816207 -0.53075266
1.1638825 -0.7423459 0.7647393 0.23267935 -0.09626986 0.6325275 0.32771185 0.457448
1.1739815 -0.3943321 -0.019297203 -0.0053851525 -0.40110445 0.4026467 -0.42153266 -0.10612114
-0.2838364 0.21816814 0.35220805 -0.4772758 0.18674469 0.69663876 0.8708294 -0.3588025
-0.382622 0.57802886 -0.12509768 0.8308624 -0.65327734 0.2094026 0.25099713 0.3977905
-0.47177142 0.122534625 -0.13335553 -0.19390894 0.13578838 0.009442853 0.36023208 -0.29435045
0.86325157 0.6187394 -0.33186635 -0.09771354 -0.03034208 0.5504315 -0.98427135 -0.042500652
-0.3217836 -0.24257922 1.1165818 -0.538627 0.32337388 0.23018731 0.35616145 0.3268366
0.11565033 -0.4072557 -0.1472959 -0.45027956 -0.6152606 0.32168815 0.58589065 0.12009875
-0.100476556 -0.13671333 0.54814696 -0.18274786 -0.13952175 0.18934914 0.18969926 0.28070924
-1.0721133 -0.3312148 0.54444975 -0.46016067 0.6522414 0.44014764 0.21960123 0.3051831
0.5974716 -0.406499 -0.03732913 0.88964796 0.2658879 0.15232226 0.122382745 0.84022576
0.5082651 0.29599017 -0.17579907 0.29950178 -0.21145025 -0.15260899 -0.5305173 0.47782192
0.6967855 0.56743604 -0.2158599 -1.0822253 -0.6748021 0.09990964 0.030170612 0.18899474
-1.124488 -0.74055946 0.044863917 -0.27927306 0.28819445 -0.13139014 -0.31905606 1.0170952
-0.516547 0.22471628 -0.09954586 -0.6999834 -0.42148525 -0.45780376 -0.40002 -0.6868112
-0.2892595 0.4319851 0.6736172 0.020001367 -0.025211902 0.02088747 0.30116597 0.41909868
0.695774 1.2911023 0.216966 0.32492277 -0.00022824961 0.5429517 -0.50664175 0.38418055

network_body._body_endoder.seq_layers.0.bias f4 [128]
00000000: 9984 ac3b 739f d0bb 4796 b83b e262 a73b
00000010: 5900 c03a 9f6f c9bb b697 e6bb 9215 513a
00000020: bb39 b83b 3712 cebb c511 673b 2d03 fd3b
00000030: 2a21 373b 5eaa 013b 266a 7b3a 0c31 f3bb
00000040: b5f8 e23a 749b 2fbb a4bb ca3b 75b3 853b
00000050: 6c65 213a ceda 88bb 5091 fb3b 5e66 2d3b
00000060: cf42 fdbb 4b2a fabb 894b e43b b965 1d3b
00000070: 2dda d93b 572e a7bb 8b80 013c 3e7d a039
00000080: e186 ad39 50bf 25bb ed11 4aba 2b8c f23a
00000090: 97b8 cd3b 7167 503a e433 eb3b aa9b 9ebb
000000a0: f500 b13a 3bc5 073b 8097 413b 28df 26bb
000000b0: 2058 443b 13bb f7bb 89ad 263b 5d48 dcbb
000000c0: 4b5d d939 96c9 62ba 51f7 14bb 8d06 d0bb
000000d0: f036 f63b 3b8d 93bb 6601 353a 0003 d53b
000000e0: 6d0d c4ba 9779 e5bb 8a83 113c 184e b23b
000000f0: 8020 493b 4b8d 35b7 6a57 aa3b 6c14 35bb
00000100: 1d1a e23b 1f23 f9bb 9017 f3bb 87af d2bb
00000110: 90b9 833b d9ca 81bb 04a7 2b3a 94fc 193b
00000120: 93c3 44bb d89f 8bbb 7fc6 0a3a b4cf d939
00000130: 95a0 c53a 4985 823b cc43 98bb 675c f9ba
00000140: 85ea adbb 4986 14bc 6bc9 bf3b 9cf1 dd3b
00000150: 02d6 99ba f897 91bb dfbd ccba d854 9b3b
00000160: 642e 3c3b 9bd6 143b 6807 d0bb 9fd9 fcb9
00000170: be08 be3b 2b53 aebb d2fc 9c3b d9ca 04bc
00000180: fec4 7fbb bac9 8abb 83ff d0b9 5696 c93a
00000190: d9e9 163b 7ecc 043b 6947 1c3b d737 c9bb
000001a0: c566 723b 419a c73b fe83 9bbb 220b 86bb
000001b0: 00e4 d2bb 734f 97bb aa25 a63b b8e5 bf3b
000001c0: afd7 c6bb aec4 eb38 f7f5 2bbb 806e 943a
000001d0: f388 f8ba 2153 cb3b 7ed1 de3b cb9a a1bb
000001e0: 2222 3e3b a8c0 553b a2f5 d93b 91df c9bb
000001f0: 44d6 16bb d9e1 df3b 06d9 84bb 792a 81b9
0.0052648303 -0.006366664 0.005633149 0.0051082233 0.0014648541 -0.0061473395 -0.0070371283 0.00079759315
0.0056221164 -0.0062887925 0.0035258394 0.007721326 0.0027943351 0.0019785385 0.00095907075 -0.0074216183
0.0017316552 -0.0026795538 0.0061869193 0.004080231 0.00061567756 -0.004176474 0.0076772347 0.002645872
-0.0077289115 -0.0076344362 0.0069670123 0.002401693 0.006648323 -0.0051019597 0.007904182 0.0003061089
0.00033097624 -0.0025291033 -0.00077083596 0.0018504908 0.0062781083 0.0007949984 0.0071778167 -0.004840334
0.0013504314 0.0020716924 0.0029539764 -0.0025462601 0.0029959753 -0.007560143 0.0025433025 -0.0067224936
0.00041458974 -0.00086512545 -0.002273042 -0.006348437 0.0075138733 -0.00450292 0.00069048104 0.006500602
-0.0014957614 -0.00700302 0.008881459 0.0054414384 0.0030689538 -1.0821338e-05 0.005198409 -0.002763058
0.0069000856 -0.0076030637 -0.0074185804 -0.006429616 0.0040199235 -0.003960949 0.00065480196 0.0023496496
-0.0030023798 -0.004260998 0.00052938604 0.00041544216 0.0015077764 0.003983174 -0.004646754 -0.001902473
-0.005307498 -0.009065219 0.0058528683 0.006773187 -0.0011736753 -0.004443165 -0.0015620551 0.004740339
0.0028714174 0.0022710923 -0.006348539 -0.00048227326 0.005799382 -0.005319973 0.0047908807 -0.008105003
-0.0039027329 -0.0042354735 -0.00039863223 0.0015379887 0.0023027568 0.0020263488 0.0023846275 -0.00614069
0.0036987525 0.0060913865 -0.0047459593 -0.0040906826 -0.006435871 -0.0046176254 0.005070408 0.005856242
-0.006068192 0.00011242308 -0.0026239136 0.0011324435 -0.0018961712 0.006204978 0.0067998758 -0.004931783
0.0029012044 0.0032616053 0.006651596 -0.0061606844 -0.0023015896 0.006832343 -0.0040541915 -0.00024636442

network_body._body_endoder.seq_layers.2.weight f4 [128, 128]
00000000: 1da2 373d 8f10 fbbd da1d 09be b6cb 4b3e
00000010: d03f febd 803c d6bd d01c b4bd a639 ccbc
00000020: e8e0 173e 758b 3abe 0829 28be 9843 ecba
00000030: edd8 5a3c d584 15bc 3d9c 26be dc52 31bd
00000040: 2223 24bd 593e 1bbe 7d1e 33be aab8 51be
00000050: b147 1c3e fe75 b23c 73d3 32bd 7cdd ccbd
00000060: 7c88 51b9 181c 823d 2b99 25bd 573c afbd
00000070: 42f1 cb3d 38a7 ebbd dcc0 7cbc bf8e 303c
00000080: 2d48 e2bb 03de 7f3c 7997 dd3d 2236 113d
00000090: fbc5 07be b76f e1bd fd20 4a3c 428c aebd
000000a0: e8d0 f93d 3bf3 d03d 4b38 b7bc f09b 42be
000000b0: ff6c 65bd d138 2e3c 2af4 8f3d 135a 07be
000000c0: b992 603d 95c9 793d d247 553c 3016 863d
000000d0: e28a 6dbc e784 233d 232f 6a3c d186 d23c
000000e0: 1f12 8b3d 8cb7 06bc 6dbc 123d 4dd6 68bc
000000f0: 32a8 e2bc 2909 973d 7849 52bd d482 d5bd
00000100: 2976 133e 15ad 813d 18b8 fb3d 17ba 2cbe
00000110: 41b7 41bd 5cb6 5f3d eee4 65bc f0b8 3c3d
00000120: 8740 143d 8400 8c3b 05bf 3dbd 2daf 7b3d
00000130: 0a42 08bd 17ca e73d 290c ad3c d801 fdbb
00000140: 805d ebbd 3f6c 653d ce9e 253e 0441 d33c
00000150: b5e1 8f3d 6fd8 fb3d 3879 753c 2e9b c13d
00000160: f4c1 083c fc30 b8bc 8446 32bd 413c 11bd
00000170: ca0a 87be bf42 15bd ff8e 5c3d d701 e33c
00000180: 6afe 7e3c e029 be3c ddf2 073d caeb 2fbd
00000190: 9bda 81bd d62d 17bd 0791 b43d 8729 1bbd
000001a0: 380f c03d 17a6 cfbd ce9f fb3d 0c9c c33d
000001b0: 937a 3cbb 808c e93d e7f7 073e df1b 603c
000001c0: 836c 8e3c 829d a33c f45a 48bd 62e7 603d
000001d0: 5e7b fdbd 0a85 f3bb 80d1 453d e7bc f1ba
000001e0: 00e7 b3bd b53e 67bd 163c c13d aea9 7a3d
000001f0: 8a00 61bd 5127 cabc 67a6 303e 5ae9 38be
00000200: de2d 663d 53d0 8d3d 6514 ad3d fb00 cabd
00000210: 26ad ce3c 0ff5 06bc 6dab e93c 35bd 95bd
00000220: d2e7 a13d 7d60 33bd 2b35 7e3c 258d 143d
00000230: 7dab c03d 2955 c5bc abb7 57bc 7972 a4bc
00000240: 9689 553e 0294 423d d0c1 89bd a4ce 883e
00000250: 59c9 ffbb f36d 3dbd 199e b43c 21af e0bd
00000260: b759 9bbc a7f7 b83d 420f 2c3d 6100 7e3d
00000270: 2efc f2bd cf8c d63d ab77 b2bd ccd6 8f3d
00000280: 569e 87bd 05cb 803d 1c6c 243e be44 2abe
00000290: 698c 1c3d a237 5d3d cad8 c3bd e5cd 3a3c
000002a0: 05a4 91bd a6db fabc b8b0 16bd 18d3 51bd
000002b0: 6627 8f3b 0beb 49be 4afd 37bc 49a9 23bd
000002c0: 1190 953d d802 293c f7f3 e63b fec3 92bc
000002d0: 65a5 08be e1b6 96bd f3df 52bd 750c 9139
000002e0: ca32 b03c aba3 08bd a492 16bd 1e00 d83c
000002f0: b428 c13c 1d21 48bd 8ba7 163e e09f 923d
00000300: 2c7e 44bc 4865 1ebd 112a 3f3d 5a34 b6bc
00000310: 84bb 513c 3523 d6bd f91e c8bd a8dc edbb
00000320: febe 0d3e 7403 583c 1dd5 1bbd ea96 a23d
00000330: 9307 343d 60b5 823d 61f0 703d 89ad 843c
00000340: e14f b8bd 4c5c 8f3d 4a3d 17bb eef5 323e
00000350: df0a d63d d3d0 47bc c93a d0bb e3af a2bd
00000360: d7a6 2e3e 9caf 8f3d 93fa b3bd 7df1 24bd
00000370: 4c8f aaba 3947 a8bd 405c d2bd ed40 33bd
00000380: 42f1 50bd ec96 a73d 211d ac3d 36df 8d3d
00000390: 4d0f 05bc 5c5a 953c 7c0c fbbd bb33 8cbd
000003a0: dc16 0c3d 9faa fc3d 82ce 8dbd 766b bfbd
000003b0: 92b3 373e e9f0 aebd 3052 1c3d a7b4 013d
000003c0: bc49 3e3e 7bb7 a5bd d43f 433e 8d97 4e3d
000003d0: 72f5 073e 0a88 6bb8 eedc ee3d 23b7 a73c
000003e0: c129 a4bd 4b20 cdbb b735 8cbd d9af 0d3e
000003f0: 8fa8 9cbc 9a13 dc3d afb6 0e3d a99a 353e
0.044832338 -0.12259018 -0.13390294 0.19901928 -0.12414515 -0.10460758 -0.08794558 -0.024929833
0.14831889 -0.18217261 -0.16421902 -0.0018025516 0.013357383 -0.009125908 -0.16270538 -0.04329191
-0.040072568 -0.15160502 -0.17492099 -0.204806 0.15261723 0.021784779 -0.043658685 -0.10003182
-0.00019982638 0.06353015 -0.040429275 -0.08556431 0.09958126 -0.11506504 -0.015426841 0.010776221
-0.0069055767 0.015616897 0.10819907 0.035452016 -0.13259117 -0.11007636 0.012336967 -0.08522846
0.12198049 0.102026425 -0.02236571 -0.19004798 -0.05601215 0.010633663 0.070289925 -0.13217954
0.054827426 0.06098326 0.013017612 0.06547201 -0.014498444 0.039921667 0.014293465 0.025699051
0.06790566 -0.008222472 0.035824228 -0.01421125 -0.027668092 0.07374794 -0.051339597 -0.10425344
0.14400543 0.06331841 0.122909725 -0.16867863 -0.047293905 0.05461727 -0.014031632 0.046074808
0.03619435 0.0042725224 -0.04632475 0.061446358 -0.033266105 0.113178425 0.021123962 -0.007721167
-0.11492443 0.056011435 0.1617386 0.025787838 0.07025472 0.12297141 0.014982514 0.09453426
0.008347023 -0.022484295 -0.04352428 -0.035457853 -0.2637542 -0.036440607 0.05384731 0.027710838
0.015563587 0.023213327 0.033190597 -0.042949475 -0.06340524 -0.036908947 0.08816724 -0.0378814
0.09377903 -0.10139101 0.1228634 0.09551248 -0.0028759583 0.114037514 0.13278161 0.01367852
0.017385727 0.019972567 -0.048914865 0.054908164 -0.12377046 -0.007431631 0.048295498 -0.0018443138
-0.08784294 -0.056456286 0.094352886 0.061196975 -0.054932155 -0.02467695 0.17250977 -0.18057767
0.056196086 0.069245 0.084511556 -0.09863468 0.025229048 -0.008237137 0.028524125 -0.07311479
0.07905544 -0.04379319 0.015515606 0.03626742 0.09407709 -0.02408846 -0.013166348 -0.020074116
0.20853266 0.047504432 -0.0672642 0.26720154 -0.007805985 -0.046247434 0.022048043 -0.10970903
-0.018963678 0.09031611 0.04200674 0.06201208 -0.11864506 0.10476076 -0.08714231 0.07023391
-0.06621997 0.06288723 0.16056865 -0.16627786 0.038219843 0.054008134 -0.095628336 0.011401628
-0.07111362 -0.030622315 -0.036789626 -0.051226705 0.0043687103 -0.19718568 -0.011229822 -0.039956365
0.07302869 0.010315619 0.007048126 -0.017915722 -0.13344343 -0.073591 -0.051483106 0.00027665836
0.021508593 -0.03335921 -0.03676094 0.026367243 0.02357898 -0.048859704 0.1471235 0.071594
-0.011992972 -0.038670808 0.046670977 -0.02224176 0.012801055 -0.10455934 -0.097715326 -0.0072589703
0.13842389 0.013184417 -0.038045038 0.07938941 0.043952536 0.06382251 0.058822993 0.01619603
-0.08999611 0.07000026 -0.0023077303 0.17476627 0.10451292 -0.012195784 -0.006354664 -0.07943704
0.17055832 0.07015917 -0.087880276 -0.040269364 -0.0013012676 -0.0821671 -0.102715015 -0.04376309
-0.05101133 0.08183083 0.084039934 0.0692734 -0.008121324 0.018231563 -0.122582406 -0.06845804
0.034201488 0.12337231 -0.06924154 -0.093466684 0.17939594 -0.08542044 0.038164318 0.031666424
0.18582815 -0.08091637 0.19067317 0.0504375 0.13277224 -5.6155062e-05 0.11663233 0.020473069
-0.080157764 -0.006259953 -0.06846183 0.13836612 -0.019123344 0.10745926 0.03484219 0.1773478

network_body._body_endoder.seq_layers.2.bias f4 [128]
00000000: 4008 a1b9 963a 133a c3f5 f1ba 9e34 b43a
00000010: f628 b6ba c601 c9bb e9a9 98bb bb40 a03b
00000020: df3c edbb c5c0 0dbc 4570 19bc d7bb d5ba
00000030: 8d06 6cbb c569 fa3b 018e bfbb 3228 a8bb
00000040: e7e9 ac3a e232 04bc 995b f9bb 01b0 d23b
00000050: a0a2 f7bb e93e bc3b 516e 86b9 5bad 19bc
00000060: c551 d53a c12a b4ba 2f56 d0bb 4c98 94bb
00000070: 8d89 bdbb 5eb8 cfbb f87b c6bb ae07 ca3b
00000080: a0ec dbbb ddb7 063c 9bb7 a0bb 6654 01bb
00000090: 9c6b d4bb c077 faba 626d 543b 48c9 4bbb
000000a0: 4714 ceba dc42 febb d236 86bb 112d aabb
000000b0: 0180 ef3b 02ff 33bb ffdf d33b 9f57 953a
000000c0: 739b e03b 95c0 a7b9 7489 ebbb 0c40 a0bb
000000d0: b5da dbbb 0049 2e3b a657 f1bb 3f6a dbbb
000000e0: c109 75bb cea0 933b cde4 013c ea60 4d3b
000000f0: da4d 4039 0ee8 5a3b 0974 f3bb 13ed 17bb
00000100: 2969 e2bb 10c9 86bb 3ae7 e2bb af61 f5bb
00000110: 61a0 e23b a9e6 d2bb 967d f63b 1fec 11ba
00000120: 81cc f2bb 21ca d63b 38fb fabb d592 c3bb
00000130: cc10 8c3b 4e6c 843b 73d1 9ebb c452 4b3a
00000140: 3e65 87bb 20df f23b 222b 85bb 2527 16bc
00000150: e22b d73b cc20 be3a b97f b13b 6c30 03bb
00000160: 8e37 de3b fb06 9f3b 2904 89bb 7c0a ed3b
00000170: 16dc ac3b d480 e03a fd52 5cba 44e2 c6bb
00000180: 55e0 18ba 5f58 8e3b 9136 843b 11c3 533b
00000190: 3004 afba 9610 153b 7482 85bb 1ce1 dc3b
000001a0: 2359 fe3b bb64 8539 334b f3bb 9b8d 043b
000001b0: 5fd8 debb fbcf 70bb 911c e23b 9ef4 23bb
000001c0: 1c07 023c 0519 bd3b 1581 ab3b 5404 bdbb
000001d0: 71d0 e83b 5360 e6bb 723e 22bb 17ee ec3b
000001e0: 4898 a13a 2c6e b2bb 1082 2bbb bb91 8e3a
000001f0: acf4 ccbb 74a2 d63b bf99 c13a cbdf e73b
-0.0003071446 0.0005616335 -0.0018460084 0.0013748591 -0.0013897705 -0.0061342446 -0.0046589267 0.004890529
-0.0072399224 -0.008651917 -0.009365146 -0.0016306591 -0.0036014647 0.0076420032 -0.0058457856 -0.005131745
0.0013192267 -0.008068772 -0.0076097962 0.0064296727 -0.007557228 0.005744804 -0.00025640664 -0.00937971
0.001627498 -0.0013745652 -0.00635793 -0.0045347568 -0.0057842196 -0.006339117 -0.0060572587 0.0061654663
-0.0067115575 0.008222547 -0.0049047 -0.0019734143 -0.0064825546 -0.0019109175 0.003241383 -0.0031095315
-0.0015722596 -0.007759435 -0.0040958906 -0.0051933606 0.0073089604 -0.002746523 0.0064659114 0.0011393911
0.0068544685 -0.00031996207 -0.0071880165 -0.0048904475 -0.0067094215 0.0026593804 -0.007365185 -0.006696015
-0.0037389847 0.0045052534 0.0079280855 0.0031338283 0.00018339549 0.0033402476 -0.007429604 -0.0023182079
-0.0069095087 -0.004113324 -0.006924537 -0.0074884514 0.0069160913 -0.0064361882 0.007522295 -0.0005566496
-0.0074096327 0.0065548574 -0.007659342 -0.0059684315 0.0042744633 0.0040412312 -0.0048467456 0.00077561685
-0.004131942 0.0074118525 -0.0040639797 -0.009164606 0.0065665105 0.0014505624 0.005416837 -0.0020017875
0.006781525 0.004853127 -0.004181404 0.007233916 0.0052752597 0.0017128238 -0.00084047 -0.0060694534
-0.0005831768 0.0043440307 0.004034825 0.0032312314 -0.0013352688 0.0022745482 -0.004074389 0.0067407023
0.007762091 0.00025442787 -0.007424736 0.0020226005 -0.006800696 -0.003674506 0.006900378 -0.002501763
0.007936265 0.005770805 0.0052338936 -0.005768338 0.0071049263 -0.0070305257 -0.0024756459 0.007230531
0.0012328709 -0.0054452624 -0.0026170053 0.0010877171 -0.006254753 0.0065501276 0.0014770551 0.0070762387

action_model._discrete_distribution.branches.0.weight f4 [3, 128]
00000000: 92ae 38bc 1e67 86bb 1e09 843b 0f44 c83b
00000010: 1bf6 f1ba 4870 bfbb f530 603c 6440 c1bb
00000020: 3fd0 8d3c 9f91 91bb 254f b2bb 076f e23b
00000030: 1f60 4bbc 79ed 7c3c 6547 49bb 1181 013c
00000040: f889 49ba da87 193c eb26 f0ba e7f1 9e3a
00000050: 4bd2 9eba fed0 d53b bdf0 e93a 624c b3bb
00000060: 7710 013c 5595 edba 1213 dcbb 0a61 5a3c
00000070: 46da a33c e571 2f3c 2fdb 033c 2248 973b
00000080: 81dd 953c fc20 e0bb 2d42 72bb 61ff 04bc
00000090: 3da3 99bb 9f29 74bc 02d4 7ebb 2495 0ebb
000000a0: 8ca6 393c 303c 6fbb a09d 213c e7ed 313c
000000b0: ca88 fdbb fc29 87bc 098d e03a 02ab d73b
000000c0: 5564 923b dd53 ccbb 085b c0bb d99a 843c
000000d0: c33a 8e38 ccf1 93bb 6503 833b e5c7 95bb
000000e0: d169 3cbb da11 4fbc 68df 0f3c 91ad 133b
000000f0: 9120 5dbc 437f 01bc a1af 973b 83bf 6ebc
00000100: 3e99 f6ba 8930 4a3b e2e8 1abc f4e9 86ba
00000110: c8bc fbbb f60f cfbb 379c f039 d062 dbbc
00000120: 0b73 7839 bc8b 3dbc 5488 923a fa4c 323b
00000130: c27d 5abb aa1f 603c 1496 363c 283d 44bb
00000140: b338 43bb 74f2 8038 7378 5339 e2bc c8bb
00000150: f8a8 d33b a138 99bc 7522 993c f671 643b
00000160: ea6e b0bb 5292 ebbb f7a5 663c 1c0a 513c
00000170: 7b47 933c 5bc3 24bc 5015 80bc 0cf5 8c38
00000180: 369b 8cba e3c6 433b 88a4 01bc 21bc 353c
00000190: fc8e 3bbc 47c3 363b 2036 ac3a d14c 31b8
000001a0: a729 2bbb 5b6c a0bb 76bb 293b fdcb 5ebc
000001b0: 07da 7abb 2fab 093b 97be db3b 4da9 28bc
000001c0: 2e4f 8f3b f72b 42bb 3a7f 9dbb c0d3 ef3b
000001d0: 1939 9aba 7edf 07bc 8058 74bb fae8 cd3b
000001e0: e849 093c c74b c2ba e397 80bc fc7e 03bc
000001f0: 6ca8 d6ba 2fcc 4f3c e7b8 8a3a 9ad7 0c3b
00000200: 2729 71bb f79f 6c3b 2b42 f9bb d813 2d3c
00000210: 76c6 8fba 78e3 493c 82c2 6e3c 18fa a1bb
00000220: 9011 cd3c 92a5 e4ba 28c3 553a c001 13bc
00000230: c1e7 643c c9db 5d38 8b33 313c 39e6 683c
00000240: 7561 7c3b b26a b43c 96b1 3c3c db83 1fbc
00000250: daf6 3b3c c075 d1bc 0183 b73b 14f4 ecba
00000260: be00 33bc 623b 273c ad0a 873c a191 a53b
00000270: b610 a03c a698 113c 437c 023c 3593 38bb
00000280: 90d8 bd3c 0745 80bc 3b03 98bb 575b 4bba
00000290: 7467 deba db9f 5fbb a152 feb9 ac1e d1bb
000002a0: 4603 cd3a 05a0 733b f7f5 a73c 8dd5 e63b
000002b0: 0d20 94bc 6446 6f3b 1ddf e2bb 12bf a7bb
000002c0: 471e 833a b709 223c 4b66 103c 1e89 b83b
000002d0: e92b c33b 6bf0 41bc f413 673c 4899 ac3b
000002e0: 59c3 4e3c 34d2 9abb 1fb4 bfbc 61af 88bc
000002f0: 9e77 443b 8ef4 abb9 22f6 473c 2f3f 523c
00000300: 5d87 5aba d093 833c bc47 0d3c d2a0 113c
00000310: b140 2ebc 88b7 d83c b0d7 80bc 28cd 09bc
00000320: fea4 843c 6b2b 72bc ceba d03b 25d3 493c
00000330: 51b9 8bbc 8793 bbb9 8452 8a3a bba9 75bc
00000340: 2974 03bc 9b7a c3bb 1b14 dcbb f6cd ea3a
00000350: 3010 f0bb f3de d6bb 52a5 a5bb 96b3 b4bb
00000360: 643c 37bc c8c8 b2bb c482 783b 6cb4 60bb
00000370: c892 593a 3837 d2bb 99c0 3abb f567 17bb
00000380: 10a5 c4b9 776b 353b 599a e7bb af7c 18bb
00000390: 20f3 203c 7228 6f3a 584c 583c 1347 37bc
000003a0: 08e5 98bc af37 e83b 5e43 353c 3b5c fcbb
000003b0: 0e98 833a 78b6 6c39 8ca5 cebb 491e 0fbc
000003c0: 5429 59bb 9b9c 41bb e9eb 88bc 6cd8 b43b
000003d0: 3683 76bc dc1b 25bb 3f35 eabb 0b0a 00bc
000003e0: 3e86 053c 07b8 923b c024 8e3b c770 06bb
000003f0: 7aa1 3b3c 259b 36bc e072 5dbc 95df 6fbc
-0.01127209 -0.004101648 0.004029407 0.006111629 -0.0018460186 -0.0058422424 0.013683547 -0.0058975685
0.017311214 -0.004442408 -0.0054415637 0.006910208 -0.012413054 0.015437477 -0.003071272 0.007904307
-0.00076881004 0.009370768 -0.0018322145 0.0012126536 -0.0012117116 0.006525158 0.0017848235 -0.005471752
0.007877461 -0.001812617 -0.0067161405 0.0133288 0.020001542 0.010708307 0.008047863 0.004616753
0.018294098 -0.0068398695 -0.0036965713 -0.008117528 -0.004688649 -0.014902501 -0.003888369 -0.0021756375
0.011331212 -0.003650438 0.009864241 0.010859943 -0.007737254 -0.016499512 0.0017131876 0.006581665
0.004467527 -0.006235583 -0.005870227 0.016187118 6.782033e-05 -0.0045149084 0.0039982074 -0.0045709484
-0.0028749595 -0.0126385335 0.008781292 0.0022533874 -0.013496534 -0.007903877 0.004629091 -0.014572027
-0.001881398 0.0030851683 -0.009454938 -0.0010293112 -0.0076824166 -0.0063190414 0.00045892756 -0.026780516
0.0002369398 -0.01156896 0.0011179545 0.0027206526 -0.0033339118 0.013679424 0.01114418 -0.0029943679
-0.0029788434 6.148676e-05 0.00020167399 -0.006126032 0.0064593516 -0.01870376 0.018693188 0.0034857965
-0.0053843157 -0.0071890736 0.014077655 0.012758758 0.01797842 -0.010056342 -0.015635163 6.721364e-05
-0.0010727409 0.0029873184 -0.007912762 0.011092217 -0.011447664 0.002788739 0.0013138689 -4.227163e-05
-0.0026117356 -0.0048957295 0.002589909 -0.013598439 -0.0038276927 0.0021006574 0.0067060697 -0.010294271
0.0043734526 -0.0029628256 -0.0048064264 0.0073189437 -0.0011766284 -0.008293031 -0.0037284195 0.0062838765
0.008379437 -0.0014823609 -0.015697425 -0.008025881 -0.0016377098 0.0126829585 0.001058367 0.0021490813
-0.003679821 0.0036106089 -0.007606765 0.010563813 -0.001096918 0.012322299 0.014572741 -0.0049431436
0.025032789 -0.0017444363 0.0008154386 -0.008972585 0.01397127 5.2895197e-05 0.010815511 0.014215046
0.0038510237 0.022023533 0.011516949 -0.009736027 0.011472428 -0.025568843 0.0056003337 -0.0018078112
-0.01092547 0.010207029 0.016484583 0.0050527607 0.019539218 0.008886492 0.007964197 -0.0028163914
0.023174554 -0.015657915 -0.004639057 -0.0007757446 -0.0016968087 -0.003412238 -0.0004850822 -0.00638183
0.0015641234 0.0037174236 0.020503027 0.0070445 -0.01808169 0.0036510462 -0.00692357 -0.005119213
0.001000353 0.0098900115 0.008813451 0.00563158 0.0059561622 -0.011837105 0.014103878 0.005267296
0.012619817 -0.004724765 -0.023401318 -0.01668519 0.0029978524 -0.0003279787 0.012204679 0.012832447
-0.0008336211 0.016061693 0.00862306 0.00888844 -0.010635541 0.026454702 -0.015727848 -0.0084107295
0.016191956 -0.014780859 0.006369925 0.012318407 -0.01705614 -0.00035777336 0.0010553156 -0.01499408
-0.0080233 -0.0059655434 -0.006716264 0.0017914164 -0.0073261485 -0.0065573393 -0.005055108 -0.0055145724
-0.011183832 -0.005456064 0.003791974 -0.0034287227 0.0008299765 -0.006415274 -0.0028496145 -0.0023102735
-0.00037507014 0.0027682462 -0.00706796 -0.0023267677 0.0098235905 0.0009123153 0.0132017955 -0.011186379
-0.018663898 0.007086716 0.011063425 -0.0077014244 0.0010039823 0.00022574689 -0.006306356 -0.008735248
-0.0033136206 -0.0029542807 -0.016714053 0.0055189636 -0.015045932 -0.0025193607 -0.0071474607 -0.007814894
0.008149682 0.004477504 0.004337877 -0.0020513998 0.011452073 -0.011145388 -0.013516158 -0.014640708

action_model._discrete_distribution.branches.0.bias f4 [3]
00000000: 4f3c f23a 91cb 10bc e442 da3b
0.0018481108 -0.0088375965 0.006660806

exp_avg f4 [128, 4]
00000000: 0000 0000 0000 0000 d23a 0e35 0000 0000
00000010: 0000 0000 0000 0000 f21c b1b5 0000 0000
00000020: 0000 0000 0000 0000 fb8a 96b4 0000 0000
00000030: 0000 0000 0000 0000 77a3 3036 0000 0000
00000040: 0000 0000 0000 0000 40bc c432 0000 0000
00000050: 0000 0000 0000 0000 8f97 17b7 0000 0000
00000060: 0000 0000 0000 0000 f15a 74b6 0000 0000
00000070: 0000 0000 0000 0000 7e85 ceb6 0000 0000
00000080: 0000 0000 0000 0000 d487 1b37 0000 0000
00000090: 0000 0000 0000 0000 1471 39b6 0000 0000
000000a0: 0000 0000 0000 0000 73d2 1c36 0000 0000
000000b0: 0000 0000 0000 0000 ae81 6f37 0000 0000
000000c0: 0000 0000 0000 0000 37a6 f734 0000 0000
000000d0: 0000 0000 0000 0000 93a9 0437 0000 0000
000000e0: 0000 0000 0000 0000 99b1 5b35 0000 0000
000000f0: 0000 0000 0000 0000 592e 49b5 0000 0000
00000100: 0000 0000 0000 0000 1202 6936 0000 0000
00000110: 0000 0000 0000 0000 95e7 a634 0000 0000
00000120: 0000 0000 0000 0000 705a d734 0000 0000
00000130: 0000 0000 0000 0000 92b3 2ab7 0000 0000
00000140: 0000 0000 0000 0000 3f8b d0b5 0000 0000
00000150: 0000 0000 0000 0000 e846 a3b6 0000 0000
00000160: 0000 0000 0000 0000 11d0 1037 0000 0000
00000170: 0000 0000 0000 0000 5461 edb6 0000 0000
00000180: 0000 0000 0000 0000 9f45 81b6 0000 0000
00000190: 0000 0000 0000 0000 1746 9d34 0000 0000
000001a0: 0000 0000 0000 0000 9c4c a237 0000 0000
000001b0: 0000 0000 0000 0000 0e7c 4ab7 0000 0000
000001c0: 0000 0000 0000 0000 330d 0b35 0000 0000
000001d0: 0000 0000 0000 0000 0279 0eb7 0000 0000
000001e0: 0000 0000 0000 0000 5906 ac36 0000 0000
000001f0: 0000 0000 0000 0000 a033 b337 0000 0000
00000200: 0000 0000 0000 0000 25cb 9235 0000 0000
00000210: 0000 0000 0000 0000 7a9e 9ab5 0000 0000
00000220: 0000 0000 0000 0000 c112 dcb6 0000 0000
00000230: 0000 0000 0000 0000 c057 cf37 0000 0000
00000240: 0000 0000 0000 0000 39e8 c735 0000 0000
00000250: 0000 0000 0000 0000 024a 1ab7 0000 0000
00000260: 0000 0000 0000 0000 16af f6b5 0000 0000
00000270: 0000 0000 0000 0000 7eac 51b5 0000 0000
00000280: 0000 0000 0000 0000 ac4a 6234 0000 0000
00000290: 0000 0000 0000 0000 62ad b4b5 0000 0000
000002a0: 0000 0000 0000 0000 dbe1 acb7 0000 0000
000002b0: 0000 0000 0000 0000 f8f0 6e37 0000 0000
000002c0: 0000 0000 0000 0000 f086 97b5 0000 0000
000002d0: 0000 0000 0000 0000 ab3e 4e37 0000 0000
000002e0: 0000 0000 0000 0000 da11 5637 0000 0000
000002f0: 0000 0000 0000 0000 6062 5536 0000 0000
00000300: 0000 0000 0000 0000 8e2c 63b7 0000 0000
00000310: 0000 0000 0000 0000 8178 4637 0000 0000
00000320: 0000 0000 0000 0000 a48f 1ab6 0000 0000
00000330: 0000 0000 0000 0000 90e2 3c35 0000 0000
00000340: 0000 0000 0000 0000 2e95 e733 0000 0000
00000350: 0000 0000 0000 0000 c6d5 1eb5 0000 0000
00000360: 0000 0000 0000 0000 6ec8 38b6 0000 0000
00000370: 0000 0000 0000 0000 6cf7 e236 0000 0000
00000380: 0000 0000 0000 0000 1f51 f435 0000 0000
00000390: 0000 0000 0000 0000 a91d a1b5 0000 0000
000003a0: 0000 0000 0000 0000 6ce7 91b5 0000 0000
000003b0: 0000 0000 0000 0000 cc07 1ab6 0000 0000
000003c0: 0000 0000 0000 0000 f9bd ba37 0000 0000
000003d0: 0000 0000 0000 0000 c5ec c836 0000 0000
000003e0: 0000 0000 0000 0000 2247 db36 0000 0000
000003f0: 0000 0000 0000 0000 8484 b6b4 0000 0000
0.0 0.0 5.2984717e-07 0.0 0.0 0.0 -1.3195952e-06 0.0
0.0 0.0 -2.80408e-07 0.0 0.0 0.0 2.6321193e-06 0.0
0.0 0.0 2.290301e-08 0.0 0.0 0.0 -9.035589e-06 0.0
0.0 0.0 -3.6411768e-06 0.0 0.0 0.0 -6.154819e-06 0.0
0.0 0.0 9.270345e-06 0.0 0.0 0.0 -2.7632968e-06 0.0
0.0 0.0 2.336831e-06 0.0 0.0 0.0 1.42757035e-05 0.0
0.0 0.0 4.6128272e-07 0.0 0.0 0.0 7.907295e-06 0.0
0.0 0.0 8.1842296e-07 0.0 0.0 0.0 -7.494578e-07 0.0
0.0 0.0 3.472091e-06 0.0 0.0 0.0 3.1088408e-07 0.0
0.0 0.0 4.0112673e-07 0.0 0.0 0.0 -1.0174599e-05 0.0
0.0 0.0 -1.5537734e-06 0.0 0.0 0.0 -4.866033e-06 0.0
0.0 0.0 8.631513e-06 0.0 0.0 0.0 -7.074481e-06 0.0
0.0 0.0 -3.8526046e-06 0.0 0.0 0.0 2.9294526e-07 0.0
0.0 0.0 1.9347579e-05 0.0 0.0 0.0 -1.2069022e-05 0.0
0.0 0.0 5.180074e-07 0.0 0.0 0.0 -8.492034e-06 0.0
0.0 0.0 5.1267384e-06 0.0 0.0 0.0 2.1362503e-05 0.0
0.0 0.0 1.093697e-06 0.0 0.0 0.0 -1.1520017e-06 0.0
0.0 0.0 -6.558694e-06 0.0 0.0 0.0 2.4717185e-05 0.0
0.0 0.0 1.4894241e-06 0.0 0.0 0.0 -9.196347e-06 0.0
0.0 0.0 -1.8379385e-06 0.0 0.0 0.0 -7.8109576e-07 0.0
0.0 0.0 2.1075056e-07 0.0 0.0 0.0 -1.3461506e-06 0.0
0.0 0.0 -2.060917e-05 0.0 0.0 0.0 1.424201e-05 0.0
0.0 0.0 -1.1289649e-06 0.0 0.0 0.0 1.2293148e-05 0.0
0.0 0.0 1.275955e-05 0.0 0.0 0.0 3.1796735e-06 0.0
0.0 0.0 -1.3540628e-05 0.0 0.0 0.0 1.1829777e-05 0.0
0.0 0.0 -2.3031398e-06 0.0 0.0 0.0 7.036515e-07 0.0
0.0 0.0 1.07839114e-07 0.0 0.0 0.0 -5.917067e-07 0.0
0.0 0.0 -2.7534802e-06 0.0 0.0 0.0 6.7641286e-06 0.0
0.0 0.0 1.8203026e-06 0.0 0.0 0.0 -1.2004067e-06 0.0
0.0 0.0 -1.0870694e-06 0.0 0.0 0.0 -2.2952327e-06 0.0
0.0 0.0 2.226139e-05 0.0 0.0 0.0 5.988028e-06 0.0
0.0 0.0 6.5349896e-06 0.0 0.0 0.0 -3.399656e-07 0.0

exp_avg_sq f4 [128, 4]
00000000: 0000 0000 0000 0000 aee9 5530 0000 0000
00000010: 0000 0000 0000 0000 3939 152f 0000 0000
00000020: 0000 0000 0000 0000 a6f7 032e 0000 0000
00000030: 0000 0000 0000 0000 5b83 362f 0000 0000
00000040: 0000 0000 0000 0000 374d c42c 0000 0000
00000050: 0000 0000 0000 0000 b74d 6d31 0000 0000
00000060: 0000 0000 0000 0000 212a 5230 0000 0000
00000070: 0000 0000 0000 0000 6ec7 9031 0000 0000
00000080: 0000 0000 0000 0000 ceaf af32 0000 0000
00000090: 0000 0000 0000 0000 edf1 7731 0000 0000
000000a0: 0000 0000 0000 0000 5ddb 9a2f 0000 0000
000000b0: 0000 0000 0000 0000 d584 3833 0000 0000
000000c0: 0000 0000 0000 0000 f7bd 5e2e 0000 0000
000000d0: 0000 0000 0000 0000 a7a7 7432 0000 0000
000000e0: 0000 0000 0000 0000 3717 1633 0000 0000
000000f0: 0000 0000 0000 0000 73d2 2b30 0000 0000
00000100: 0000 0000 0000 0000 8844 1a33 0000 0000
00000110: 0000 0000 0000 0000 6d52 b62f 0000 0000
00000120: 0000 0000 0000 0000 3943 d42f 0000 0000
00000130: 0000 0000 0000 0000 c749 0932 0000 0000
00000140: 0000 0000 0000 0000 2507 ce30 0000 0000
00000150: 0000 0000 0000 0000 98b7 0130 0000 0000
00000160: 0000 0000 0000 0000 da99 ba32 0000 0000
00000170: 0000 0000 0000 0000 0a0c b431 0000 0000
00000180: 0000 0000 0000 0000 d32d 7331 0000 0000
00000190: 0000 0000 0000 0000 d50f 9331 0000 0000
000001a0: 0000 0000 0000 0000 df80 0033 0000 0000
000001b0: 0000 0000 0000 0000 bcde a332 0000 0000
000001c0: 0000 0000 0000 0000 e92c 3b30 0000 0000
000001d0: 0000 0000 0000 0000 c573 e730 0000 0000
000001e0: 0000 0000 0000 0000 affc 1732 0000 0000
000001f0: 0000 0000 0000 0000 5841 b332 0000 0000
00000200: 0000 0000 0000 0000 5756 922f 0000 0000
00000210: 0000 0000 0000 0000 b61c 832d 0000 0000
00000220: 0000 0000 0000 0000 418a bd31 0000 0000
00000230: 0000 0000 0000 0000 e4cf 7c32 0000 0000
00000240: 0000 0000 0000 0000 6b25 5030 0000 0000
00000250: 0000 0000 0000 0000 4317 5532 0000 0000
00000260: 0000 0000 0000 0000 1d12 c230 0000 0000
00000270: 0000 0000 0000 0000 0ffd 8031 0000 0000
00000280: 0000 0000 0000 0000 74d3 d02e 0000 0000
00000290: 0000 0000 0000 0000 00aa ff2e 0000 0000
000002a0: 0000 0000 0000 0000 6dc7 a833 0000 0000
000002b0: 0000 0000 0000 0000 5394 0932 0000 0000
000002c0: 0000 0000 0000 0000 0f11 3c30 0000 0000
000002d0: 0000 0000 0000 0000 64d4 9231 0000 0000
000002e0: 0000 0000 0000 0000 cd2a 4632 0000 0000
000002f0: 0000 0000 0000 0000 0cb4 3631 0000 0000
00000300: 0000 0000 0000 0000 af7b a033 0000 0000
00000310: 0000 0000 0000 0000 dca6 a231 0000 0000
00000320: 0000 0000 0000 0000 79da 4830 0000 0000
00000330: 0000 0000 0000 0000 39e8 8530 0000 0000
00000340: 0000 0000 0000 0000 e3e5 ae2f 0000 0000
00000350: 0000 0000 0000 0000 a7fb ae2e 0000 0000
00000360: 0000 0000 0000 0000 849c 802f 0000 0000
00000370: 0000 0000 0000 0000 2d58 c731 0000 0000
00000380: 0000 0000 0000 0000 6d3d 2730 0000 0000
00000390: 0000 0000 0000 0000 6d0f c02e 0000 0000
000003a0: 0000 0000 0000 0000 eef1 df2e 0000 0000
000003b0: 0000 0000 0000 0000 e21c ce2e 0000 0000
000003c0: 0000 0000 0000 0000 6bf3 9932 0000 0000
000003d0: 0000 0000 0000 0000 bda8 ab31 0000 0000
000003e0: 0000 0000 0000 0000 92a9 d730 0000 0000
000003f0: 0000 0000 0000 0000 c132 ad2e 0000 0000
0.0 0.0 7.782103e-10 0.0 0.0 0.0 1.35718e-10 0.0
0.0 0.0 3.0005907e-11 0.0 0.0 0.0 1.659947e-10 0.0
0.0 0.0 5.5792276e-12 0.0 0.0 0.0 3.4532215e-09 0.0
0.0 0.0 7.6457424e-10 0.0 0.0 0.0 4.213624e-09 0.0
0.0 0.0 2.0452628e-08 0.0 0.0 0.0 3.608075e-09 0.0
0.0 0.0 2.8168304e-10 0.0 0.0 0.0 4.296165e-08 0.0
0.0 0.0 5.064568e-11 0.0 0.0 0.0 1.4240789e-08 0.0
0.0 0.0 3.494571e-08 0.0 0.0 0.0 6.2508504e-10 0.0
0.0 0.0 3.5918248e-08 0.0 0.0 0.0 3.3164174e-10 0.0
0.0 0.0 3.861034e-10 0.0 0.0 0.0 7.991225e-09 0.0
0.0 0.0 1.4990503e-09 0.0 0.0 0.0 4.719083e-10 0.0
0.0 0.0 2.1723213e-08 0.0 0.0 0.0 5.240058e-09 0.0
0.0 0.0 3.5387202e-09 0.0 0.0 0.0 4.280063e-09 0.0
0.0 0.0 2.991953e-08 0.0 0.0 0.0 1.9076985e-08 0.0
0.0 0.0 6.8094025e-10 0.0 0.0 0.0 1.6840366e-09 0.0
0.0 0.0 8.84681e-09 0.0 0.0 0.0 2.0868058e-08 0.0
0.0 0.0 2.6618593e-10 0.0 0.0 0.0 1.4905726e-11 0.0
0.0 0.0 5.5163416e-09 0.0 0.0 0.0 1.4715599e-08 0.0
0.0 0.0 7.5723133e-10 0.0 0.0 0.0 1.2403521e-08 0.0
0.0 0.0 1.4120506e-09 0.0 0.0 0.0 3.7540597e-09 0.0
0.0 0.0 9.4963065e-11 0.0 0.0 0.0 1.16262555e-10 0.0
0.0 0.0 7.859385e-08 0.0 0.0 0.0 8.008175e-09 0.0
0.0 0.0 6.8418243e-10 0.0 0.0 0.0 4.2733053e-09 0.0
0.0 0.0 1.1534849e-08 0.0 0.0 0.0 2.658683e-09 0.0
0.0 0.0 7.4730785e-08 0.0 0.0 0.0 4.7337902e-09 0.0
0.0 0.0 7.3070044e-10 0.0 0.0 0.0 9.743025e-10 0.0
0.0 0.0 3.181376e-10 0.0 0.0 0.0 7.957306e-11 0.0
0.0 0.0 2.3394275e-10 0.0 0.0 0.0 5.8016867e-09 0.0
0.0 0.0 6.084154e-10 0.0 0.0 0.0 8.733889e-11 0.0
0.0 0.0 1.0183841e-10 0.0 0.0 0.0 9.372926e-11 0.0
0.0 0.0 1.7922238e-08 0.0 0.0 0.0 4.9959383e-09 0.0
0.0 0.0 1.5691504e-09 0.0 0.0 0.0 7.876145e-11 0.0

exp_avg f4 [128]
00000000: 1f06 f0b5 f51d 2237 43df 29b8 9b12 9236
00000010: 0129 4637 c0bf 79b6 a69c f736 9bc0 89b8
00000020: 5268 47b8 7bf7 6f38 b7c2 c037 4bb7 ecb7
00000030: bbe8 42b7 8a3f ba37 7cb5 76b8 22fc b237
00000040: 0821 80b8 8e84 8a38 73ca bcb7 c1ec 38b8
00000050: 76f6 3838 42bd 97b5 9ce4 3fb8 d233 92b8
00000060: 2bd9 f537 10e8 f837 91b3 e2b6 6433 c5b8
00000070: 239d 40b5 2e48 eab7 6154 ccb7 fedb 7538
00000080: 2f42 aeb4 9f94 5236 ef65 03b8 3452 f335
00000090: 38cb 8cb6 35c3 6ab8 ad26 8db8 f2a7 60b7
000000a0: 2481 4a38 0ba1 3a36 b2b9 0cb9 68a5 b937
000000b0: c7bb 32b8 9a63 3b37 0bec f1b7 5345 8538
000000c0: 7630 cfb8 0cf4 9eb7 04de 0cb8 877f be37
000000d0: 5f78 bfb7 9927 d937 16a6 3fb7 7cb2 a1b6
000000e0: a16f 34b7 2aa0 d236 ed06 8834 fc13 7db8
000000f0: cf85 2c38 89c9 abb7 c4e2 b2b7 6267 fa37
00000100: 6469 bdb7 5fe0 8237 1d54 df37 8a87 1b37
00000110: bb72 c237 75be b2b6 80f3 86b8 a08b bf38
00000120: c6bc 0737 4be2 45b6 a050 5138 525d 1436
00000130: 6423 fdb7 473d 1138 73f8 9e37 e162 ee37
00000140: ed9c 00b6 5207 dc37 ee43 15b7 1151 8db6
00000150: 8f12 0bb8 ea1f 8cb7 6604 2637 fb0d 8537
00000160: 49d5 aa36 0ad5 a137 011e 04b7 54d0 2e38
00000170: dbce b0b7 07e5 5838 d593 89b7 d86c 0a37
00000180: d2b0 e637 fccb 8c37 1b35 fd37 7f1d afb7
00000190: c9a3 ff37 aa8d 5837 7706 ee37 b971 d4b7
000001a0: 0f0d 1437 091d 8bb5 2511 0938 d46e 4938
000001b0: 3134 a833 7cd0 b3b7 8b23 1c38 d9fd 88b4
000001c0: 63d3 5eb7 2413 2db7 6f85 1238 c1a0 2138
000001d0: edbe 05b7 411f dfb7 65e5 5eb8 5f23 c0b7
000001e0: 5f95 f1b6 0d06 e837 3220 1fb8 df02 3e38
000001f0: 87eb c0b7 4fa5 dfb6 b0d1 d738 31c5 d6b7
-1.7883175e-06 9.662927e-06 -4.050067e-05 4.353305e-06 1.1811267e-05 -3.7215505e-06 7.37941e-06 -6.5685446e-05
-4.7542453e-05 5.7212525e-05 2.2978855e-05 -2.8218745e-05 -1.1617488e-05 2.2202516e-05 -5.881999e-05 2.1336662e-05
-6.109668e-05 6.605043e-05 -2.250562e-05 -4.4089513e-05 4.4098553e-05 -1.1305458e-06 -4.5750858e-05 -6.971475e-05
2.9307403e-05 2.9671966e-05 -6.756229e-06 -9.403264e-05 -7.175424e-07 -2.7928585e-05 -2.4357987e-05 5.8617436e-05
-3.245818e-07 3.1378947e-06 -3.1327767e-05 1.8128835e-06 -4.195983e-06 -5.597175e-05 -6.730608e-05 -1.3390543e-05
4.8280825e-05 2.78099e-06 -0.00013420617 2.2130742e-05 -4.261339e-05 1.1169259e-05 -2.8839355e-05 6.354847e-05
-9.879556e-05 -1.8948711e-05 -3.358537e-05 2.270915e-05 -2.2825026e-05 2.5886855e-05 -1.1423157e-05 -4.818952e-06
-1.0754827e-05 6.2771333e-06 2.5337013e-07 -6.0338512e-05 4.1132615e-05 -2.0478636e-05 -2.132485e-05 2.9850464e-05
-2.2579632e-05 1.5601689e-05 2.662284e-05 9.270278e-06 2.3180028e-05 -5.3269855e-06 -6.434973e-05 9.133597e-05
8.090579e-06 -2.9487007e-06 4.990457e-05 2.2108038e-06 -3.017643e-05 3.4627763e-05 1.8950761e-05 2.8417855e-05
-1.916483e-06 2.6229452e-05 -8.896908e-06 -4.211565e-06 -3.3157467e-05 -1.6704162e-05 9.895395e-06 1.5861346e-05
5.0912245e-06 1.92919e-05 -7.874799e-06 4.1678853e-05 -2.107716e-05 5.171171e-05 -1.6400512e-05 8.250783e-06
2.7500475e-05 1.6784288e-05 3.018468e-05 -2.087536e-05 3.0474637e-05 1.2907587e-05 2.8374821e-05 -2.5325326e-05
8.824528e-06 -1.0364757e-06 3.2679312e-05 4.802535e-05 7.832603e-08 -2.1435546e-05 3.72264e-05 -2.5516673e-07
-1.3281448e-05 -1.031606e-05 3.4933382e-05 3.8535105e-05 -7.971871e-06 -2.6598225e-05 -5.3142565e-05 -2.2904655e-05
-7.199749e-06 2.7659373e-05 -3.793854e-05 4.5302204e-05 -2.299786e-05 -6.6651623e-06 0.00010291056 -2.5602612e-05

exp_avg_sq f4 [128]
00000000: 2cee 5f2f d76e 2631 9423 0230 a80c ed30
00000010: 8f58 092f 3524 8a30 3020 d130 27f9 0631
00000020: cb9c bb31 a9a2 7231 798f be2f 06fe 3132
00000030: 813d 642f dbb1 f530 57e7 cd31 bddb ea30
00000040: df5e e331 2402 f631 24c8 2d30 3c5d bc30
00000050: 88d3 0831 c35e b231 8387 3f32 df30 1f31
00000060: e990 4a31 2563 3b31 6e45 2732 eded b831
00000070: 43a6 322f 8044 7131 70e1 1f31 3520 bc31
00000080: c5e0 3230 ff4e e82f 6454 aa30 916f d731
00000090: bbc5 332f 0f0d 5231 664b 8d31 5e06 4a30
000000a0: f123 0831 573b c530 0bf1 9b32 e05e ad30
000000b0: 66ac 5f30 1515 6c30 f74c 3231 755e d130
000000c0: 5581 6032 63fd 6531 60a8 4b30 26c2 b42f
000000d0: 0eab 632f c8a8 0f31 b712 0d30 67a2 0331
000000e0: 0ad2 f830 2396 392f a55a 562e 3316 ab30
000000f0: 4676 9b31 840c 8830 81d3 f930 7386 9930
00000100: 2856 8931 576a 4531 f076 9b31 08d4 0f31
00000110: 5118 2632 4c96 c830 cc9e d631 a8bd 4f32
00000120: f56a 5130 a811 d22f ce5a a530 944d 052e
00000130: d16d 0b31 2a19 2c31 62e9 d230 97ec 5730
00000140: 3ada f32f 2f4d 3631 7e79 3831 89af cf2f
00000150: a772 1732 d422 4a31 31c7 1831 5fb0 3b32
00000160: 1dff 362f 8e5e 9f2f 02d4 6530 88b0 b530
00000170: f962 2331 c513 0031 beba bc31 0eaa 8a30
00000180: 4ec3 6930 186c b530 a67a 8331 a78d 982f
00000190: 1795 6e30 a43e 2f30 29e8 9331 f098 a830
000001a0: 6314 1b31 aeee 3d31 a0f4 f030 b689 0831
000001b0: 79dd 2531 7d82 3631 68f3 2d31 9338 3231
000001c0: 5111 6031 87a0 1a2f 36e6 3331 5479 1b31
000001d0: b049 4b2f f425 532f dc33 b930 02b7 2931
000001e0: 4227 1430 bcef b631 e65f 0f32 bd7a b830
000001f0: 2927 3331 8fb5 8f32 94c5 1732 6451 ad30
2.0366347e-10 2.4219184e-09 4.7344284e-10 1.7247617e-09 1.249154e-10 1.0051112e-09 1.52159e-09 1.9641193e-09
5.4602416e-09 3.5308096e-09 3.4662742e-10 1.0360514e-08 2.075833e-10 1.7876646e-09 5.9925855e-09 1.7088194e-09
6.617355e-09 7.1597857e-09 6.322145e-10 1.3705299e-09 1.9910846e-09 5.191255e-09 1.1148475e-08 2.3165325e-09
2.947724e-09 2.7268439e-09 9.736466e-09 5.382154e-09 1.6248074e-10 3.5109053e-09 2.3265692e-09 5.4751816e-09
6.507544e-10 4.2256684e-10 1.2393113e-09 6.270007e-09 1.6350203e-10 3.0566445e-09 4.112212e-09 7.349622e-10
1.9811035e-09 1.4350502e-09 1.8153989e-08 1.2614372e-09 8.137192e-10 8.588626e-10 2.5946159e-09 1.5233598e-09
1.3067923e-08 3.346792e-09 7.4090245e-10 3.287976e-10 2.07063e-10 2.090518e-09 5.1322097e-10 1.9155324e-09
1.8104072e-09 1.6878991e-10 4.8738475e-11 1.2448197e-09 4.52454e-09 9.89886e-10 1.8177247e-09 1.1170428e-09
3.9970196e-09 2.872772e-09 4.5246153e-09 2.0929765e-09 9.668001e-09 1.4594632e-09 6.246273e-09 1.2092109e-08
7.618575e-10 3.8211323e-10 1.2031138e-09 3.0309602e-11 2.0289586e-09 2.5043598e-09 1.5345842e-09 7.855276e-10
4.4356502e-10 2.652836e-09 2.6844584e-09 3.7777806e-10 8.815426e-09 2.9414666e-09 2.2232138e-09 1.0924935e-08
1.6643438e-10 2.8989117e-10 8.3610996e-10 1.3219656e-09 2.3775881e-09 1.863769e-09 5.4927503e-09 1.0089154e-09
8.504245e-10 1.3200205e-09 3.8265453e-09 2.774929e-10 8.6795765e-10 6.3753647e-10 4.3046566e-09 1.2267076e-09
2.2567057e-09 2.7638793e-09 1.7531825e-09 1.9868884e-09 2.4136553e-09 2.655866e-09 2.5313174e-09 2.5934568e-09
3.2606133e-09 1.4063249e-10 2.6178788e-09 2.2624436e-09 1.8488922e-10 1.9203822e-10 1.3475261e-09 2.4696765e-09
5.3897875e-10 5.324152e-09 8.3455e-09 1.3422646e-09 2.6070188e-09 1.6729954e-08 8.834281e-09 1.2610539e-09

exp_avg f4 [128, 128]
00000000: cc2b 25b5 7d53 09b6 311a 0fb6 5027 0db6
00000010: 8081 22b6 e589 53b5 54ee 0ab6 f4b7 d236
00000020: 32e8 9f36 8794 55b4 8047 c5b5 5a75 3137
00000030: c203 e1b5 0ae3 8336 f742 b536 023d 1ab5
00000040: e78e 5537 4304 2db6 77e2 d3b5 d1aa dc35
00000050: fa8f 16b5 b93d f7b5 80e2 0937 4385 1cb5
00000060: 58e2 6bb5 d39e 01b4 c0c8 4536 6ea7 7836
00000070: 6130 aab4 6126 0cb6 1c51 4e37 8acc 8b36
00000080: 5864 2bb4 89b2 22b6 9363 9436 c019 6f37
00000090: 4cb8 61b5 f857 4636 8d91 6fb5 6356 9436
000000a0: 40b0 07b6 3141 08b6 521a a237 ec01 9736
000000b0: 6595 99b5 bb14 0b37 41f1 0437 71bb 0436
000000c0: b5fd 0137 0c37 2836 351d fbb4 01e7 9835
000000d0: 41eb 9eb5 c3bd 2fb6 5b7d d6b5 3bea 0a35
000000e0: 4e33 d234 2685 17b6 6cc8 15b5 a331 13b6
000000f0: bb0d 2e37 8803 7736 82c3 3336 d007 2ab6
00000100: 8834 3137 4a4a c136 149d fab5 913d dab4
00000110: 942f b136 0e6e 30b6 d802 2237 e1af 1337
00000120: a1db 2eb6 905a 8835 df76 13b6 6932 15b6
00000130: 105c 2a37 2000 8536 89dd 2bb6 d9e6 2ab6
00000140: ea4e 2735 83a3 ab36 5cb3 fb35 5e2b 3836
00000150: bd19 9637 f20d 9a37 cf1c 1337 90fc 2d37
00000160: 06f8 22b6 3d35 22b6 4d50 a235 54ce bab4
00000170: c366 9337 3680 21b6 6b28 1237 9eb3 ba36
00000180: dcf9 6bb5 7d6d 2eb6 6273 b9b5 563c 1fb6
00000190: a182 93b5 5080 19b6 d05f bb36 97af b636
000001a0: 6baf ca34 1e13 6735 bce0 e236 2b17 8bb5
000001b0: 8a93 7736 e469 ce36 e4fc 0eb6 0b4e 3036
000001c0: c833 11b6 3c5f ceb5 6d05 27b6 0982 6536
000001d0: da41 c9b5 a1ff 1cb6 ff4b e234 cc39 c4b5
000001e0: fc0a 0b36 53e2 1c37 3e72 4e36 7a3d c336
000001f0: 63d0 a936 adc2 8b37 609e 9336 8cef 05b5
00000200: a1b7 ef33 eb3d eeb3 251f d533 7f07 1034
00000210: 6544 b033 ab36 07b4 a811 05b4 2bcc 71b3
00000220: 03bf 9c33 1363 ebb3 161b f833 4e5d c733
00000230: 6729 bf33 a6b3 e732 4e8a 06b3 2664 16b4
00000240: 58d1 71b3 bad7 65b1 eeeb 0634 e2ab 4933
00000250: d340 2733 affa 9ab3 b78b da33 4cfe e932
00000260: f8f9 19b4 3f7e 1db4 55df 0634 22de 56b1
00000270: fb02 1934 17d5 d2b3 ce94 ae33 38f5 d1b0
00000280: f67b 2032 ca00 d6b2 318f 88b3 3b13 3ab3
00000290: 1916 0d34 c1df e0b2 9e98 1134 d244 16b4
000002a0: f332 9b33 6165 c333 815a a4b3 12a7 8eb3
000002b0: 760b 2733 a3db 53b4 15dc f0b1 1244 fab3
000002c0: aead 7bb3 06d7 30b3 15a4 9ab3 8288 f0b3
000002d0: bc37 0e34 7b5f 5ab3 5caa 8932 9eeb 0c34
000002e0: 9ec5 25b3 fbcf f7b3 7a4d 4d34 4297 d733
000002f0: a329 9532 498f 24b3 8455 ae33 c761 10b2
00000300: b0bf 9d33 0b75 4ab4 93e4 0bb4 3b6c 09b4
00000310: 20f1 7533 d4ee 51b3 0172 85b3 07ef 8b32
00000320: 15fd b3b2 af7d d6b3 dc72 b733 0f8c 2433
00000330: 463e 3cb3 b592 9f33 72a9 79b3 7ad5 9b32
00000340: 0df6 f9b3 44f5 60b4 9cf7 e333 b61b 0134
00000350: da9a 14b4 58fd 5eb4 d54e a8b3 efff 3233
00000360: 8b78 e033 5ce4 e833 b22f 1eb4 b7ee 9832
00000370: 24c5 1332 00ec 80b3 71be 3b33 c1ae 54b4
00000380: 8e37 6ab3 b21b 50b3 6d26 5633 8f4c 4533
00000390: bd83 ad33 1267 ad33 58f0 e032 2afc 3eb4
000003a0: 1222 ad33 3bf7 0234 e55b 02b4 e296 65b3
000003b0: 67fc 29b4 d880 18b4 32b6 1e34 0855 e433
000003c0: 6106 f1b3 d357 0e33 75ac f0af 9844 ad32
000003d0: ae44 85b1 751d f933 6e72 e633 473b dbb3
000003e0: 599b 2833 659f c232 decf ec33 db49 11b4
000003f0: 0786 c2b3 26f5 3e33 db80 bbb3 c403 a1b2
-6.153102e-07 -2.0463187e-06 -2.1323906e-06 -2.103352e-06 -2.421526e-06 -7.880429e-07 -2.0702328e-06 6.2799027e-06
4.7656004e-06 -1.9891205e-07 -1.4698453e-06 1.0577345e-05 -1.67649e-06 3.930535e-06 5.402016e-06 -5.745825e-07
1.2729061e-05 -2.578149e-06 -1.5786635e-06 1.6440991e-06 -5.608887e-07 -1.8420898e-06 8.2185725e-06 -5.830845e-07
-8.7873696e-07 -1.2071841e-07 2.947214e-06 3.7052337e-06 -3.1700168e-07 -2.0883965e-06 1.2297442e-05 4.1663343e-06
-1.5962121e-07 -2.4243802e-06 4.4223357e-06 1.42515055e-05 -8.408722e-07 2.9555504e-06 -8.924624e-07 4.4208005e-06
-2.0219159e-06 -2.0303526e-06 1.9324161e-05 4.5003744e-06 -1.1442868e-06 8.289872e-06 7.923984e-06 1.9778638e-06
7.74807e-06 2.5065992e-06 -4.6773644e-07 1.1392113e-06 -1.1840385e-06 -2.6187488e-06 -1.5980726e-06 5.1749856e-07
3.9152877e-07 -2.2578256e-06 -5.579848e-07 -2.19336e-06 1.0374405e-05 3.6807924e-06 2.678688e-06 -2.5336522e-06
1.0562253e-05 5.7604966e-06 -1.8672167e-06 -4.065046e-07 5.28055e-06 -2.6290104e-06 9.656615e-06 8.802833e-06
-2.6055861e-06 1.0159147e-06 -2.19739e-06 -2.2232073e-06 1.0154225e-05 3.9637234e-06 -2.5609936e-06 -2.5466345e-06
6.2327183e-07 5.1152324e-06 1.8753158e-06 2.744338e-06 1.7893379e-05 1.8364724e-05 8.76859e-06 1.0370408e-05
-2.428425e-06 -2.417087e-06 1.2093311e-06 -3.4795323e-07 1.7571618e-05 -2.4065498e-06 8.711689e-06 5.564142e-06
-8.7907915e-07 -2.599175e-06 -1.3817155e-06 -2.3727966e-06 -1.0990371e-06 -2.2873464e-06 5.5841883e-06 5.444464e-06
3.7753065e-07 8.6082025e-07 6.7614874e-06 -1.036305e-06 3.6891747e-06 6.1516057e-06 -2.130685e-06 2.627147e-06
-2.1636824e-06 -1.5375913e-06 -2.4888097e-06 3.419935e-06 -1.4994832e-06 -2.3394607e-06 4.2151075e-07 -1.4619959e-06
2.0719008e-06 9.35102e-06 3.076289e-06 5.8186097e-06 5.060852e-06 1.6660744e-05 4.3993787e-06 -4.989495e-07
1.1162707e-07 -1.10940015e-07 9.9242506e-08 1.3413772e-07 8.2080795e-08 -1.2592743e-07 -1.2393014e-07 -5.6297875e-08
7.299061e-08 -1.0961062e-07 1.1553327e-07 9.2836316e-08 8.9016616e-08 2.6973634e-08 -3.1325094e-08 -1.4006272e-07
-5.6302582e-08 -3.3446512e-09 1.2565553e-07 4.6955286e-08 3.8941675e-08 -7.216783e-08 1.017683e-07 2.724041e-08
-1.4340173e-07 -1.4667692e-07 1.256097e-07 -3.1267366e-09 1.425032e-07 -9.817648e-08 8.129574e-08 -1.5276447e-09
9.341411e-09 -2.4913238e-08 -6.35904e-08 -4.332399e-08 1.3139687e-07 -2.6178784e-08 1.3559699e-07 -1.3994875e-07
7.2270176e-08 9.098836e-08 -7.653308e-08 -6.64278e-08 3.889314e-08 -1.973081e-07 -7.0099397e-09 -1.1653914e-07
-5.8598452e-08 -4.1173756e-08 -7.20103e-08 -1.12007015e-07 1.3245057e-07 -5.084392e-08 1.602637e-08 1.3124233e-07
-3.8596788e-08 -1.1539665e-07 1.9120299e-07 1.0039231e-07 1.7364817e-08 -3.8314543e-08 8.1180616e-08 -8.404135e-09
7.34575e-08 -1.8855296e-07 -1.3028539e-07 -1.2798493e-07 5.726281e-08 -4.8878817e-08 -6.214032e-08 1.6290427e-08
-2.0953431e-08 -9.988013e-08 8.5424944e-08 3.8311608e-08 -4.38288e-08 7.4307e-08 -5.812894e-08 1.8141453e-08
-1.16397224e-07 -2.0950853e-07 1.0615551e-07 1.2024142e-07 -1.3839909e-07 -2.0767527e-07 -7.837449e-08 4.1676625e-08
1.04527395e-07 1.084488e-07 -1.4732248e-07 1.7803684e-08 8.601351e-09 -6.0033926e-08 4.3712536e-08 -1.9807614e-07
-5.4532897e-08 -4.8453963e-08 4.9860706e-08 4.5937266e-08 8.079903e-08 8.074689e-08 2.6186328e-08 -1.7786866e-07
8.0621376e-08 1.2197135e-07 -1.2140625e-07 -5.3455445e-08 -1.5831175e-07 -1.4202976e-07 1.4781179e-07 1.06325444e-07
-1.1223597e-07 3.3141827e-08 -4.3778284e-10 2.0171044e-08 -3.8786174e-09 1.1600324e-07 1.0731024e-07 -1.0208765e-07
3.9256836e-08 2.2657057e-08 1.1027417e-07 -1.3531046e-07 -9.0582084e-08 4.4460783e-08 -8.731305e-08 -1.874458e-08
