PFG-GAME/config/results/train02/DifficultyAgent/DifficultyAgent-143521.onnx (onnx, 75090 bytes, 6 tensors)

network_body._body_endoder.seq_layers.0.weight f4 [128, 4]
00000000: e43c f63e ab64 fd3e 0002 babd 2155 0dbf
00000010: 3da0 523d eb2f e7be 6870 89be 63dd 123f
00000020: 7eb3 25bf 8f8a b1be e3b2 c0be 048e 903f
00000030: 72eb bfbe af66 203e 772d c7be cf5b 48be
00000040: 94f4 5dbf 9142 ec3e 9231 06bf 6842 23bf
00000050: 778c 9abe 1869 bbbe 401b 85bd 6bcb c33e
00000060: 5542 c53e b7e5 a63d 73fe 89be 5d51 283f
00000070: 33fa 01bf 5908 633e 5005 ed3e da3e 923d
00000080: 3a4d 17bf a1b1 ed3d 5d50 b73e 2a8f b53e
00000090: 0d6f b13e 31f6 01be c07d 12bb 2c1e 943e
000000a0: 2098 5ebf 530d 373d 135c 64be 6694 33be
000000b0: a851 7b3e d6d4 3ebd c769 2d3f abd2 293e
000000c0: 8ce0 78be 598c 393d c697 95bf 501f 9dbe
000000d0: 9c9b 9f3e 2afb ccbd e69c 9e3e 3cd0 63bf
000000e0: 1f1c ff3e 6f29 513e 571e d13e 42f8 453e
000000f0: d0c4 76be 6b27 bb3e 7217 1bbd 19b0 1bbf
00000100: d901 bd3d c9a7 e93e 9488 4c3f 499d 95bf
00000110: 61e2 e7be 5efc 933e 93f7 27bf c14a 2f3e
00000120: aaa0 c6bd e805 6abf a7b0 7bbe 124a 59be
00000130: f3a4 d8bd 93ab d7be 8905 133e e6ca c53d
00000140: 6e08 5d3f 2bc4 d73e 61b4 8fbd a16d 9ebd
00000150: ad7c 753b 0fc9 a03e f1f1 72be 721d 743e
00000160: 3d4a 4a3d b45b 843e 2eac 0d3f d598 953e
00000170: 1f48 04bd bc76 d2be 948c 8ebd 7c04 b23e
00000180: b207 1dbe 3450 6cbe 7538 96bd 8fee a33e
00000190: c0c7 463e 2345 2abf c286 483c f8b8 aa3e
000001a0: efdf c9bd fdb9 2ebe a460 6c3e 0ddb debe
000001b0: 35fc dc3e ca50 3a3e 4a51 993e d249 763e
000001c0: 5e2a d73d 6b79 323f 55d7 79bd 92f6 71bd
000001d0: e5e8 ac3e 2fa8 85bf 9730 90be 68df 07bf
000001e0: 1afa 943f 620a 3ebf f4c5 433f 7f43 6e3e
000001f0: 2229 c5bd 52ed 213f d9c9 a73e a036 ea3e
00000200: 0745 963f e6e5 c9be 2b15 9ebc ef75 b0bb
00000210: 905d cdbe b527 ce3e 21d3 d7be 0a56 d9bd
00000220: 0153 91be 7867 5f3e 9d54 b43e 7e5d f4be
00000230: 003a 3f3e eb56 323f adee 5e3f f6b4 b7be
00000240: 08e7 c3be b3f9 133f 9b19 00be 66b3 543f
00000250: 2f3d 27bf a36d 563e b282 803e 32ab cb3e
00000260: 068c f1be 6ff3 fa3d 5a8e 08be 1190 46be
00000270: 1c0c 0b3e 32b6 1a3c 5770 b83e 1ab5 96be
00000280: 0efe 5c3f b565 1e3f 63ea a9be 091e c8bd
00000290: f48f f8bc 14e9 0c3f 35f9 7bbf 2a15 2ebd
000002a0: d2c0 a4be b066 78be 27ec 8e3f 76e3 09bf
000002b0: 4391 a53e 39b6 6b3e cb5a b63e 2057 a73e
000002c0: 15da ec3d d283 d0be bdd4 16be 0b8b e6be
000002d0: b881 1dbf 4fb4 a43e eefc 153f 55f6 f53d
000002e0: a7c6 cdbd 94fe 0bbe 5c53 0c3f 4122 3bbe
000002f0: cade 0ebe bee4 413e 8640 423e 1fb9 8f3e
00000300: 023b 89bf fc94 a9be 0f61 0b3f 2e9a ebbe
00000310: 4bf9 263f 085b e13e 25df 603e f640 9c3e
00000320: e6f3 183f a320 d0be 6ee6 18bd f8bf 633f
00000330: 7522 883e 5efa 1b3e cea3 fa3d 0919 573f
00000340: a91d 023f 068c 973e ac04 34be 4c58 993e
00000350: 6a86 58be 8845 1cbe fbcf 07bf 13a5 f43e
00000360: 8960 323f 7d43 113f 610a 5dbe 5c86 8abf
00000370: d5bf 2cbf 6d9d cc3d 5c28 f73c d687 413e
00000380: 39ef 8fbf 4e95 3dbf 3ac3 373d e1fc 8ebe
00000390: 398e 933e 238b 06be 515b a3be 2d30 823f
000003a0: 6d3c 04bf 061c 663e b3de cbbd 1d32 33bf
000003b0: eacc d7be 4165 eabe 6ccf ccbe dcd2 2fbf
000003c0: d219 94be 272d dd3e 2d72 2c3f e8d9 a33c
000003d0: 3189 cebc 331c ab3c 6d32 9a3e 1a94 d63e
000003e0: 3f1e 323f d742 a53f 562c 5e3e 475c a63e
000003f0: 4a56 6fb9 e2fe 0a3f 46b3 01bf 50b3 c43e
0.4809333 0.49490866 -0.09082413 -0.5520802 0.051422346 -0.45153746 -0.26843572 0.5736906
-0.6472701 -0.34676024 -0.3763648 1.129334 -0.37484318 0.1566417 -0.38901874 -0.19566272
-0.8670132 0.46144536 -0.5241939 -0.637732 -0.3018529 -0.36603618 -0.06499338 0.38241133
0.3852717 0.081492834 -0.26951942 0.6574915 -0.507724 0.22171153 0.46293116 0.07140894
-0.59102213 0.11606146 0.358035 0.35460788 0.34655038 -0.12691571 -0.0022352785 0.2892927
-0.86950874 0.04469044 -0.22300749 -0.17537078 0.24542868 -0.046589695 0.6773953 0.1658427
-0.24304408 0.04529986 -1.1686943 -0.30687952 0.31173408 -0.10008843 0.3097908 -0.88989615
0.49826142 0.20425962 0.4084346 0.19332984 -0.24098516 0.3655351 -0.037864156 -0.6081558
0.09228868 0.45635822 0.798959 -1.1688625 -0.452899 0.28903478 -0.65612143 0.1711836
-0.09698613 -0.9141526 -0.24579106 -0.21219662 -0.105783366 -0.42123088 0.1435758 0.096578404
0.8634099 0.42141852 -0.070168264 -0.07735754 0.0037458346 0.31403396 -0.23725106 0.23839357
0.049387205 0.25851214 0.5534085 0.29218164 -0.032295343 -0.41106212 -0.06960407 0.34769046
-0.15334967 -0.2307747 -0.07334987 0.32017943 0.19412136 -0.66511744 0.01223916 0.33344245
-0.09857165 -0.17063136 0.2308374 -0.43526497 0.4316117 0.18194881 0.2994483 0.24051598
0.10506128 0.6971652 -0.060996372 -0.05907304 0.33771434 -1.044195 -0.2816207 -0.53075266
1.1638825 -0.7423459 0.7647393 0.23267935 -0.09626986 0.6325275 0.32771185 0.457448
1.1739815 -0.3943321 -0.019297203 -0.0053851525 -0.40110445 0.4026467 -0.42153266 -0.10612114
-0.2838364 0.21816814 0.35220805 -0.4772758 0.18674469 0.69663876 0.8708294 -0.3588025
-0.382622 0.57802886 -0.12509768 0.8308624 -0.65327734 0.2094026 0.25099713 0.3977905
-0.47177142 0.122534625 -0.13335553 -0.19390894 0.13578838 0.009442853 0.36023208 -0.29435045
0.86325157 0.6187394 -0.33186635 -0.09771354 -0.03034208 0.5504315 -0.98427135 -0.042500652
-0.3217836 -0.24257922 1.1165818 -0.538627 0.32337388 0.23018731 0.35616145 0.3268366
0.11565033 -0.4072557 -0.1472959 -0.45027956 -0.6152606 0.32168815 0.58589065 0.12009875
-0.100476556 -0.13671333 0.54814696 -0.18274786 -0.13952175 0.18934914 0.18969926 0.28070924
-1.0721133 -0.3312148 0.54444975 -0.46016067 0.6522414 0.44014764 0.21960123 0.3051831
0.5974716 -0.406499 -0.03732913 0.88964796 0.2658879 0.15232226 0.122382745 0.84022576
0.5082651 0.29599017 -0.17579907 0.29950178 -0.21145025 -0.15260899 -0.5305173 0.47782192
0.6967855 0.56743604 -0.2158599 -1.0822253 -0.6748021 0.09990964 0.030170612 0.18899474
-1.124488 -0.74055946 0.044863917 -0.27927306 0.28819445 -0.13139014 -0.31905606 1.0170952
-0.516547 0.22471628 -0.09954586 -0.6999834 -0.42148525 -0.45780376 -0.40002 -0.6868112
-0.2892595 0.4319851 0.6736172 0.020001367 -0.025211902 0.02088747 0.30116597 0.41909868
0.695774 1.2911023 0.216966 0.32492277 -0.00022824961 0.5429517 -0.50664175 0.38418055

network_body._body_endoder.seq_layers.0.bias f4 [128]
00000000: 9984 ac3b 739f d0bb 4796 b83b e262 a73b
00000010: 5900 c03a 9f6f c9bb b697 e6bb 9215 513a
00000020: bb39 b83b 3712 cebb c511 673b 2d03 fd3b
00000030: 2a21 373b 5eaa 013b 266a 7b3a 0c31 f3bb
00000040: b5f8 e23a 749b 2fbb a4bb ca3b 75b3 853b
00000050: 6c65 213a ceda 88bb 5091 fb3b 5e66 2d3b
00000060: cf42 fdbb 4b2a fabb 894b e43b b965 1d3b
00000070: 2dda d93b 572e a7bb 8b80 013c 3e7d a039
00000080: e186 ad39 50bf 25bb ed11 4aba 2b8c f23a
00000090: 97b8 cd3b 7167 503a e433 eb3b aa9b 9ebb
000000a0: f500 b13a 3bc5 073b 8097 413b 28df 26bb
000000b0: 2058 443b 13bb f7bb 89ad 263b 5d48 dcbb
000000c0: 4b5d d939 96c9 62ba 51f7 14bb 8d06 d0bb
000000d0: f036 f63b 3b8d 93bb 6601 353a 0003 d53b
000000e0: 6d0d c4ba 9779 e5bb 8a83 113c 184e b23b
000000f0: 8020 493b 4b8d 35b7 6a57 aa3b 6c14 35bb
00000100: 1d1a e23b 1f23 f9bb 9017 f3bb 87af d2bb
00000110: 90b9 833b d9ca 81bb 04a7 2b3a 94fc 193b
00000120: 93c3 44bb d89f 8bbb 7fc6 0a3a b4cf d939
00000130: 95a0 c53a 4985 823b cc43 98bb 675c f9ba
00000140: 85ea adbb 4986 14bc 6bc9 bf3b 9cf1 dd3b
00000150: 02d6 99ba f897 91bb dfbd ccba d854 9b3b
00000160: 642e 3c3b 9bd6 143b 6807 d0bb 9fd9 fcb9
00000170: be08 be3b 2b53 aebb d2fc 9c3b d9ca 04bc
00000180: fec4 7fbb bac9 8abb 83ff d0b9 5696 c93a
00000190: d9e9 163b 7ecc 043b 6947 1c3b d737 c9bb
000001a0: c566 723b 419a c73b fe83 9bbb 220b 86bb
000001b0: 00e4 d2bb 734f 97bb aa25 a63b b8e5 bf3b
000001c0: afd7 c6bb aec4 eb38 f7f5 2bbb 806e 943a
000001d0: f388 f8ba 2153 cb3b 7ed1 de3b cb9a a1bb
000001e0: 2222 3e3b a8c0 553b a2f5 d93b 91df c9bb
000001f0: 44d6 16bb d9e1 df3b 06d9 84bb 792a 81b9
0.0052648303 -0.006366664 0.005633149 0.0051082233 0.0014648541 -0.0061473395 -0.0070371283 0.00079759315
0.0056221164 -0.0062887925 0.0035258394 0.007721326 0.0027943351 0.0019785385 0.00095907075 -0.0074216183
0.0017316552 -0.0026795538 0.0061869193 0.004080231 0.00061567756 -0.004176474 0.0076772347 0.002645872
-0.0077289115 -0.0076344362 0.0069670123 0.002401693 0.006648323 -0.0051019597 0.007904182 0.0003061089
0.00033097624 -0.0025291033 -0.00077083596 0.0018504908 0.0062781083 0.0007949984 0.0071778167 -0.004840334
0.0013504314 0.0020716924 0.0029539764 -0.0025462601 0.0029959753 -0.007560143 0.0025433025 -0.0067224936
0.00041458974 -0.00086512545 -0.002273042 -0.006348437 0.0075138733 -0.00450292 0.00069048104 0.006500602
-0.0014957614 -0.00700302 0.008881459 0.0054414384 0.0030689538 -1.0821338e-05 0.005198409 -0.002763058
0.0069000856 -0.0076030637 -0.0074185804 -0.006429616 0.0040199235 -0.003960949 0.00065480196 0.0023496496
-0.0030023798 -0.004260998 0.00052938604 0.00041544216 0.0015077764 0.003983174 -0.004646754 -0.001902473
-0.005307498 -0.009065219 0.0058528683 0.006773187 -0.0011736753 -0.004443165 -0.0015620551 0.004740339
0.0028714174 0.0022710923 -0.006348539 -0.00048227326 0.005799382 -0.005319973 0.0047908807 -0.008105003
-0.0039027329 -0.0042354735 -0.00039863223 0.0015379887 0.0023027568 0.0020263488 0.0023846275 -0.00614069
0.0036987525 0.0060913865 -0.0047459593 -0.0040906826 -0.006435871 -0.0046176254 0.005070408 0.005856242
-0.006068192 0.00011242308 -0.0026239136 0.0011324435 -0.0018961712 0.006204978 0.0067998758 -0.004931783
0.0029012044 0.0032616053 0.006651596 -0.0061606844 -0.0023015896 0.006832343 -0.0040541915 -0.00024636442

network_body._body_endoder.seq_layers.2.weight f4 [128, 128]
00000000: 1da2 373d 8f10 fbbd da1d 09be b6cb 4b3e
00000010: d03f febd 803c d6bd d01c b4bd a639 ccbc
00000020: e8e0 173e 758b 3abe 0829 28be 9843 ecba
00000030: edd8 5a3c d584 15bc 3d9c 26be dc52 31bd
00000040: 2223 24bd 593e 1bbe 7d1e 33be aab8 51be
00000050: b147 1c3e fe75 b23c 73d3 32bd 7cdd ccbd
00000060: 7c88 51b9 181c 823d 2b99 25bd 573c afbd
00000070: 42f1 cb3d 38a7 ebbd dcc0 7cbc bf8e 303c
00000080: 2d48 e2bb 03de 7f3c 7997 dd3d 2236 113d
00000090: fbc5 07be b76f e1bd fd20 4a3c 428c aebd
000000a0: e8d0 f93d 3bf3 d03d 4b38 b7bc f09b 42be
000000b0: ff6c 65bd d138 2e3c 2af4 8f3d 135a 07be
000000c0: b992 603d 95c9 793d d247 553c 3016 863d
000000d0: e28a 6dbc e784 233d 232f 6a3c d186 d23c
000000e0: 1f12 8b3d 8cb7 06bc 6dbc 123d 4dd6 68bc
000000f0: 32a8 e2bc 2909 973d 7849 52bd d482 d5bd
00000100: 2976 133e 15ad 813d 18b8 fb3d 17ba 2cbe
00000110: 41b7 41bd 5cb6 5f3d eee4 65bc f0b8 3c3d
00000120: 8740 143d 8400 8c3b 05bf 3dbd 2daf 7b3d
00000130: 0a42 08bd 17ca e73d 290c ad3c d801 fdbb
00000140: 805d ebbd 3f6c 653d ce9e 253e 0441 d33c
00000150: b5e1 8f3d 6fd8 fb3d 3879 753c 2e9b c13d
00000160: f4c1 083c fc30 b8bc 8446 32bd 413c 11bd
00000170: ca0a 87be bf42 15bd ff8e 5c3d d701 e33c
00000180: 6afe 7e3c e029 be3c ddf2 073d caeb 2fbd
00000190: 9bda 81bd d62d 17bd 0791 b43d 8729 1bbd
000001a0: 380f c03d 17a6 cfbd ce9f fb3d 0c9c c33d
000001b0: 937a 3cbb 808c e93d e7f7 073e df1b 603c
000001c0: 836c 8e3c 829d a33c f45a 48bd 62e7 603d
000001d0: 5e7b fdbd 0a85 f3bb 80d1 453d e7bc f1ba
000001e0: 00e7 b3bd b53e 67bd 163c c13d aea9 7a3d
000001f0: 8a00 61bd 5127 cabc 67a6 303e 5ae9 38be
00000200: de2d 663d 53d0 8d3d 6514 ad3d fb00 cabd
00000210: 26ad ce3c 0ff5 06bc 6dab e93c 35bd 95bd
00000220: d2e7 a13d 7d60 33bd 2b35 7e3c 258d 143d
00000230: 7dab c03d 2955 c5bc abb7 57bc 7972 a4bc
00000240: 9689 553e 0294 423d d0c1 89bd a4ce 883e
00000250: 59c9 ffbb f36d 3dbd 199e b43c 21af e0bd
00000260: b759 9bbc a7f7 b83d 420f 2c3d 6100 7e3d
00000270: 2efc f2bd cf8c d63d ab77 b2bd ccd6 8f3d
00000280: 569e 87bd 05cb 803d 1c6c 243e be44 2abe
00000290: 698c 1c3d a237 5d3d cad8 c3bd e5cd 3a3c
000002a0: 05a4 91bd a6db fabc b8b0 16bd 18d3 51bd
000002b0: 6627 8f3b 0beb 49be 4afd 37bc 49a9 23bd
000002c0: 1190 953d d802 293c f7f3 e63b fec3 92bc
000002d0: 65a5 08be e1b6 96bd f3df 52bd 750c 9139
000002e0: ca32 b03c aba3 08bd a492 16bd 1e00 d83c
000002f0: b428 c13c 1d21 48bd 8ba7 163e e09f 923d
00000300: 2c7e 44bc 4865 1ebd 112a 3f3d 5a34 b6bc
00000310: 84bb 513c 3523 d6bd f91e c8bd a8dc edbb
00000320: febe 0d3e 7403 583c 1dd5 1bbd ea96 a23d
00000330: 9307 343d 60b5 823d 61f0 703d 89ad 843c
00000340: e14f b8bd 4c5c 8f3d 4a3d 17bb eef5 323e
00000350: df0a d63d d3d0 47bc c93a d0bb e3af a2bd
00000360: d7a6 2e3e 9caf 8f3d 93fa b3bd 7df1 24bd
00000370: 4c8f aaba 3947 a8bd 405c d2bd ed40 33bd
00000380: 42f1 50bd ec96 a73d 211d ac3d 36df 8d3d
00000390: 4d0f 05bc 5c5a 953c 7c0c fbbd bb33 8cbd
000003a0: dc16 0c3d 9faa fc3d 82ce 8dbd 766b bfbd
000003b0: 92b3 373e e9f0 aebd 3052 1c3d a7b4 013d
000003c0: bc49 3e3e 7bb7 a5bd d43f 433e 8d97 4e3d
000003d0: 72f5 073e 0a88 6bb8 eedc ee3d 23b7 a73c
000003e0: c129 a4bd 4b20 cdbb b735 8cbd d9af 0d3e
000003f0: 8fa8 9cbc 9a13 dc3d afb6 0e3d a99a 353e
0.044832338 -0.12259018 -0.13390294 0.19901928 -0.12414515 -0.10460758 -0.08794558 -0.024929833
0.14831889 -0.18217261 -0.16421902 -0.0018025516 0.013357383 -0.009125908 -0.16270538 -0.04329191
-0.040072568 -0.15160502 -0.17492099 -0.204806 0.15261723 0.021784779 -0.043658685 -0.10003182
-0.00019982638 0.06353015 -0.040429275 -0.08556431 0.09958126 -0.11506504 -0.015426841 0.010776221
-0.0069055767 0.015616897 0.10819907 0.035452016 -0.13259117 -0.11007636 0.012336967 -0.08522846
0.12198049 0.102026425 -0.02236571 -0.19004798 -0.05601215 0.010633663 0.070289925 -0.13217954
0.054827426 0.06098326 0.013017612 0.06547201 -0.014498444 0.039921667 0.014293465 0.025699051
0.06790566 -0.008222472 0.035824228 -0.01421125 -0.027668092 0.07374794 -0.051339597 -0.10425344
0.14400543 0.06331841 0.122909725 -0.16867863 -0.047293905 0.05461727 -0.014031632 0.046074808
0.03619435 0.0042725224 -0.04632475 0.061446358 -0.033266105 0.113178425 0.021123962 -0.007721167
-0.11492443 0.056011435 0.1617386 0.025787838 0.07025472 0.12297141 0.014982514 0.09453426
0.008347023 -0.022484295 -0.04352428 -0.035457853 -0.2637542 -0.036440607 0.05384731 0.027710838
0.015563587 0.023213327 0.033190597 -0.042949475 -0.06340524 -0.036908947 0.08816724 -0.0378814
0.09377903 -0.10139101 0.1228634 0.09551248 -0.0028759583 0.114037514 0.13278161 0.01367852
0.017385727 0.019972567 -0.048914865 0.054908164 -0.12377046 -0.007431631 0.048295498 -0.0018443138
-0.08784294 -0.056456286 0.094352886 0.061196975 -0.054932155 -0.02467695 0.17250977 -0.18057767
0.056196086 0.069245 0.084511556 -0.09863468 0.025229048 -0.008237137 0.028524125 -0.07311479
0.07905544 -0.04379319 0.015515606 0.03626742 0.09407709 -0.02408846 -0.013166348 -0.020074116
0.20853266 0.047504432 -0.0672642 0.26720154 -0.007805985 -0.046247434 0.022048043 -0.10970903
-0.018963678 0.09031611 0.04200674 0.06201208 -0.11864506 0.10476076 -0.08714231 0.07023391
-0.06621997 0.06288723 0.16056865 -0.16627786 0.038219843 0.054008134 -0.095628336 0.011401628
-0.07111362 -0.030622315 -0.036789626 -0.051226705 0.0043687103 -0.19718568 -0.011229822 -0.039956365
0.07302869 0.010315619 0.007048126 -0.017915722 -0.13344343 -0.073591 -0.051483106 0.00027665836
0.021508593 -0.03335921 -0.03676094 0.026367243 0.02357898 -0.048859704 0.1471235 0.071594
-0.011992972 -0.038670808 0.046670977 -0.02224176 0.012801055 -0.10455934 -0.097715326 -0.0072589703
0.13842389 0.013184417 -0.038045038 0.07938941 0.043952536 0.06382251 0.058822993 0.01619603
-0.08999611 0.07000026 -0.0023077303 0.17476627 0.10451292 -0.012195784 -0.006354664 -0.07943704
0.17055832 0.07015917 -0.087880276 -0.040269364 -0.0013012676 -0.0821671 -0.102715015 -0.04376309
-0.05101133 0.08183083 0.084039934 0.0692734 -0.008121324 0.018231563 -0.122582406 -0.06845804
0.034201488 0.12337231 -0.06924154 -0.093466684 0.17939594 -0.08542044 0.038164318 0.031666424
0.18582815 -0.08091637 0.19067317 0.0504375 0.13277224 -5.6155062e-05 0.11663233 0.020473069
-0.080157764 -0.006259953 -0.06846183 0.13836612 -0.019123344 0.10745926 0.03484219 0.1773478

network_body._body_endoder.seq_layers.2.bias f4 [128]
00000000: 4008 a1b9 963a 133a c3f5 f1ba 9e34 b43a
00000010: f628 b6ba c601 c9bb e9a9 98bb bb40 a03b
00000020: df3c edbb c5c0 0dbc 4570 19bc d7bb d5ba
00000030: 8d06 6cbb c569 fa3b 018e bfbb 3228 a8bb
00000040: e7e9 ac3a e232 04bc 995b f9bb 01b0 d23b
00000050: a0a2 f7bb e93e bc3b 516e 86b9 5bad 19bc
00000060: c551 d53a c12a b4ba 2f56 d0bb 4c98 94bb
00000070: 8d89 bdbb 5eb8 cfbb f87b c6bb ae07 ca3b
00000080: a0ec dbbb ddb7 063c 9bb7 a0bb 6654 01bb
00000090: 9c6b d4bb c077 faba 626d 543b 48c9 4bbb
000000a0: 4714 ceba dc42 febb d236 86bb 112d aabb
000000b0: 0180 ef3b 02ff 33bb ffdf d33b 9f57 953a
000000c0: 739b e03b 95c0 a7b9 7489 ebbb 0c40 a0bb
000000d0: b5da dbbb 0049 2e3b a657 f1bb 3f6a dbbb
000000e0: c109 75bb cea0 933b cde4 013c ea60 4d3b
000000f0: da4d 4039 0ee8 5a3b 0974 f3bb 13ed 17bb
00000100: 2969 e2bb 10c9 86bb 3ae7 e2bb af61 f5bb
00000110: 61a0 e23b a9e6 d2bb 967d f63b 1fec 11ba
00000120: 81cc f2bb 21ca d63b 38fb fabb d592 c3bb
00000130: cc10 8c3b 4e6c 843b 73d1 9ebb c452 4b3a
00000140: 3e65 87bb 20df f23b 222b 85bb 2527 16bc
00000150: e22b d73b cc20 be3a b97f b13b 6c30 03bb
00000160: 8e37 de3b fb06 9f3b 2904 89bb 7c0a ed3b
00000170: 16dc ac3b d480 e03a fd52 5cba 44e2 c6bb
00000180: 55e0 18ba 5f58 8e3b 9136 843b 11c3 533b
00000190: 3004 afba 9610 153b 7482 85bb 1ce1 dc3b
000001a0: 2359 fe3b bb64 8539 334b f3bb 9b8d 043b
000001b0: 5fd8 debb fbcf 70bb 911c e23b 9ef4 23bb
000001c0: 1c07 023c 0519 bd3b 1581 ab3b 5404 bdbb
000001d0: 71d0 e83b 5360 e6bb 723e 22bb 17ee ec3b
000001e0: 4898 a13a 2c6e b2bb 1082 2bbb bb91 8e3a
000001f0: acf4 ccbb 74a2 d63b bf99 c13a cbdf e73b
-0.0003071446 0.0005616335 -0.0018460084 0.0013748591 -0.0013897705 -0.0061342446 -0.0046589267 0.004890529
-0.0072399224 -0.008651917 -0.009365146 -0.0016306591 -0.0036014647 0.0076420032 -0.0058457856 -0.005131745
0.0013192267 -0.008068772 -0.0076097962 0.0064296727 -0.007557228 0.005744804 -0.00025640664 -0.00937971
0.001627498 -0.0013745652 -0.00635793 -0.0045347568 -0.0057842196 -0.006339117 -0.0060572587 0.0061654663
-0.0067115575 0.008222547 -0.0049047 -0.0019734143 -0.0064825546 -0.0019109175 0.003241383 -0.0031095315
-0.0015722596 -0.007759435 -0.0040958906 -0.0051933606 0.0073089604 -0.002746523 0.0064659114 0.0011393911
0.0068544685 -0.00031996207 -0.0071880165 -0.0048904475 -0.0067094215 0.0026593804 -0.007365185 -0.006696015
-0.0037389847 0.0045052534 0.0079280855 0.0031338283 0.00018339549 0.0033402476 -0.007429604 -0.0023182079
-0.0069095087 -0.004113324 -0.006924537 -0.0074884514 0.0069160913 -0.0064361882 0.007522295 -0.0005566496
-0.0074096327 0.0065548574 -0.007659342 -0.0059684315 0.0042744633 0.0040412312 -0.0048467456 0.00077561685
-0.004131942 0.0074118525 -0.0040639797 -0.009164606 0.0065665105 0.0014505624 0.005416837 -0.0020017875
0.006781525 0.004853127 -0.004181404 0.007233916 0.0052752597 0.0017128238 -0.00084047 -0.0060694534
-0.0005831768 0.0043440307 0.004034825 0.0032312314 -0.0013352688 0.0022745482 -0.004074389 0.0067407023
0.007762091 0.00025442787 -0.007424736 0.0020226005 -0.006800696 -0.003674506 0.006900378 -0.002501763
0.007936265 0.005770805 0.0052338936 -0.005768338 0.0071049263 -0.0070305257 -0.0024756459 0.007230531
0.0012328709 -0.0054452624 -0.0026170053 0.0010877171 -0.006254753 0.0065501276 0.0014770551 0.0070762387

action_model._discrete_distribution.branches.0.weight f4 [3, 128]
00000000: 92ae 38bc 1e67 86bb 1e09 843b 0f44 c83b
00000010: 1bf6 f1ba 4870 bfbb f530 603c 6440 c1bb
00000020: 3fd0 8d3c 9f91 91bb 254f b2bb 076f e23b
00000030: 1f60 4bbc 79ed 7c3c 6547 49bb 1181 013c
00000040: f889 49ba da87 193c eb26 f0ba e7f1 9e3a
00000050: 4bd2 9eba fed0 d53b bdf0 e93a 624c b3bb
00000060: 7710 013c 5595 edba 1213 dcbb 0a61 5a3c
00000070: 46da a33c e571 2f3c 2fdb 033c 2248 973b
00000080: 81dd 953c fc20 e0bb 2d42 72bb 61ff 04bc
00000090: 3da3 99bb 9f29 74bc 02d4 7ebb 2495 0ebb
000000a0: 8ca6 393c 303c 6fbb a09d 213c e7ed 313c
000000b0: ca88 fdbb fc29 87bc 098d e03a 02ab d73b
000000c0: 5564 923b dd53 ccbb 085b c0bb d99a 843c
000000d0: c33a 8e38 ccf1 93bb 6503 833b e5c7 95bb
000000e0: d169 3cbb da11 4fbc 68df 0f3c 91ad 133b
000000f0: 9120 5dbc 437f 01bc a1af 973b 83bf 6ebc
00000100: 3e99 f6ba 8930 4a3b e2e8 1abc f4e9 86ba
00000110: c8bc fbbb f60f cfbb 379c f039 d062 dbbc
00000120: 0b73 7839 bc8b 3dbc 5488 923a fa4c 323b
00000130: c27d 5abb aa1f 603c 1496 363c 283d 44bb
00000140: b338 43bb 74f2 8038 7378 5339 e2bc c8bb
00000150: f8a8 d33b a138 99bc 7522 993c f671 643b
00000160: ea6e b0bb 5292 ebbb f7a5 663c 1c0a 513c
00000170: 7b47 933c 5bc3 24bc 5015 80bc 0cf5 8c38
00000180: 369b 8cba e3c6 433b 88a4 01bc 21bc 353c
00000190: fc8e 3bbc 47c3 363b 2036 ac3a d14c 31b8
000001a0: a729 2bbb 5b6c a0bb 76bb 293b fdcb 5ebc
000001b0: 07da 7abb 2fab 093b 97be db3b 4da9 28bc
000001c0: 2e4f 8f3b f72b 42bb 3a7f 9dbb c0d3 ef3b
000001d0: 1939 9aba 7edf 07bc 8058 74bb fae8 cd3b
000001e0: e849 093c c74b c2ba e397 80bc fc7e 03bc
000001f0: 6ca8 d6ba 2fcc 4f3c e7b8 8a3a 9ad7 0c3b
00000200: 2729 71bb f79f 6c3b 2b42 f9bb d813 2d3c
00000210: 76c6 8fba 78e3 493c 82c2 6e3c 18fa a1bb
00000220: 9011 cd3c 92a5 e4ba 28c3 553a c001 13bc
00000230: c1e7 643c c9db 5d38 8b33 313c 39e6 683c
00000240: 7561 7c3b b26a b43c 96b1 3c3c db83 1fbc
00000250: daf6 3b3c c075 d1bc 0183 b73b 14f4 ecba
00000260: be00 33bc 623b 273c ad0a 873c a191 a53b
00000270: b610 a03c a698 113c 437c 023c 3593 38bb
00000280: 90d8 bd3c 0745 80bc 3b03 98bb 575b 4bba
00000290: 7467 deba db9f 5fbb a152 feb9 ac1e d1bb
000002a0: 4603 cd3a 05a0 733b f7f5 a73c 8dd5 e63b
000002b0: 0d20 94bc 6446 6f3b 1ddf e2bb 12bf a7bb
000002c0: 471e 833a b709 223c 4b66 103c 1e89 b83b
000002d0: e92b c33b 6bf0 41bc f413 673c 4899 ac3b
000002e0: 59c3 4e3c 34d2 9abb 1fb4 bfbc 61af 88bc
000002f0: 9e77 443b 8ef4 abb9 22f6 473c 2f3f 523c
00000300: 5d87 5aba d093 833c bc47 0d3c d2a0 113c
00000310: b140 2ebc 88b7 d83c b0d7 80bc 28cd 09bc
00000320: fea4 843c 6b2b 72bc ceba d03b 25d3 493c
00000330: 51b9 8bbc 8793 bbb9 8452 8a3a bba9 75bc
00000340: 2974 03bc 9b7a c3bb 1b14 dcbb f6cd ea3a
00000350: 3010 f0bb f3de d6bb 52a5 a5bb 96b3 b4bb
00000360: 643c 37bc c8c8 b2bb c482 783b 6cb4 60bb
00000370: c892 593a 3837 d2bb 99c0 3abb f567 17bb
00000380: 10a5 c4b9 776b 353b 599a e7bb af7c 18bb
00000390: 20f3 203c 7228 6f3a 584c 583c 1347 37bc
000003a0: 08e5 98bc af37 e83b 5e43 353c 3b5c fcbb
000003b0: 0e98 833a 78b6 6c39 8ca5 cebb 491e 0fbc
000003c0: 5429 59bb 9b9c 41bb e9eb 88bc 6cd8 b43b
000003d0: 3683 76bc dc1b 25bb 3f35 eabb 0b0a 00bc
000003e0: 3e86 053c 07b8 923b c024 8e3b c770 06bb
000003f0: 7aa1 3b3c 259b 36bc e072 5dbc 95df 6fbc
-0.01127209 -0.004101648 0.004029407 0.006111629 -0.0018460186 -0.0058422424 0.013683547 -0.0058975685
0.017311214 -0.004442408 -0.0054415637 0.006910208 -0.012413054 0.015437477 -0.003071272 0.007904307
-0.00076881004 0.009370768 -0.0018322145 0.0012126536 -0.0012117116 0.006525158 0.0017848235 -0.005471752
0.007877461 -0.001812617 -0.0067161405 0.0133288 0.020001542 0.010708307 0.008047863 0.004616753
0.018294098 -0.0068398695 -0.0036965713 -0.008117528 -0.004688649 -0.014902501 -0.003888369 -0.0021756375
0.011331212 -0.003650438 0.009864241 0.010859943 -0.007737254 -0.016499512 0.0017131876 0.006581665
0.004467527 -0.006235583 -0.005870227 0.016187118 6.782033e-05 -0.0045149084 0.0039982074 -0.0045709484
-0.0028749595 -0.0126385335 0.008781292 0.0022533874 -0.013496534 -0.007903877 0.004629091 -0.014572027
-0.001881398 0.0030851683 -0.009454938 -0.0010293112 -0.0076824166 -0.0063190414 0.00045892756 -0.026780516
0.0002369398 -0.01156896 0.0011179545 0.0027206526 -0.0033339118 0.013679424 0.01114418 -0.0029943679
-0.0029788434 6.148676e-05 0.00020167399 -0.006126032 0.0064593516 -0.01870376 0.018693188 0.0034857965
-0.0053843157 -0.0071890736 0.014077655 0.012758758 0.01797842 -0.010056342 -0.015635163 6.721364e-05
-0.0010727409 0.0029873184 -0.007912762 0.011092217 -0.011447664 0.002788739 0.0013138689 -4.227163e-05
-0.0026117356 -0.0048957295 0.002589909 -0.013598439 -0.0038276927 0.0021006574 0.0067060697 -0.010294271
0.0043734526 -0.0029628256 -0.0048064264 0.0073189437 -0.0011766284 -0.008293031 -0.0037284195 0.0062838765
0.008379437 -0.0014823609 -0.015697425 -0.008025881 -0.0016377098 0.0126829585 0.001058367 0.0021490813
-0.003679821 0.0036106089 -0.007606765 0.010563813 -0.001096918 0.012322299 0.014572741 -0.0049431436
0.025032789 -0.0017444363 0.0008154386 -0.008972585 0.01397127 5.2895197e-05 0.010815511 0.014215046
0.0038510237 0.022023533 0.011516949 -0.009736027 0.011472428 -0.025568843 0.0056003337 -0.0018078112
-0.01092547 0.010207029 0.016484583 0.0050527607 0.019539218 0.008886492 0.007964197 -0.0028163914
0.023174554 -0.015657915 -0.004639057 -0.0007757446 -0.0016968087 -0.003412238 -0.0004850822 -0.00638183
0.0015641234 0.0037174236 0.020503027 0.0070445 -0.01808169 0.0036510462 -0.00692357 -0.005119213
0.001000353 0.0098900115 0.008813451 0.00563158 0.0059561622 -0.011837105 0.014103878 0.005267296
0.012619817 -0.004724765 -0.023401318 -0.01668519 0.0029978524 -0.0003279787 0.012204679 0.012832447
-0.0008336211 0.016061693 0.00862306 0.00888844 -0.010635541 0.026454702 -0.015727848 -0.0084107295
0.016191956 -0.014780859 0.006369925 0.012318407 -0.01705614 -0.00035777336 0.0010553156 -0.01499408
-0.0080233 -0.0059655434 -0.006716264 0.0017914164 -0.0073261485 -0.0065573393 -0.005055108 -0.0055145724
-0.011183832 -0.005456064 0.003791974 -0.0034287227 0.0008299765 -0.006415274 -0.0028496145 -0.0023102735
-0.00037507014 0.0027682462 -0.00706796 -0.0023267677 0.0098235905 0.0009123153 0.0132017955 -0.011186379
-0.018663898 0.007086716 0.011063425 -0.0077014244 0.0010039823 0.00022574689 -0.006306356 -0.008735248
-0.0033136206 -0.0029542807 -0.016714053 0.0055189636 -0.015045932 -0.0025193607 -0.0071474607 -0.007814894
0.008149682 0.004477504 0.004337877 -0.0020513998 0.011452073 -0.011145388 -0.013516158 -0.014640708

action_model._discrete_distribution.branches.0.bias f4 [3]
00000000: 4f3c f23a 91cb 10bc e442 da3b
0.0018481108 -0.0088375965 0.006660806
